context/0920_tskone_context_lr0.4_dummy3/model.pt (torch, 3223 bytes, 6 tensors)

l1_w f4 [2, 33]
00000000: 45c0 5f40 1737 1d3f e37b 3040 b728 8840
00000010: fb65 4140 8285 593f a10b 82c0 c309 e5c0
00000020: a044 4e40 6917 ad40 93fb 1abf 0c67 4240
00000030: 526e 963f d3ba 6340 3fe2 3740 e86c f1be
00000040: b2fb 6740 bf65 2dc0 3eb2 c240 6af5 6f40
00000050: cc37 fcc0 01a0 0ec1 8516 4fc0 8afe fcbf
00000060: 2780 93bf 7f0a 4fbf 986d 85c0 b4e4 12c1
00000070: 80e7 b040 5a32 4a40 f1c3 8e41 02e2 4941
00000080: 022e e840 c8ef ea3f 4080 84bf aa56 873f
00000090: 7c16 2240 3586 c03f 14ea 1cbf 5a86 bdc0
000000a0: 9a6c 11c1 495f b43f df5b 5d40 f7eb 23c0
000000b0: 676a 8f3f dcb1 3cbf 9f36 df3f 35d9 603f
000000c0: 3a30 1ec0 4c78 ea3f aadb 91c0 a6e4 8b40
000000d0: df3a 0840 0d4b 1dc1 2a81 2dc1 c456 9bc0
000000e0: caf1 62c0 61d7 36c0 068f 1ec0 aa68 b9c0
000000f0: 4390 2fc1 c442 7040 b3a5 aa3f a356 7f41
00000100: 91de 2841 5439 b140
3.4961102 0.61412185 2.7575614 4.25497 3.0218494 0.8496934 -4.0639195 -7.1574416
3.2229385 5.4091077 -0.6054012 3.0375395 1.1752417 3.5582778 2.873184 -0.471534
3.6247373 -2.709335 6.084258 3.749354 -7.881811 -8.914063 -3.2357495 -1.9765179
-1.1523484 -0.8087539 -4.169628 -9.180836 5.5282593 3.1593232 17.845675 12.617678
7.255616 1.8354425 -1.0351639 1.0573323 2.5326223 1.5040957 -0.61294675 -5.9226503
-9.089014 1.4091579 3.4587324 -2.5612772 1.1204346 -0.7370889 1.7438544 0.8783143
-2.4716935 1.8317962 -4.5580645 4.371661 2.1285932 -9.830823 -10.844034 -4.8543415
-3.5460076 -2.8568957 -2.4774795 -5.7940264 -10.97272 3.754075 1.3331817 15.958652
10.5543375 5.538248

l1_b f4 [2]
00000000: c71b b7c0 fb72 f4c0
-5.722141 -7.6390357

exp_avg f4 [2, 33]
00000000: bf15 11bb 43d4 04bb 393e 10bb fed0 0abb
00000010: 1382 0cbb bd51 07bb 5905 fcba 1721 09bb
00000020: 9d7c 1ebb b1a9 13bb dd9c 02bb b31a 0ebb
00000030: 6825 07bb ad80 0abb 073c 17bb d144 0fbb
00000040: 7bf8 0cbb aa2f 0bbb 02c9 17bb 3d2a 0dbb
00000050: 81bb 0abb 9b1b 05bb c38e 09bb d9aa 04bb
00000060: 6844 0bbb 69c9 02bb 09a8 feba c0e1 04bb
00000070: 40f6 0fbb 3640 03bb 63f0 0cbb 0848 16bb
00000080: 758a 0dbb 8d15 11bb 11d4 04bb 073e 10bb
00000090: cfd0 0abb e181 0cbb 8d51 07bb f704 fcba
000000a0: e220 09bb 667c 1ebb 7ea9 13bb ad9c 02bb
000000b0: 7e1a 0ebb 3425 07bb 7b80 0abb d03b 17bb
000000c0: 9e44 0fbb 47f8 0cbb 772f 0bbb cdc8 17bb
000000d0: 0d2a 0dbb 4bbb 0abb 671b 05bb 938e 09bb
000000e0: abaa 04bb 3744 0bbb 39c9 02bb aea7 feba
000000f0: 8ce1 04bb 10f6 0fbb 0940 03bb 38f0 0cbb
00000100: d747 16bb 448a 0dbb
-0.0022138206 -0.002026812 -0.0022009744 -0.0021181698 -0.0021439835 -0.0020648085 -0.0019227668 -0.0020924264
-0.0024183162 -0.0022531564 -0.0019929924 -0.0021683394 -0.002062166 -0.0021133826 -0.002307655 -0.0021861086
-0.002151041 -0.0021238127 -0.0023160581 -0.0021540069 -0.002116889 -0.0020310644 -0.0020989634 -0.0020243435
-0.002125049 -0.0019956476 -0.001942874 -0.002027616 -0.0021966845 -0.0020027286 -0.0021505586 -0.0022931118
-0.002159742 -0.002213809 -0.0020268003 -0.0022009627 -0.0021181589 -0.0021439719 -0.0020647973 -0.0019227554
-0.002092414 -0.0024183034 -0.0022531445 -0.0019929812 -0.002168327 -0.002062154 -0.002113371 -0.0023076423
-0.0021860967 -0.002151029 -0.0021238008 -0.0023160458 -0.0021539957 -0.0021168764 -0.0020310523 -0.0020989522
-0.0020243328 -0.0021250376 -0.0019956364 -0.0019428635 -0.0020276038 -0.0021966733 -0.0020027182 -0.0021505486
-0.0022931003 -0.0021597305

exp_avg_sq f4 [2, 33]
00000000: 913e 623a c88d 613a 2f8f 613a 4c01 503a
00000010: c217 6b3a 2a57 573a 883c 4f3a 0cae 843a
00000020: 5bdf 8d3a e271 853a 5fea 723a f920 7d3a
00000030: e6f4 713a 9141 6b3a e441 7f3a fb50 793a
00000040: 6d13 643a 333d 7c3a cb61 6f3a 1ff3 653a
00000050: 24e1 853a 32bc 883a 9c44 5f3a 4eb9 4e3a
00000060: 3731 6c3a 5e2e 523a 2f8e 523a 1886 6b3a
00000070: 51bd 553a 6542 4c3a 277c 2f3a 4343 603a
00000080: 68ee 563a 983e 623a c58d 613a 328f 613a
00000090: 4e01 503a c017 6b3a 2957 573a 893c 4f3a
000000a0: 0cae 843a 5adf 8d3a e071 853a 5eea 723a
000000b0: f320 7d3a e6f4 713a 9641 6b3a e441 7f3a
000000c0: ff50 793a 6d13 643a 3b3d 7c3a c761 6f3a
000000d0: 20f3 653a 23e1 853a 30bc 883a 9d44 5f3a
000000e0: 4cb9 4e3a 3731 6c3a 602e 523a 2d8e 523a
000000f0: 1786 6b3a 4cbd 553a 6942 4c3a 257c 2f3a
00000100: 3b43 603a 62ee 563a
0.0008630539 0.0008604196 0.0008604405 0.00079347636 0.0008968079 0.00082145876 0.0007905443 0.0010122671
0.0010824011 0.0010181034 0.00092664914 0.00096560974 0.0009229913 0.0008974309 0.00097372965 0.0009510663
0.00087004044 0.00096221565 0.0009131699 0.00087718846 0.0010214192 0.0010432063 0.00085169985 0.0007885889
0.0009010019 0.00080177735 0.0008032051 0.000898452 0.00081535155 0.0007791876 0.00066942204 0.00085549447
0.00081989774 0.0008630543 0.0008604194 0.00086044066 0.0007934765 0.00089680776 0.0008214587 0.0007905444
0.0010122671 0.001082401 0.0010181032 0.0009266491 0.0009656094 0.0009229913 0.00089743116 0.00097372965
0.00095106655 0.00087004044 0.0009622161 0.00091316964 0.0008771885 0.0010214191 0.0010432061 0.0008516999
0.0007885888 0.0009010019 0.00080177747 0.000803205 0.00089845195 0.00081535126 0.00077918783 0.0006694219
0.000855494 0.0008198974

exp_avg f4 [2]
00000000: 11be 1fbb ddbd 1fbb
-0.0024374763 -0.0024374642

exp_avg_sq f4 [2]
00000000: d6a6 8d3a d7a6 8d3a
0.0010807167 0.0010807168
