context/220318_ann_direct/model.pt (torch, 2403 bytes, 3 tensors)

l1.weight f4 [2, 34]
00000000: fc03 8bbe 5a80 7dbf 0350 e0be bfdb 31bf
00000010: d26b febe 9d5f 493e 24a6 2ebf 2716 02bf
00000020: ce8f 1e3e 5e88 55be 66be ddbf c9c5 4bbd
00000030: af7f adbf 4735 bfbf a226 163f d0df ce3f
00000040: 402c c53d 1e0f 973d fc20 c23e ffc5 ff3d
00000050: 5a6b 37bf 78f2 89bf 1f60 25bf b510 7cbf
00000060: c9f9 21bf 4e3a 6ebd 2b18 27bf acf1 02bf
00000070: 9381 49bf 5914 6cbf fc25 8cbf 50a8 01c0
00000080: c073 c2be 48d6 853f c8aa e63e b8dd 693f
00000090: 99a2 6c3e ed6d 363f b8ad ee3e d87c 9ebe
000000a0: 4569 673f 0de1 463f 6ff9 133d d18a 863e
000000b0: 95c3 cc3f a049 c53d f311 cc3f ebbe b33f
000000c0: d9b5 1cbf 0898 acbf 0711 e8bd 4574 7cbd
000000d0: a522 b1be c130 e5be 0b87 0d3f 535d 893f
000000e0: 7458 443f 1583 923f 1bd1 4c3f cfd2 413e
000000f0: 2ee5 1d3f 4201 2b3f 0b2a 463f da6d 763f
00000100: 8ddb a03f 4e4f 1040 8f17 c23e 3791 87bf
-0.27151477 -0.99023974 -0.43811044 -0.6947593 -0.49691635 0.1966538 -0.6822226 -0.5081505
0.15484545 -0.20852801 -1.732373 -0.04974917 -1.3554591 -1.4938134 0.586527 1.6162052
0.09627581 0.0737593 0.3791579 0.12488937 -0.7164818 -1.077712 -0.64599794 -0.9846299
-0.63271767 -0.058161072 -0.6527125 -0.5115001 -0.7871334 -0.9221855 -1.0949092 -2.025898
-0.37978935 1.0456018 0.4505217 0.9135394 0.23108901 0.71261483 0.46616912 -0.30954623
0.90395004 0.7768715 0.03612655 0.26277784 1.5997187 0.096331835 1.5942978 1.4042639
-0.6121498 -1.3483896 -0.11331373 -0.06163432 -0.34596744 -0.4476376 0.55284184 1.0731605
0.7669747 1.1446253 0.8000657 0.18928073 0.61677825 0.66798794 0.774079 0.9626137
1.2567002 2.2548404 0.379086 -1.0591191

exp_avg f4 [2, 34]
00000000: fc8c ecb7 a1a6 0938 3654 00b8 ee4a 2d38
00000010: 1ab2 6eb5 6e06 1bb9 bb87 fc38 4c85 5438
00000020: 9424 5437 7b3f 0138 bd7c 3339 cc93 aab7
00000030: 9745 0139 6c64 2539 14fc 3fb8 63ce 0eb9
00000040: dc4c 8338 a111 8f36 e76f 8eb7 86c9 7d38
00000050: 9ea9 9838 794c be38 f33c 5138 fd5f 0b39
00000060: b5e9 1638 c156 80b8 b7ab d938 e830 b738
00000070: 2d63 5f38 0922 b938 945e 3c39 865f 9d39
00000080: 5165 8ab7 591d a5b8 bc89 ec37 53a4 09b8
00000090: 8c52 0038 be4c 2db8 a94c 6e35 cb05 1b39
000000a0: 4c88 fcb8 0d87 54b8 4629 54b7 7340 01b8
000000b0: 807d 33b9 8e95 aa37 6946 01b9 f564 25b9
000000c0: 93fd 3f38 e8cd 0e39 b24c 83b8 8a18 8fb6
000000d0: 7c6b 8e37 d8c9 7db8 67aa 98b8 4c4a beb8
000000e0: ae3e 51b8 6960 0bb9 19e7 16b8 e155 8038
000000f0: d2ab d9b8 0931 b7b8 2262 5fb8 cb21 b9b8
00000100: 525e 3cb9 355f 9db9 3b69 8a37 771d a538
-2.8199043e-05 3.281853e-05 -3.0596006e-05 4.1316198e-05 -8.892108e-07 -0.00014784347 0.00012041578 5.066888e-05
1.2644701e-05 3.0815117e-05 0.00017117239 -2.0334403e-05 0.00012328323 0.00015773036 -4.5772715e-05 -0.0001361906
6.260883e-05 4.2637844e-06 -1.6979828e-05 6.0507584e-05 7.2795185e-05 9.07415e-05 4.9886246e-05 0.00013291831
3.5980443e-05 -6.119675e-05 0.00010379351 8.7352295e-05 5.3259708e-05 8.827827e-05 0.0001796431 0.00030016544
-1.6498061e-05 -7.8732795e-05 2.819753e-05 -3.2816384e-05 3.0594456e-05 -4.1317886e-05 8.8773464e-07 0.0001478411
-0.00012041684 -5.0670515e-05 -1.2645794e-05 -3.081602e-05 -0.00017117523 2.0335221e-05 -0.00012328629 -0.00015773236
4.5774108e-05 0.00013618881 -6.2608524e-05 -4.264589e-06 1.697777e-05 -6.0507882e-05 -7.279665e-05 -9.073745e-05
-4.9887858e-05 -0.00013291989 -3.5978013e-05 6.119512e-05 -0.0001037937 -8.7352535e-05 -5.3258736e-05 -8.827782e-05
-0.00017964214 -0.00030016308 1.6499884e-05 7.8733014e-05

exp_avg_sq f4 [2, 34]
00000000: c7b3 5638 8050 9837 7cbe 5e38 87ac 4b38
00000010: f2d4 1c37 afd4 1638 38b2 6338 9f78 7a38
00000020: d0f6 5037 386d 8636 ecd7 f037 208a 8936
00000030: dbf5 da37 4b5c 0038 7ba7 5436 590f 7837
00000040: 1bde 6f37 51ad 8637 e0c2 0f36 127d 1637
00000050: 3f7c 8838 89ea d737 6a25 8a38 b121 7738
00000060: 8031 d937 52df 4638 c7ef 7938 0f0a 9a38
00000070: 71ce 0d38 b6df 9d37 70bc 2e38 9950 c738
00000080: 0196 e937 019c 3637 c5b3 5638 8050 9837
00000090: 7cbe 5e38 87ac 4b38 f1d4 1c37 afd4 1638
000000a0: 38b2 6338 9f78 7a38 ccf6 5037 396d 8636
000000b0: ecd7 f037 208a 8936 dbf5 da37 4a5c 0038
000000c0: 7da7 5436 590f 7837 1ade 6f37 51ad 8637
000000d0: e1c2 0f36 127d 1637 3f7c 8838 88ea d737
000000e0: 6b25 8a38 b121 7738 8031 d937 54df 4638
000000f0: c7ef 7938 0f0a 9a38 70ce 0d38 b7df 9d37
00000100: 6ebc 2e38 9950 c738 0396 e937 009c 3637
5.1189007e-05 1.8157298e-05 5.3106327e-05 4.855965e-05 9.347905e-06 3.5960864e-05 5.4286997e-05 5.9716982e-05
1.2455232e-05 4.006226e-06 2.8710776e-05 4.098998e-06 2.610211e-05 3.0603533e-05 3.1687948e-06 1.4785525e-05
1.4297223e-05 1.6054752e-05 2.1422093e-06 8.969817e-06 6.508128e-05 2.5739211e-05 6.587322e-05 5.8920767e-05
2.5891466e-05 4.7414862e-05 5.9589536e-05 7.345166e-05 3.3809283e-05 1.8820032e-05 4.166033e-05 9.504072e-05
2.7845615e-05 1.0884368e-05 5.1189e-05 1.8157298e-05 5.3106327e-05 4.855965e-05 9.347904e-06 3.5960864e-05
5.4286997e-05 5.9716982e-05 1.2455228e-05 4.0062264e-06 2.8710776e-05 4.098998e-06 2.610211e-05 3.060353e-05
3.1687953e-06 1.4785525e-05 1.4297222e-05 1.6054752e-05 2.1422095e-06 8.969817e-06 6.508128e-05 2.573921e-05
6.5873224e-05 5.8920767e-05 2.5891466e-05 4.741487e-05 5.9589536e-05 7.345166e-05 3.380928e-05 1.8820034e-05
4.166032e-05 9.504072e-05 2.784562e-05 1.0884367e-05
