context/220719_mnist_ann_context_direct_lr0.01/model.pt (torch, 96031 bytes, 3 tensors)

l1.weight f4 [10, 785]
0	0xbd403d80	-0.04693365
1	0xbd406664	-0.046972647
2	0xbda4908e	-0.08035384
3	0xbd933be6	-0.07189159
4	0xbdb0e21c	-0.08636877
5	0xbdac3d3a	-0.084101155
6	0xbc83202f	-0.016006557
7	0xbcb1c79e	-0.02170163
8	0xbd2f01ce	-0.04272633
9	0xbc8df292	-0.01732758
10	0xbd835004	-0.06411746
11	0xbd92874e	-0.071547136
12	0xbca9f0aa	-0.02074464
13	0xbd592fb6	-0.053024016
14	0xbd35cef9	-0.044386838
15	0xbcf67f3a	-0.030089963
16	0xbd04a398	-0.032382578
17	0xbd92b16e	-0.07162748
18	0xbd851b9f	-0.06499409
19	0xbdac4c82	-0.0841303
20	0xbd4b3c9e	-0.049618356
21	0xbd830b85	-0.063986816
22	0xbd324830	-0.043525875
23	0xbd4ae05a	-0.049530365
24	0xbcaa164c	-0.020762585
25	0xbd45162a	-0.04811684
26	0xbd086a0e	-0.033304267
27	0xbd238be6	-0.03992834
28	0xbc9ff18e	-0.019524362
29	0xbd8739bc	-0.06602809
30	0xbcaf387c	-0.021389239
31	0xbcd1a4bc	-0.025591247
32	0xbd8601d6	-0.06543319
33	0xbcf00df2	-0.029303525
34	0xbc9445ac	-0.018099628
35	0xbd91a898	-0.07112235
36	0xbd841a26	-0.064503
37	0xbcd2471e	-0.025668677
38	0xbca72ee9	-0.02040811
39	0xbd2af311	-0.041735712
40	0xbd2ad9c9	-0.041711602
41	0xbccad94a	-0.024761815
42	0xbc8f522f	-0.017495243
43	0xbd966990	-0.07344353
44	0xbd89b64e	-0.06724225
45	0xbcad3048	-0.021141186
46	0xbcf8c3f5	-0.030366877
47	0xbd88b212	-0.06674589
48	0xbd7f67f1	-0.062354986
49	0xbc831303	-0.016000276
50	0xbd96366b	-0.07334598
51	0xbce72076	-0.02821372
52	0xbcf9b123	-0.030479973
53	0xbdaef112	-0.08542074
54	0xbdb1ce78	-0.08681959
55	0xbd212566	-0.039342307
56	0xbd09f304	-0.033679023
57	0xbca02fd6	-0.01955406
58	0xbd3fa044	-0.0467837
59	0xbcdeb942	-0.027187947
60	0xbd9cca35	-0.076557554
61	0xbcf3c1a9	-0.02975543
62	0xbdacdc38	-0.08440441
63	0xbcd491ea	-0.025948483
64	0xbd2bca51	-0.04194099
65	0xbc75979f	-0.014989763
66	0xbc879ffa	-0.016555775
67	0xbd5449b7	-0.051828112
68	0xbc93785a	-0.018001724
69	0xbb9cd0cf	-0.004785634
70	0x3c17010e	0.00921656
71	0xbc86f00a	-0.016471881
72	0xbaba4cd2	-0.0014213568
73	0xbbba5ec2	-0.0056875655
74	0xbc8b55d6	-0.017008703
75	0x3cbc22b5	0.022965768
76	0x39c5e8c7	0.000377482
77	0xbc9175f7	-0.017756445
78	0xbd5396fc	-0.05165766
79	0xbd9c131a	-0.07620831
80	0xbd2d6ab2	-0.04233808
81	0xbc937912	-0.018002067
82	0xbd109d56	-0.035306297
83	0xbda3da5a	-0.08000632
84	0xbd5ea384	-0.05435516
85	0xbd4bbd6e	-0.0497412
86	0xbce9a676	-0.028521758
87	0xbd15054c	-0.036382005
88	0xbd9a9200	-0.075473785
89	0xbda23403	-0.07920077
90	0xbcf927b3	-0.030414438
91	0xbc8088fc	-0.01569032
92	0xbb065b26	-0.0020501106
93	0x3d000c17	0.03126153
94	0x3d70ee27	0.05882087
95	0x3cc2c4a4	0.023775406
96	0x3cd64ccc	0.026159666
97	0x3dc8b93f	0.09800958
98	0x3e1112fa	0.14167395
99	0x3dc3e2cc	0.095647424
100	0x3de84e39	0.11343045
101	0x3e369f3d	0.17834182
102	0x3e416579	0.18886365
103	0x3e0bfaa0	0.13669825
104	0x3d98d7b3	0.07463016
105	0x3d7400e1	0.05957115
106	0xbca498e9	-0.020092444
107	0xbd0d87d9	-0.034553383
108	0xbd335fdb	-0.043792587
109	0xbd6af0d5	-0.05735858
110	0xbd143613	-0.03618438
111	0xbd4e959a	-0.05043564
112	0xbda26e1a	-0.079311565
113	0xbd60023d	-0.054689635
114	0xbd43bf99	-0.047790144
115	0xbceca761	-0.028888406
116	0xbd3bf60b	-0.04588894
117	0xbd3da4b5	-0.046299655
118	0xbbac06c4	-0.00524983
119	0x3c9ba080	0.01899743
120	0x3d3ac00a	0.0455933
121	0x3d5c9323	0.053851258
122	0x3ddaa109	0.10675246
123	0x3dbc3d02	0.09191324
124	0x3da02381	0.07819272
125	0xbc603e7c	-0.013686772
126	0xbd04761d	-0.032339204
127	0xbd66a13e	-0.056306116
128	0xbcf024d6	-0.02931444
129	0x3d1653ec	0.036701128
130	0x3d4b5682	0.049643047
131	0x3de23a5d	0.11046288
132	0x3daf11c5	0.08548311
133	0x3d8816fb	0.06645008
134	0x3d7273d1	0.059192482
135	0x3c8679b8	0.016415462
136	0x3c854a9f	0.016270934
137	0xbd3c96ba	-0.04604218
138	0xbcd47cf1	-0.025938483
139	0xbd773edd	-0.060362685
140	0xbd44d5c4	-0.048055425
141	0xbd224432	-0.039615817
142	0xbdaca652	-0.084301606
143	0xbd312389	-0.04324678
144	0xbca0b85b	-0.019619158
145	0x3b975d94	0.0046193097
146	0x3cb5fd0c	0.022215389
147	0x3d8f7d1d	0.07006285
148	0x3e0d5bb2	0.1380451
149	0x3e2d4c63	0.1692367
150	0x3de9903b	0.11404463
151	0x3db05864	0.08610609
152	0xbd605bea	-0.054775156
153	0xbe3f90f7	-0.18707643
154	0xbe93626a	-0.2878602
155	0xbeb204ca	-0.3476928
156	0xbeb53537	-0.35392162
157	0xbe88e25f	-0.26735207
158	0xbe3bc979	-0.18338574
159	0xbd9be50c	-0.076120466
160	0x3bd38ed7	0.006456237
161	0x3c913e44	0.017729886
162	0x3cc2ab13	0.023763215
163	0x3d91093d	0.0708184
164	0x3be9f7b4	0.007140124
165	0xbd0c104c	-0.03419523
166	0xbcd1b746	-0.025600087
167	0xbca6f687	-0.020381225
168	0xbd803399	-0.062598415
169	0xbdb0d73b	-0.08634802
170	0xbc80dd4f	-0.015730528
171	0xbcddbcac	-0.027067505
172	0xbab185cc	-0.0013543903
173	0x380b4840	3.320747e-05
174	0x3d5a8773	0.05335183
175	0x3e052900	0.13003922
176	0x3e4bfce2	0.19920686
177	0x3e50f033	0.20404129
178	0x3dd6bb26	0.104849145
179	0x3d71de90	0.059050143
180	0xbd64fb4d	-0.05590372
181	0xbe487463	-0.19575648
182	0xbe92c6a1	-0.28667167
183	0xbeb0a4be	-0.34500688
184	0xbedb881b	-0.42877278
185	0xbeed3173	-0.4632679
186	0xbebeeed2	-0.3729158
187	0xbe7ecf7a	-0.24883834
188	0xbdf38e52	-0.1189238
189	0xbdee6fd1	-0.11642421
190	0xbd53b596	-0.051686846
191	0x3d8e7d77	0.06957524
192	0x3dfab84f	0.12242185
193	0xbbfb2f7b	-0.007665572
194	0xbcd4ceac	-0.025977455
195	0xbcf02afa	-0.029317368
196	0xbd617149	-0.055039678
197	0xbd2e9517	-0.042622652
198	0xbcd4ba2b	-0.025967678
199	0xbd9d60a7	-0.076844506
200	0x3c317b72	0.010832654
201	0xbb2f7724	-0.0026773894
202	0x3dd706ef	0.10499369
203	0x3e3c1a19	0.1836933
204	0x3e3fe044	0.18737894
205	0x3e0e2751	0.13882186
206	0x3d1f86eb	0.038947027
207	0xbc198048	-0.009368964
208	0xbd59f2ac	-0.053209946
209	0xbdf58f4b	-0.119902216
210	0xbe4e6d43	-0.20158868
211	0xbe9e1974	-0.30878794
212	0xbee4bf80	-0.44677353
213	0xbf07c40a	-0.53033507
214	0xbf0733fd	-0.528137
215	0xbec20a1e	-0.37898344
216	0xbe58e1da	-0.21179906
217	0xbe158995	-0.14603265
218	0xbde6152f	-0.11234509
219	0x3cc5c817	0.024143262
220	0x3e034de6	0.12822685
221	0x3c7d2777	0.015451304
222	0xbd5f8c8d	-0.0545774
223	0xbd76f345	-0.060290594
224	0xbd314c9e	-0.04328596
225	0xbd8de11a	-0.069277
226	0xbce6465b	-0.02810972
227	0xbd80f4d6	-0.06296699
228	0x3c1a3648	0.009412356
229	0x3db107bd	0.08644054
230	0x3de3abae	0.1111673
231	0x3e19648d	0.14979763
232	0x3e26dd28	0.16295302
233	0x3e0650f2	0.13116816
234	0x3d48d2cb	0.049029153
235	0xbba07bc1	-0.004897565
236	0xbdbe4bc5	-0.09291796
237	0xbe3233f1	-0.17402627
238	0xbe79c947	-0.24393187
239	0xbe92329e	-0.28554243
240	0xbef8acf7	-0.48569462
241	0xbf04d257	-0.51883453
242	0xbf13a02e	-0.5766629
243	0xbee8cf00	-0.45470428
244	0xbea26bbf	-0.3172283
245	0xbe3dedd4	-0.18547755
246	0xbe55afb4	-0.20867807
247	0xbde4e50e	-0.11176501
248	0x3d1f90a7	0.03895631
249	0x3d97deee	0.07415567
250	0xbd26b948	-0.04070404
251	0xbd3c5711	-0.04598147
252	0xbda4e45a	-0.08051367
253	0xbd6ef02d	-0.05833452
254	0xbd980826	-0.07423429
255	0xbd5e3dfd	-0.054258335

exp_avg f4 [10, 785]
0	0xb9d35c82	-0.0004031398
1	0xb9d35c82	-0.0004031398
2	0xb9d35c82	-0.0004031398
3	0xb9d35c82	-0.0004031398
4	0xb9d35c82	-0.0004031398
5	0xb9d35c82	-0.0004031398
6	0xb9d35c82	-0.0004031398
7	0xb9d35c82	-0.0004031398
8	0xb9d35c82	-0.0004031398
9	0xb9d35c82	-0.0004031398
10	0xb9d35c82	-0.0004031398
11	0xb9d35c82	-0.0004031398
12	0xb9d35c82	-0.0004031398
13	0xb9d35c82	-0.0004031398
14	0xb9d35c82	-0.0004031398
15	0xb9d35c82	-0.0004031398
16	0xb9d35c82	-0.0004031398
17	0xb9d35c82	-0.0004031398
18	0xb9d35c82	-0.0004031398
19	0xb9d35c82	-0.0004031398
20	0xb9d35c82	-0.0004031398
21	0xb9d35c82	-0.0004031398
22	0xb9d35c82	-0.0004031398
23	0xb9d35c82	-0.0004031398
24	0xb9d35c82	-0.0004031398
25	0xb9d35c82	-0.0004031398
26	0xb9d35c82	-0.0004031398
27	0xb9d35c82	-0.0004031398
28	0xb9d35c82	-0.0004031398
29	0xb9d35c82	-0.0004031398
30	0xb9d35c82	-0.0004031398
31	0xb9d35c82	-0.0004031398
32	0xb9d35c82	-0.0004031398
33	0xb9d35c82	-0.0004031398
34	0xb9d35d36	-0.00040314504
35	0xb9d36122	-0.00040317426
36	0xb9d369c1	-0.0004032385
37	0xb9d365d4	-0.00040320924
38	0xb9d3848b	-0.00040343808
39	0xb9d3972d	-0.0004035769
40	0xb9d362af	-0.0004031858
41	0xb9d3765f	-0.0004033325
42	0xb9d3b283	-0.00040378058
43	0xb9d37909	-0.00040335234
44	0xb9d38850	-0.00040346617
45	0xb9d38eae	-0.0004035136
46	0xb9d364ce	-0.00040320161
47	0xb9d35e0e	-0.00040315132
48	0xb9d35ef4	-0.00040315802
49	0xb9d35f2a	-0.0004031596
50	0xb9d35ccd	-0.00040314198
51	0xb9d35c82	-0.0004031398
52	0xb9d35c82	-0.0004031398
53	0xb9d35c82	-0.0004031398
54	0xb9d35c82	-0.0004031398
55	0xb9d35c82	-0.0004031398
56	0xb9d35c82	-0.0004031398
57	0xb9d35c82	-0.0004031398
58	0xb9d35c82	-0.0004031398
59	0xb9d35c4c	-0.00040313823
60	0xb9d35d07	-0.00040314367
61	0xb9d35c82	-0.0004031398
62	0xb9d35cf8	-0.00040314323
63	0xb9d6bd81	-0.00040958452
64	0xb9dc51f9	-0.00042022744
65	0xb9dc2cae	-0.0004199496
66	0xb9d7aaf6	-0.0004113537
67	0xb9d50816	-0.0004063255
68	0xb9d7681d	-0.00041085566
69	0xb9d8ef9f	-0.00041377262
70	0xb9d8da29	-0.00041361272
71	0xb9dceff2	-0.00042140443
72	0xb9de3dfc	-0.00042389322
73	0xb9dccfd5	-0.00042116517
74	0xb9dcbb7e	-0.00042101362
75	0xb9dab9ed	-0.00041718726
76	0xb9d9838a	-0.0004148747
77	0xb9d6eb10	-0.00040992396
78	0xb9d55280	-0.00040687993
79	0xb9d4798b	-0.00040526348
80	0xb9d41ca1	-0.0004045712
81	0xb9d36e4b	-0.0004032723
82	0xb9d35c82	-0.0004031398
83	0xb9d35c82	-0.0004031398
84	0xb9d35c82	-0.0004031398
85	0xb9d35c82	-0.0004031398
86	0xb9d35c82	-0.0004031398
87	0xb9d35cb8	-0.00040314137
88	0xb9d6222f	-0.0004084273
89	0xb9d63a09	-0.000408605
90	0xb9d691a7	-0.0004092578
91	0xb9dde07f	-0.00042319667
92	0xb9dd6208	-0.00042225444
93	0xb9e14dd8	-0.00042973342
94	0xb9e8020d	-0.00044252016
95	0xb9e88cdc	-0.00044355437
96	0xb9e27757	-0.00043194994
97	0xb9f1fcfb	-0.00046155587
98	0xba001ff6	-0.0004887575
99	0xba01f0b0	-0.00049568247
100	0xba0d28f3	-0.0005384825
101	0xba0d499a	-0.00053896906
102	0xba07d1df	-0.00051811145
103	0xba04a4a3	-0.0005059933
104	0xb9f436bd	-0.0004658009
105	0xb9edcebd	-0.00045358195
106	0xb9f205b0	-0.00046162074
107	0xb9e03c6c	-0.00042769627
108	0xb9d4f88d	-0.00040620976
109	0xb9d3c591	-0.00040392255
110	0xb9d35c82	-0.0004031398
111	0xb9d35c82	-0.0004031398
112	0xb9d35c82	-0.0004031398
113	0xb9d35c82	-0.0004031398
114	0xb9d35df4	-0.00040315057
115	0xb9d35d24	-0.0004031445
116	0xb9d7c994	-0.00041158183
117	0xb9d9d801	-0.000415504
118	0xb9e23401	-0.00043144825
119	0xb9f2548c	-0.0004622083
120	0xb9e9e5c7	-0.0004461242
121	0xb9e53fbd	-0.00043725772
122	0xb9ef8746	-0.0004568642
123	0xb9eed7ae	-0.0004555559
124	0xb9e5116f	-0.00043691273
125	0xb9e3aa41	-0.00043423663
126	0xb9d12017	-0.00039887495
127	0xb9e18128	-0.00043011573
128	0xba03b576	-0.0005024293
129	0xba077e76	-0.00051686855
130	0xba05145c	-0.0005076581
131	0xba055e5d	-0.00050876086
132	0xba063b51	-0.0005120533
133	0xba04fc6e	-0.00050730153
134	0xb9fa9653	-0.00047795716
135	0xb9eeeeef	-0.00045572917
136	0xb9d750fb	-0.0004106833
137	0xb9d48ffc	-0.00040543068
138	0xb9d36c7b	-0.0004032588
139	0xb9d35c82	-0.0004031398
140	0xb9d35c82	-0.0004031398
141	0xb9d35c82	-0.0004031398
142	0xb9d38682	-0.00040345272
143	0xb9d38077	-0.0004034077
144	0xb9d9e389	-0.00041558992
145	0xb9dfe12f	-0.0004270165
146	0xb9f42131	-0.00046564036
147	0xb9ee5047	-0.0004545471
148	0xb9dd0808	-0.00042158389
149	0xb9da0189	-0.00041581344
150	0xb9bc3a9b	-0.0003590182
151	0xb9a12eb3	-0.00030743107
152	0xb9bb15c4	-0.00035683636
153	0xb9aeb087	-0.0003331939
154	0xb9912bb4	-0.00027689117
155	0xb9a8c344	-0.0003218894
156	0xb9b8fa85	-0.00035281866
157	0xb9f86d90	-0.00047383877
158	0xba0f6c10	-0.00054711197
159	0xba1be685	-0.0005947131
160	0xba20426b	-0.00061134127
161	0xba0ac7ae	-0.0005294037
162	0xb9eae26c	-0.00044800655
163	0xb9d45f91	-0.00040506994
164	0xb9dcc93e	-0.00042111607
165	0xb9dc1370	-0.00041976152
166	0xb9d49e7d	-0.00040553874
167	0xb9d35ca2	-0.00040314073
168	0xb9d35c82	-0.0004031398
169	0xb9d35c94	-0.00040314032
170	0xb9d35cdf	-0.0004031425
171	0xb9d3caf4	-0.00040396268
172	0xb9db3f25	-0.0004181798
173	0xb9e36bee	-0.00043377228
174	0xb9f549c8	-0.00046785013
175	0xb9e2858d	-0.00043205582
176	0xb9e17810	-0.00043004798
177	0xb9ccc57e	-0.00039057055
178	0xb99a22b7	-0.00029399034
179	0xb9b86de1	-0.0003517708
180	0xb9e2631c	-0.0004317992
181	0xb9e832fb	-0.00044288472
182	0xb9ce71f1	-0.00039376275
183	0xb9f87946	-0.00047392602
184	0xb9e64a60	-0.00043924432
185	0xb98d6bf7	-0.00026974056
186	0xb9d25152	-0.0004011491
187	0xba060ab5	-0.000511329
188	0xba0e209f	-0.0005421731
189	0xb9e51f09	-0.00043701407
190	0xb9c8e7ac	-0.00038319582
191	0xb9cf0ba2	-0.00039490784
192	0xb9e51fcd	-0.00043701977
193	0xb9eec187	-0.00045539087
194	0xb9d8988b	-0.00041312384
195	0xb9d364ad	-0.00040320065
196	0xb9d35c82	-0.0004031398
197	0xb9d36099	-0.00040317027
198	0xb9d386a3	-0.00040345368
199	0xb9d3f388	-0.000404265
200	0xb9dca35f	-0.0004208339
201	0xb9ee252e	-0.00045422598
202	0xb9f07f12	-0.00045871042
203	0xb9da1966	-0.00041599124
204	0xb9cdb305	-0.00039234027
205	0xb9a889c1	-0.00032146092
206	0xb9c297b2	-0.00037115585
207	0xb9e7e0f2	-0.0004422735
208	0xba08c206	-0.00052169
209	0xb9ea9357	-0.00044741735
210	0xb9e4eb25	-0.00043662745
211	0xb9f3db64	-0.0004651203
212	0xba0659bb	-0.0005125065
213	0xb9a36754	-0.00031166768
214	0xb952641f	-0.00020064459
215	0xb9c4ae8c	-0.0003751408
216	0xba1b1295	-0.00059155497
217	0xba2040b2	-0.0006113156
218	0xb9fdbd96	-0.00048397173
219	0xb9ef8ea1	-0.000456919
220	0xb9fb9f26	-0.00047993026
221	0xb9fb2372	-0.0004790086
222	0xb9e04608	-0.00042776787
223	0xb9d36bd6	-0.000403254
224	0xb9d35c82	-0.0004031398
225	0xb9d363b8	-0.00040319352
226	0xb9d38ecd	-0.0004035145
227	0xb9d41701	-0.0004045293
228	0xb9e254bb	-0.00043169208
229	0xba046c20	-0.0005051512
230	0xba0af88e	-0.000530132
231	0xb9e8adc6	-0.0004437996
232	0xb9c33900	-0.00037235767
233	0xb9c4f385	-0.0003756547
234	0xb9d5609e	-0.0004069851
235	0xba103b56	-0.0005502006
236	0xb9f95367	-0.0004755512
237	0xba15ebb4	-0.00057190214
238	0xb9d228f3	-0.0004008483
239	0xba03c047	-0.0005025905
240	0xb9e55c32	-0.00043746975
241	0xb96a78c3	-0.00022360966
242	0xb9287b1d	-0.00016067592
243	0xb9bfd781	-0.00036590922
244	0xba248245	-0.0006275515
245	0xba2c4fb1	-0.0006573154
246	0xba153a08	-0.0005692546
247	0xb9da4bce	-0.0004163668
248	0xb9ed7e95	-0.00045298474
249	0xb9fe4bb5	-0.0004850306
250	0xb9e70a2d	-0.00044067335
251	0xb9d35dbb	-0.0004031489
252	0xb9d36a1b	-0.0004032411
253	0xb9d38db0	-0.00040350622
254	0xb9d3a632	-0.0004036888
255	0xb9d56328	-0.00040700403

exp_avg_sq f4 [10, 785]
0	0x395d1865	0.0002108529
1	0x395d1865	0.0002108529
2	0x395d1865	0.0002108529
3	0x395d1865	0.0002108529
4	0x395d1865	0.0002108529
5	0x395d1865	0.0002108529
6	0x395d1865	0.0002108529
7	0x395d1865	0.0002108529
8	0x395d1865	0.0002108529
9	0x395d1865	0.0002108529
10	0x395d1865	0.0002108529
11	0x395d1865	0.0002108529
12	0x395d1869	0.00021085296
13	0x395d1884	0.00021085335
14	0x395d187b	0.00021085322
15	0x395d1865	0.0002108529
16	0x395d1865	0.0002108529
17	0x395d1865	0.0002108529
18	0x395d1865	0.0002108529
19	0x395d1865	0.0002108529
20	0x395d1865	0.0002108529
21	0x395d1865	0.0002108529
22	0x395d1865	0.0002108529
23	0x395d1865	0.0002108529
24	0x395d1865	0.0002108529
25	0x395d1865	0.0002108529
26	0x395d1865	0.0002108529
27	0x395d1865	0.0002108529
28	0x395d1865	0.0002108529
29	0x395d1865	0.0002108529
30	0x395d1865	0.0002108529
31	0x395d1865	0.0002108529
32	0x395d1860	0.00021085283
33	0x395d1860	0.00021085283
34	0x395d18a1	0.00021085377
35	0x395d1959	0.00021085645
36	0x395d1a18	0.00021085923
37	0x395d1cfe	0.00021087003
38	0x395d1f40	0.00021087844
39	0x395d2505	0.00021089993
40	0x395d399b	0.00021097662
41	0x395d2f9b	0.00021093937
42	0x395d221b	0.00021088908
43	0x395d2207	0.00021088879
44	0x395d2879	0.0002109128
45	0x395d2f29	0.00021093771
46	0x395d21f8	0.00021088857
47	0x395d1c43	0.0002108673
48	0x395d1b09	0.00021086274
49	0x395d19d6	0.00021085827
50	0x395d18e9	0.00021085482
51	0x395d185e	0.0002108528
52	0x395d1865	0.0002108529
53	0x395d1865	0.0002108529
54	0x395d1865	0.0002108529
55	0x395d1865	0.0002108529
56	0x395d1865	0.0002108529
57	0x395d1865	0.0002108529
58	0x395d1865	0.0002108529
59	0x395d1970	0.00021085679
60	0x395d1902	0.00021085519
61	0x395d1884	0.00021085335
62	0x395d1b11	0.00021086285
63	0x395d2304	0.00021089247
64	0x395d2ab7	0.00021092115
65	0x395d528c	0.00021106953
66	0x395d63f3	0.00021113436
67	0x395d90b9	0.00021130116
68	0x395dd4bc	0.00021155452
69	0x395e0963	0.00021175067
70	0x395e204d	0.00021183603
71	0x395e2dd2	0.00021188639
72	0x395e4be5	0.00021199843
73	0x395e2c3f	0.00021188053
74	0x395de873	0.00021162796
75	0x395da854	0.0002113891
76	0x395d6cb8	0.00021116703
77	0x395d4a2d	0.00021103835
78	0x395d3836	0.00021097143
79	0x395d244c	0.00021089724
80	0x395d1c5b	0.00021086766
81	0x395d1939	0.00021085599
82	0x395d1865	0.0002108529
83	0x395d1865	0.0002108529
84	0x395d1865	0.0002108529
85	0x395d1865	0.0002108529
86	0x395d1868	0.00021085294
87	0x395d1cfd	0.00021087001
88	0x395d1dd9	0.00021087322
89	0x395d23be	0.00021089517
90	0x395d332a	0.00021095262
91	0x395d6bad	0.00021116315
92	0x395dad3d	0.00021140739
93	0x395e273a	0.00021186183
94	0x395ec8dc	0.00021246396
95	0x395f9bbc	0.00021324953
96	0x3960bc9e	0.0002143257
97	0x3961c8e7	0.00021532514
98	0x396282b6	0.00021601733
99	0x39633537	0.00021668231
100	0x39636b8b	0.0002168847
101	0x3962dcd4	0.00021635304
102	0x3961c68c	0.00021531637
103	0x39610d54	0.00021462637
104	0x395fe3d2	0.00021351807
105	0x395ef12a	0.0002126141
106	0x395e1ee8	0.00021183083
107	0x395d8538	0.0002112583
108	0x395d36b1	0.00021096577
109	0x395d228d	0.00021089074
110	0x395d1a09	0.00021085901
111	0x395d1865	0.0002108529
112	0x395d1865	0.0002108529
113	0x395d1860	0.00021085283
114	0x395d187f	0.00021085328
115	0x395d1a51	0.00021086006
116	0x395d1f28	0.00021087809
117	0x395d4c30	0.00021104584
118	0x395db153	0.00021142261
119	0x395e5430	0.00021202932
120	0x395f8dbb	0.00021319736
121	0x396181a0	0.00021505961
122	0x396401e2	0.00021744476
123	0x3967676e	0.00022068407
124	0x396ba891	0.00022474142
125	0x39701ec5	0.00022899646
126	0x39743802	0.00023290518
127	0x3976d86d	0.00023541013
128	0x3976e6e6	0.00023546405
129	0x397497d2	0.00023326211
130	0x3970d09d	0.00022965898
131	0x396cfdcb	0.00022601259
132	0x3968757f	0.00022169015
133	0x396441b3	0.0002176825
134	0x39613658	0.00021477917
135	0x395ef719	0.00021263621
136	0x395dcd25	0.00021152625
137	0x395d46f6	0.00021102637
138	0x395d23ce	0.0002108954
139	0x395d1888	0.00021085341
140	0x395d1865	0.0002108529
141	0x395d1865	0.0002108529
142	0x395d192f	0.00021085584
143	0x395d1e7e	0.00021087562
144	0x395d381b	0.00021097103
145	0x395db90d	0.00021145139
146	0x395e9cc5	0.00021229971
147	0x39602daf	0.00021379323
148	0x396301c1	0.0002164906
149	0x396738df	0.00022051063
150	0x396cf1ae	0.00022596747
151	0x397463d4	0.00023306842
152	0x397cd141	0.00024110546
153	0x3982e5a4	0.00024966628
154	0x39869e13	0.00025676246
155	0x39891396	0.0002614527
156	0x3989705c	0.0002621439
157	0x3987824d	0.00025846288
158	0x3983dcf4	0.0002515089
159	0x397e5439	0.00024254703
160	0x3974aad6	0.00023333295
161	0x396c9543	0.00022562318
162	0x39661099	0.00021940692
163	0x39614fbc	0.00021487375
164	0x395ecd2a	0.00021248
165	0x395d8ba8	0.00021128228
166	0x395d348b	0.00021095776
167	0x395d1928	0.00021085574
168	0x395d1865	0.0002108529
169	0x395d1865	0.0002108529
170	0x395d197e	0.00021085699
171	0x395d26e5	0.00021090692
172	0x395d6e2e	0.00021117248
173	0x395e583c	0.0002120444
174	0x39600474	0.00021363964
175	0x3962f383	0.00021643755
176	0x39682cd9	0.00022141951
177	0x396fbb56	0.00022862604
178	0x39785d88	0.00023685966
179	0x3980e6ea	0.00024586107
180	0x39863b21	0.00025602526
181	0x398b2274	0.00026537816
182	0x398e9456	0.0002719487
183	0x39913271	0.00027694137
184	0x3991b9cb	0.00027794982
185	0x39901fe7	0.0002748959
186	0x398c43cf	0.00026753402
187	0x3986452e	0.00025610015
188	0x39801cc5	0.00024435497
189	0x39751830	0.00023374031
190	0x396ba449	0.00022472547
191	0x3964a93c	0.00021806819
192	0x395ffee8	0.00021361897
193	0x395df578	0.00021167647
194	0x395d460e	0.000211023
195	0x395d1e55	0.00021087502
196	0x395d185e	0.0002108528
197	0x395d1895	0.0002108536
198	0x395d1f6e	0.00021087911
199	0x395d3c90	0.00021098764
200	0x395dcf09	0.00021153329
201	0x395f1cfd	0.00021277736
202	0x3961a850	0.00021520373
203	0x3966bdbe	0.00022005194
204	0x396e665d	0.00022735582
205	0x3978155b	0.00023659079
206	0x398106ad	0.0002460977
207	0x39867795	0.00025647567
208	0x398b6ba8	0.00026592356
209	0x398f2276	0.0002730076
210	0x39914e89	0.00027715068
211	0x3991f0da	0.00027836004
212	0x39922e6e	0.00027881883
213	0x399164c1	0.00027731623
214	0x398f5e63	0.0002734541
215	0x398a58db	0.00026387614
216	0x3984575b	0.00025242087
217	0x397c26c2	0.00024047031
218	0x397134f5	0.00023003279
219	0x39684cef	0.00022153904
220	0x3961607f	0.0002149362
221	0x395e5c3c	0.0002120593
222	0x395d5ac3	0.00021110014
223	0x395d1f46	0.00021087853
224	0x395d18c3	0.00021085427
225	0x395d1a38	0.0002108597
226	0x395d2b95	0.00021092438
227	0x395d7f67	0.00021123663
228	0x395e44b8	0.0002119717
229	0x39602627	0.00021376518
230	0x396422ed	0.00021756785
231	0x396b5ea0	0.00022446597
232	0x39750544	0.00023366982
233	0x397f72eb	0.00024361505
234	0x398527cd	0.0002539739
235	0x398a0985	0.00026328504
236	0x398ddba4	0.0002705726
237	0x398f60cd	0.00027347208
238	0x398ee6be	0.00027256267
239	0x398dde38	0.00027059182
240	0x398d70f3	0.0002697777
241	0x398d7174	0.00026978145
242	0x398d404f	0.0002694153
243	0x398aea65	0.0002649605
244	0x39866926	0.00025636813
245	0x39807e09	0.00024507966
246	0x3974ec48	0.00023357675
247	0x396aabb5	0.00022379945
248	0x39622c3d	0.0002156952
249	0x395e93bd	0.00021226607
250	0x395d57dc	0.00021108933
251	0x395d1b58	0.00021086389
252	0x395d186b	0.00021085299
253	0x395d1bf1	0.00021086611
254	0x395d3ca2	0.0002109879
255	0x395dbf41	0.0002114745
