context/0920_tskone_context_lr0.3_dummy1/model.pt (torch, 3031 bytes, 6 tensors)

l1_w f4 [2, 31]
3.619283 0.35920462 2.7065108 4.2478824 2.7634468 -0.38484582 -5.477566 -5.984327
4.0237246 7.3743777 0.97075546 4.5070376 2.5746205 5.5703444 3.3161554 -0.5295963
5.3667355 -2.2119937 5.783365 4.8633122 -6.6832867 -7.35743 -3.60788 -2.3125508
-0.45958737 -0.2940336 -3.7197707 -9.49952 5.357629 3.6772242 19.02166 2.0552566
-1.428355 1.2934506 2.841557 1.1320466 -1.9687274 -7.1944923 -7.71072 2.272515
5.481992 -0.5927377 2.9835587 0.54605114 3.739484 1.6845615 -2.2601056 3.447415
-3.8928819 4.2714376 3.1689608 -8.264131 -8.901296 -5.4302692 -4.117205 -2.2050424
-1.8504466 -5.267972 -11.129781 3.662861 1.9638885 17.248405
00000000: 55a2 6740 abe9 b73e 7937 2d40 a7ee 8740
00000010: 50dc 3040 830a c5be 3848 afc0 9b7f bfc0
00000020: 5ac2 8040 e7fa eb40 6e83 783f a739 9040
00000030: 95c6 2440 4340 b240 e43b 5440 a093 07bf
00000040: 4cbc ab40 4e91 0dc0 5311 b940 41a0 9b40
00000050: 7cdd d5c0 1170 ebc0 82e7 66c0 d500 14c0
00000060: 094f ebbe 928b 96be b910 6ec0 09fe 17c1
00000070: b271 ab40 a457 6b40 5c2c 9841 5389 0340
00000080: 56d4 b6bf ca8f a53f 12dc 3540 e7e6 903f
00000090: 42ff fbbf 4839 e6c0 38be f6c0 e370 1140
000000a0: 7a6c af40 a8bd 17bf a0f2 3e40 02ca 0b3f
000000b0: b553 6f40 b69f d73f 92a5 10c0 73a2 5c40
000000c0: fa24 79c0 9eaf 8840 41d0 4a40 e139 04c1
000000d0: b56b 0ec1 c4c4 adc0 25c0 83c0 6a1f 0dc0
000000e0: 6fdb ecbf 3a93 a8c0 9513 32c1 516c 6a40
000000f0: b360 fb3f bcfc 8941

l1_b f4 [2]
-6.3981547 -7.772764
00000000: afbd ccc0 7cba f8c0

exp_avg f4 [2, 31]
-0.0017252308 -0.0014513711 -0.0017028183 -0.0016432224 -0.0015945539 -0.001504155 -0.0013395534 -0.0014975694
-0.0018163644 -0.0017251341 -0.0014282021 -0.0015996745 -0.0015029296 -0.0016108892 -0.0017105127 -0.0015656779
-0.0016579813 -0.0015047423 -0.0017183617 -0.0016232614 -0.0015225773 -0.0014055519 -0.0015507936 -0.0014979212
-0.0016059168 -0.001507784 -0.0014382389 -0.0014402224 -0.0016851391 -0.0015167444 -0.0017932944 -0.0017252204
-0.001451361 -0.0017028071 -0.0016432119 -0.0015945433 -0.0015041444 -0.0013395433 -0.0014975576 -0.0018163518
-0.0017251218 -0.0014281913 -0.0015996634 -0.0015029189 -0.0016108778 -0.0017105012 -0.0015656671 -0.0016579702
-0.0015047312 -0.0017183509 -0.0016232505 -0.0015225656 -0.0014055402 -0.0015507825 -0.0014979115 -0.001605907
-0.0015077741 -0.0014382286 -0.0014402119 -0.0016851291 -0.0015167341 -0.0017932851
00000000: 2421 e2ba ef3b beba 1a31 dfba 6561 d7ba
00000010: 5a00 d1ba 1127 c5ba f493 afba 174a c4ba
00000020: 1313 eeba e51d e2ba 8332 bbba 2bac d1ba
00000030: f3fd c4ba 7924 d3ba 4833 e0ba 6f37 cdba
00000040: 9f50 d9ba c63a c5ba a73a e1ba 9dc3 d4ba
00000050: 3791 c7ba 7f3a b8ba 0044 cbba e555 c4ba
00000060: a07d d2ba d6a0 c5ba 4a83 bcba d8c5 bcba
00000070: e3df dcba 7fcd c6ba fa0c ebba ca20 e2ba
00000080: 983b beba ba30 dfba 0b61 d7ba ffff d0ba
00000090: b626 c5ba 9d93 afba b249 c4ba a712 eeba
000000a0: 7b1d e2ba 2632 bbba ccab d1ba 97fd c4ba
000000b0: 1724 d3ba e532 e0ba 1237 cdba 4050 d9ba
000000c0: 673a c5ba 4a3a e1ba 40c3 d4ba d390 c7ba
000000d0: 1a3a b8ba a043 cbba 9255 c4ba 4c7d d2ba
000000e0: 81a0 c5ba f282 bcba 7ec5 bcba 8ddf dcba
000000f0: 27cd c6ba aa0c ebba

exp_avg_sq f4 [2, 31]
0.00071062817 0.0007076192 0.0007084842 0.0006538642 0.0007334453 0.0006740717 0.00064835727 0.00083044695
0.00089217484 0.0008376819 0.0007652926 0.0007941529 0.0007626723 0.0007421564 0.0007975361 0.00078172714
0.0007143962 0.0007873974 0.0007485025 0.00071972335 0.0008399815 0.00085502106 0.00069934875 0.00064775534
0.0007330622 0.00065543706 0.0006568398 0.00073269504 0.0006659795 0.00063575467 0.00055144104 0.00071062805
0.00070761936 0.0007084842 0.0006538643 0.0007334453 0.00067407126 0.0006483572 0.0008304469 0.0008921747
0.0008376818 0.0007652924 0.000794153 0.0007626722 0.00074215647 0.00079753576 0.00078172726 0.00071439624
0.00078739744 0.0007485024 0.00071972323 0.0008399817 0.0008550212 0.00069934916 0.0006477555 0.0007330622
0.00065543706 0.00065683963 0.000732695 0.0006659792 0.0006357545 0.00055144116
00000000: 7349 3a3a 857f 393a 92b9 393a 1568 2b3a
00000010: ae44 403a 30b4 303a 85f6 293a 5ab2 593a
00000020: d7e0 693a e197 5b3a eb9d 483a b32e 503a
00000030: 12ee 473a 468d 423a be11 513a d2ec 4c3a
00000040: 5146 3b3a 5869 4e3a 2737 443a d1ab 3c3a
00000050: 3432 5c3a 7e23 603a 8054 373a 20ce 293a
00000060: f92a 403a a3d1 2b3a c62f 2c3a 5512 403a
00000070: 2195 2e3a c6a8 263a 958e 103a 7149 3a3a
00000080: 887f 393a 92b9 393a 1768 2b3a ae44 403a
00000090: 28b4 303a 84f6 293a 59b2 593a d5e0 693a
000000a0: e097 5b3a e79d 483a b52e 503a 11ee 473a
000000b0: 478d 423a b811 513a d4ec 4c3a 5246 3b3a
000000c0: 5969 4e3a 2537 443a cfab 3c3a 3832 5c3a
000000d0: 8023 603a 8754 373a 23ce 293a f92a 403a
000000e0: a3d1 2b3a c32f 2c3a 5412 403a 1c95 2e3a
000000f0: c3a8 263a 978e 103a

exp_avg f4 [2]
-0.0018184964 -0.0018184842
00000000: 9d5a eeba 345a eeba

exp_avg_sq f4 [2]
0.00089107745 0.0008910775
00000000: 3297 693a 3397 693a
