context/220719_mnist_ann_context_dummy_lr0.01/model.pt (torch, 96031 bytes, 3 tensors)

l1.weight f4 [10, 785]
000000 7a cd 26 bd 5e f6 26 bd 9f d8 97 bd f7 83 86 bd
       -0.0407233 -0.040762298 -0.07414364 -0.06568139
000010 31 2a a4 bd 43 85 9f bd 50 80 20 bc 13 cf 7d bc
       -0.0801586 -0.077890895 -0.009796217 -0.015491265
000020 c4 91 15 bd 10 25 36 bc 00 30 6d bd 63 cf 85 bd
       -0.036515966 -0.011117235 -0.057907104 -0.065336965
000030 cf 0f 6e bc d6 b6 3f bd 0e 5e 1c bd 2f 9f c3 bc
       -0.014530136 -0.046805225 -0.038175635 -0.023879616
000040 22 67 d6 bc 83 f9 85 bd 36 c7 70 bd 8d 94 9f bd
       -0.026172224 -0.06541731 -0.058783732 -0.07792006
000050 94 cc 31 bd 02 a7 6c bd 24 d8 18 bd 4a 70 31 bd
       -0.04340799 -0.05777646 -0.037315503 -0.043319978
000060 6a 6c 6e bc 2a a6 2b bd 18 f4 dd bc e0 1b 0a bd
       -0.014552215 -0.041906513 -0.027093932 -0.03371799
000070 e8 22 5a bc 76 03 75 bd d7 b0 78 bc a6 c4 9e bc
       -0.013313986 -0.059817754 -0.015178881 -0.019380879
000080 dd 92 72 bd 70 26 bd bc 8a 41 42 bc a7 cd 84 bd
       -0.05922209 -0.023089617 -0.011856446 -0.064845376
000090 51 48 6e bd 3d 59 9d bc e3 6a 62 bc 2e 06 11 bd
       -0.058174435 -0.019207591 -0.013819429 -0.035406284
0000a0 35 f1 11 bd 9b f2 96 bc 4a bc 2f bc e1 04 89 bd
       -0.035630424 -0.01842623 -0.010726044 -0.06690384
0000b0 6c 35 7a bd e9 0c 74 bc a5 28 c3 bc c2 d9 76 bd
       -0.061086103 -0.014895656 -0.023823092 -0.060266264
0000c0 2e 02 65 bd c4 b4 1e bc cc 69 89 bd 65 36 b4 bc
       -0.05591028 -0.009686653 -0.06709632 -0.021998594
0000d0 12 d1 c6 bc 1f 39 a2 bd 8b 16 a5 bd 66 b5 07 bd
       -0.024269614 -0.07921051 -0.0806094 -0.03313198
0000e0 0c 06 e1 bc 7a 9f 5a bc c6 2b 26 bd 8c 4f ac bc
       -0.027468704 -0.013343686 -0.04056909 -0.021034025
0000f0 64 13 90 bd 38 94 c0 bc 6e 74 9f bd bc 6f 9b bc
       -0.070349485 -0.023508176 -0.07785879 -0.018974178
000100 4c 54 0b bd 7a 59 90 bb c8 84 a6 bb 03 63 21 bd
       -0.03401594 -0.0044051977 -0.0050817467 -0.039401066
000110 b4 f2 4d bb 97 91 42 3c 26 d6 ea 3c 25 a5 a3 3b
       -0.003142518 0.011875532 0.028666567 0.004994052
000120 ec 1e a5 3c 23 97 72 3c f0 fb 4c 3b 9e 6c 25 3d
       0.020156346 0.014806542 0.0031278096 0.04038679
000130 bd ef 6b 3c 87 92 ec bb f8 cc 30 bd 25 d9 8d bd
       0.01440042 -0.007219616 -0.043164223 -0.06926183
000140 44 12 13 bd df ab 40 bc bc 5a ee bc 6f 22 97 bd
       -0.03590609 -0.011759727 -0.029096 -0.073796146
000150 7c 33 45 bd 60 4d 32 bd cf af b6 bc 9c 5c f8 bc
       -0.048144802 -0.04353082 -0.022300629 -0.030317597
000160 1c f5 8d bd af 28 95 bd 6d 83 b8 bc 9a c9 a7 bb
       -0.069315165 -0.072831504 -0.022523606 -0.0051204683
000170 29 d6 46 3c 82 5a 53 3d 16 86 aa 3d 28 4b 41 3d
       0.012136021 0.051599987 0.08326356 0.047190815
000180 db 58 3f 3d ec 26 f1 3d 5d 7e 24 3e ec af ef 3d
       0.0467156 0.11775002 0.16063829 0.11703476
000190 e9 d2 09 3e dc 9e 4e 3e 5b db 5e 3e 18 b9 2a 3e
       0.13459362 0.20177788 0.21763365 0.1667217
0001a0 ac af d0 3d 28 40 ab 3d 90 6d 02 ba 33 5e a8 bc
       0.10189757 0.08361846 -0.00049754325 -0.02055273
0001b0 6d 66 0e bd e2 c1 51 bd 0a 5e f7 bc 84 25 35 bd
       -0.03476565 -0.05121029 -0.030196209 -0.04422523
0001c0 2f b6 95 bd 26 92 46 bd 06 61 2a bd c7 96 b9 bc
       -0.073101394 -0.04847922 -0.041596435 -0.022654904
0001d0 fc 4b 23 bd 6d 7d 25 bd 56 25 eb 3a 0b 3d e0 3c
       -0.039867386 -0.04040282 0.0017940204 0.027372858
0001e0 8f 8a 5e 3d 3a 40 83 3d 39 e9 e8 3d 82 64 c3 3d
       0.05433136 0.064087346 0.11372609 0.09540655
0001f0 4e 0f a5 3d 14 26 c4 bb 30 df 96 bc f8 55 21 bd
       0.0805956 -0.0059859846 -0.018416971 -0.039388627
000200 47 e6 6f bb b8 68 8a 3d 55 63 aa 3d 12 c4 1d 3e
       -0.0036605762 0.06758255 0.08319727 0.15406826
000210 4f ea 05 3e 71 b3 c4 3d 81 3c 9a 3d 9a f5 b4 3c
       0.13077663 0.09604538 0.075310715 0.022089768
000220 2d 67 a4 3c e7 1e 2a bd 93 08 a7 bc 49 c2 5d bd
       0.02006873 -0.041533377 -0.02038983 -0.054140363
000230 c4 65 2b bd 2e d4 08 bd 13 d5 9f bd 38 df 19 bd
       -0.0418451 -0.033405475 -0.078043126 -0.037566394
000240 d0 fa 66 bc ae 35 21 3c d6 d9 d6 3c 6e bd 93 3d
       -0.014097884 0.009839458 0.02622692 0.07213865
000250 70 40 0e 3e cf 7c 31 3e f5 cd f3 3d 21 41 af 3d
       0.13891768 0.17332767 0.119045176 0.08557344
000260 f0 aa 56 bd 03 80 37 be 71 4d 86 be e2 32 9c be
       -0.052409112 -0.17919926 -0.26230958 -0.3050757
000270 5c ca 92 be f3 d9 3e be 80 f0 d9 bd 83 58 3f bc
       -0.28670013 -0.18637829 -0.10641575 -0.011678818
000280 e7 e9 67 3d dd 3c 50 3d de f5 16 3d 6a f2 78 3d
       0.05661955 0.050839294 0.03685557 0.06077806
000290 ee 5a 69 bb ae a6 26 bd 0e 04 c3 bc 2a 91 72 bc
       -0.0035607177 -0.040686302 -0.023805644 -0.014805118
0002a0 2c f7 66 bd d0 1f a4 bd 06 14 1d bc 40 a1 b2 bc
       -0.056388065 -0.0801388 -0.0095872935 -0.021805406
0002b0 de 8e 67 3b e4 35 02 3b 4d eb 56 3d ad ef 01 3e
       0.0035332958 0.0019868547 0.052470494 0.12689085
0002c0 ef 7b 47 3e 14 e7 52 3e e1 52 db 3d 53 06 6d 3d
       0.1948087 0.20595962 0.10709167 0.05786736
0002d0 5b 0b 77 bd 2b 64 5a be db 0e 9c be 4f 5b b1 be
       -0.060313564 -0.21327274 -0.30480084 -0.34639975
0002e0 5a 9d d3 be 6b 77 da be 6e 7c aa be a9 09 51 be
       -0.41330987 -0.42669234 -0.33298057 -0.20413841
0002f0 99 a3 b4 bd 33 84 be bd 41 e0 35 bd 2c d4 40 3d
       -0.08820266 -0.09302559 -0.04440332 0.047077343
000300 0e a5 a4 3d 6b 7b 0a bd 9e d4 04 bd 21 2c d1 bc
       0.08039294 -0.033809107 -0.03242933 -0.025533738
000310 a2 ff 47 bd 6d 83 15 bd d2 cf 9f bc cd 3c 92 bd
       -0.048827775 -0.03650229 -0.019508276 -0.07140503
000320 9c d3 6b 3c 40 f7 82 ba 36 90 d0 3d ab 83 32 3e
       0.014393713 -0.0009991899 0.10183756 0.1743304
000330 81 d1 36 3e a2 ca 0b 3e b3 d9 1c 3d 37 11 93 bc
       0.17853357 0.13651517 0.03829355 -0.017952545
000340 95 aa a6 bd ed e8 27 be bf e0 84 be cc 15 b9 be
       -0.08138005 -0.16397448 -0.25952718 -0.36149442
000350 c0 a6 00 bf 0d 50 13 bf e1 db 0b bf 56 c2 cb be
       -0.5025444 -0.5754402 -0.54632384 -0.39796704
000360 d5 d2 73 be a8 00 20 be 43 77 ed bd 42 77 76 bb
       -0.23810895 -0.1562525 -0.11595013 -0.0037607704
000370 9a 04 8d 3d ec 64 e2 bc 79 81 80 bd df b4 62 bd
       0.06885643 -0.027636014 -0.06274695 -0.055348273
000380 6b c7 18 bd 55 51 81 bd 35 31 bc bc 8d 37 75 bd
       -0.037299555 -0.06314341 -0.022972682 -0.05986743
000390 7c 1e e7 3b f0 95 a1 3d db be c3 3d 5e f3 02 3e
       0.0070531946 0.078899264 0.09557887 0.1278815
0003a0 1f 7c 0d 3e 9c 59 df 3d 45 ea e8 3c 11 51 fc bc
       0.1381688 0.109057635 0.02843202 -0.030800374
0003b0 6e 0a 12 be 85 10 69 be 65 18 a3 be e0 39 be be
       -0.14261791 -0.22760208 -0.3185455 -0.3715353
0003c0 a4 b2 15 bf 78 0f 1c bf e6 27 28 bf 04 d5 04 bf
       -0.5847571 -0.60961103 -0.6568588 -0.51887536
0003d0 b7 d2 c5 be df 6d 6c be 7d a6 5a be 9d 7f e8 bd
       -0.38637325 -0.23088787 -0.21352573 -0.11352465
0003e0 6d 97 14 bc f7 8d d1 3c f7 c6 45 bd d6 71 26 bd
       -0.009069306 0.02558039 -0.04828545 -0.040635906
0003f0 51 30 98 bd 2c 93 56 bd 31 d6 8f bd 50 6b 5d bd
       -0.074310906 -0.052386448 -0.07023276 -0.05405742

exp_avg f4 [10, 785]
000000 d7 5d 53 ba d7 5d 53 ba d7 5d 53 ba d7 5d 53 ba
       -0.00080629945 -0.00080629945 -0.00080629945 -0.00080629945
000010 d7 5d 53 ba d7 5d 53 ba d7 5d 53 ba d7 5d 53 ba
       -0.00080629945 -0.00080629945 -0.00080629945 -0.00080629945
000020 d7 5d 53 ba d7 5d 53 ba d7 5d 53 ba d7 5d 53 ba
       -0.00080629945 -0.00080629945 -0.00080629945 -0.00080629945
000030 d7 5d 53 ba d7 5d 53 ba d7 5d 53 ba d7 5d 53 ba
       -0.00080629945 -0.00080629945 -0.00080629945 -0.00080629945
000040 d7 5d 53 ba d7 5d 53 ba d7 5d 53 ba d7 5d 53 ba
       -0.00080629945 -0.00080629945 -0.00080629945 -0.00080629945
000050 d7 5d 53 ba d7 5d 53 ba d7 5d 53 ba d7 5d 53 ba
       -0.00080629945 -0.00080629945 -0.00080629945 -0.00080629945
000060 d7 5d 53 ba d7 5d 53 ba d7 5d 53 ba d7 5d 53 ba
       -0.00080629945 -0.00080629945 -0.00080629945 -0.00080629945
000070 d7 5d 53 ba d7 5d 53 ba d7 5d 53 ba d7 5d 53 ba
       -0.00080629945 -0.00080629945 -0.00080629945 -0.00080629945
000080 d7 5d 53 ba d7 5d 53 ba 3a 5e 53 ba ec 5f 53 ba
       -0.00080629945 -0.00080629945 -0.0008063052 -0.00080633047
000090 22 65 53 ba 9a 62 53 ba 0f 75 53 ba 75 7e 53 ba
       -0.0008064081 -0.0008063704 -0.00080664543 -0.0008067855
0000a0 66 60 53 ba e6 70 53 ba 7b 9d 53 ba cb 70 53 ba
       -0.0008063376 -0.00080658344 -0.00080724776 -0.00080658187
0000b0 d1 75 53 ba f9 7a 53 ba a5 62 53 ba c8 5e 53 ba
       -0.0008066567 -0.00080673356 -0.00080637104 -0.0008063135
0000c0 12 5f 53 ba 70 5e 53 ba e7 5d 53 ba d7 5d 53 ba
       -0.0008063178 -0.00080630835 -0.0008063004 -0.00080629945
0000d0 d7 5d 53 ba d7 5d 53 ba d7 5d 53 ba d7 5d 53 ba
       -0.00080629945 -0.00080629945 -0.00080629945 -0.00080629945
0000e0 d7 5d 53 ba d7 5d 53 ba d7 5d 53 ba bc 5d 53 ba
       -0.00080629945 -0.00080629945 -0.00080629945 -0.0008062979
0000f0 31 5e 53 ba d7 5d 53 ba 0b 5e 53 ba f9 0b 57 ba
       -0.0008063047 -0.00080629945 -0.0008063025 -0.0008203383
000100 d9 2b 5d ba 84 ca 5c ba 48 77 57 ba eb 1f 54 ba
       -0.0008437015 -0.0008422511 -0.00082193734 -0.00080919144
000110 4c 47 55 ba 6e 81 56 ba 2c aa 56 ba 7f e9 58 ba
       -0.0008135929 -0.00081827387 -0.000818881 -0.000827454
000120 ca 41 59 ba 6c 29 58 ba d4 28 58 ba d3 5e 57 ba
       -0.00082876964 -0.00082459184 -0.000824583 -0.0008215729
000130 fb 04 56 ba 25 de 54 ba bf 60 54 ba 4c 2c 54 ba
       -0.00081641943 -0.00081202603 -0.00081015745 -0.0008093759
000140 07 eb 53 ba 69 6d 53 ba d7 5d 53 ba d7 5d 53 ba
       -0.0008084033 -0.00080653146 -0.00080629945 -0.00080629945
000150 d7 5d 53 ba d7 5d 53 ba d7 5d 53 ba ba 5d 53 ba
       -0.00080629945 -0.00080629945 -0.00080629945 -0.00080629776
000160 37 98 54 ba 05 93 54 ba 15 2e 56 ba 1e d9 5d ba
       -0.000810984 -0.0008109066 -0.0008170319 -0.0008462834
000170 83 d4 5b ba f5 47 5a ba 41 38 5d ba e4 ab 5c ba
       -0.0008385854 -0.00083267625 -0.00084388634 -0.00084179477
000180 32 1b 59 ba a8 57 62 ba 6a 4f 66 ba 97 e9 6d ba
       -0.00082819455 -0.00086342776 -0.00087856373 -0.000907564
000190 38 e2 77 ba 0e eb 70 ba 76 e6 6a ba 93 c4 67 ba
       -0.00094560115 -0.00091902993 -0.0008960733 -0.00088412425
0001a0 78 95 5e ba a7 7f 5d ba 2f af 5e ba 76 03 58 ba
       -0.00084909005 -0.00084495026 -0.00084947323 -0.0008240262
0001b0 31 30 54 ba 37 83 53 ba d7 5d 53 ba d7 5d 53 ba
       -0.0008094339 -0.0008068564 -0.00080629945 -0.00080629945
0001c0 d7 5d 53 ba d7 5d 53 ba 28 5e 53 ba fb 5d 53 ba
       -0.00080629945 -0.00080629945 -0.00080630416 -0.00080630154
0001d0 ca 51 55 ba 37 41 56 ba 0d b7 5b ba 2a 15 66 ba
       -0.00081374927 -0.000817317 -0.00083814637 -0.00087769574
0001e0 55 cf 5d ba 45 29 5f ba 55 e2 5f ba 3e ee 5c ba
       -0.0008461376 -0.00085129245 -0.0008540501 -0.0008427835
0001f0 b6 c4 59 ba 94 0e 5e ba 26 63 5e ba 8a 5a 67 ba
       -0.0008307205 -0.00084708 -0.0008483402 -0.0008825442
000200 0e a5 79 ba 01 b8 77 ba e0 e4 6c ba b3 53 68 ba
       -0.0009523191 -0.0009449721 -0.00090367906 -0.000886257
000210 01 57 66 ba ed 66 6a ba 8a f8 63 ba 09 82 5b ba
       -0.00087867683 -0.0008941729 -0.0008696398 -0.0008373564
000220 fc 92 54 ba 53 cd 53 ba a0 6a 53 ba d7 5d 53 ba
       -0.00081090606 -0.0008079607 -0.00080648996 -0.00080629945
000230 d7 5d 53 ba d7 5d 53 ba f9 9f 53 ba 53 63 53 ba
       -0.00080629945 -0.00080629945 -0.0008072849 -0.00080638117
000240 62 32 56 ba 6b 4e 57 ba e3 67 64 ba a7 8b 62 ba
       -0.000817096 -0.00082132843 -0.000871299 -0.00086420256
000250 cf 17 59 ba 4a 35 58 ba 35 83 51 ba e1 55 44 ba
       -0.0008281441 -0.0008247687 -0.00079922687 -0.00074896036
000260 2f 18 50 ba 26 f5 53 ba de bc 49 ba 6f 2c 57 ba
       -0.0007938174 -0.0008085541 -0.0007695685 -0.000820822
000270 89 d5 5c ba 2f 08 6d ba 9b e1 81 ba 28 6e 86 ba
       -0.0008424153 -0.0009042052 -0.0009909155 -0.0010256218
000280 46 27 86 ba 36 60 74 ba 5d 0f 64 ba 46 6f 55 ba
       -0.0010235093 -0.0009322198 -0.0008699799 -0.0008141886
000290 c6 dd 56 ba cb f6 54 ba e5 8b 53 ba d7 5d 53 ba
       -0.0008196499 -0.0008123933 -0.0008069857 -0.00080629945
0002a0 d7 5d 53 ba d7 5d 53 ba f8 5d 53 ba 4a 68 53 ba
       -0.00080629945 -0.00080629945 -0.00080630137 -0.00080645515
0002b0 84 6f 56 ba e0 b7 57 ba 24 6a 65 ba a6 b2 59 ba
       -0.0008180069 -0.00082289986 -0.0008751473 -0.0008304514
0002c0 ec 97 59 ba 65 5d 56 ba 43 4a 43 ba 08 92 50 ba
       -0.0008300531 -0.0008177369 -0.00074497255 -0.00079563307
0002d0 09 4e 5c ba b3 87 5c ba d7 a0 55 ba 4f e4 6f ba
       -0.0008403962 -0.0008412555 -0.0008149272 -0.0009151147
0002e0 b8 12 62 ba 78 5f 3c ba 72 68 57 ba 51 04 81 ba
       -0.0008624005 -0.0007185857 -0.00082171627 -0.0009843205
0002f0 d9 c2 85 ba 41 fc 6c ba cd ef 59 ba 13 74 50 ba
       -0.0010205164 -0.00090402743 -0.0008313626 -0.0007951867
000300 1b e9 52 ba e8 09 57 ba f8 e2 53 ba b1 5d 53 ba
       -0.00080455997 -0.0008203075 -0.0008082832 -0.00080629723
000310 d7 5d 53 ba 0d 5e 53 ba e6 62 53 ba 67 72 53 ba
       -0.00080629945 -0.0008063026 -0.0008063748 -0.00080660585
000320 76 6f 57 ba 28 87 5d ba ae 4d 64 ba 97 76 56 ba
       -0.0008218208 -0.0008450621 -0.0008709085 -0.00081811234
000330 e7 36 53 ba 56 10 42 ba c1 86 51 ba 40 c8 5e ba
       -0.00080571923 -0.0007402947 -0.0007992797 -0.00084984675
000340 b3 70 6f ba 5b 94 61 ba bd 43 62 ba b6 0f 67 ba
       -0.000913392 -0.00086051755 -0.00086313096 -0.0008814292
000350 27 88 68 ba 88 4d 37 ba e4 ee 20 ba bc 37 54 ba
       -0.0008870386 -0.0006992449 -0.0006139113 -0.0008095463
000360 29 2a 83 ba 21 58 82 ba 84 5d 66 ba ea 21 5d ba
       -0.0010007072 -0.0009944477 -0.00087877386 -0.00084355345
000370 a1 5b 59 ba 25 04 5a ba 9f f7 54 ba 11 5e 53 ba
       -0.0008291547 -0.00083166576 -0.00081240566 -0.0008063028
000380 d7 5d 53 ba 9d 5e 53 ba ad 63 53 ba bb 85 53 ba
       -0.00080629945 -0.00080631097 -0.0008063864 -0.00080689386
000390 f6 ea 58 ba 21 9b 66 ba f8 a2 69 ba 0e a5 54 ba
       -0.0008274758 -0.000879692 -0.0008912529 -0.0008111753
0003a0 d4 c4 4c ba 78 4c 57 ba 21 14 5a ba c8 d1 73 ba
       -0.0007811312 -0.0008212994 -0.00083190395 -0.0009300974
0003b0 25 ed 62 ba 13 94 82 ba 44 5e 5f ba 1b 9d 69 ba
       -0.0008656553 -0.0009962342 -0.00085208216 -0.0008911655
0003c0 f0 4f 47 ba de 9e 15 ba 17 22 01 ba 2f 60 3e ba
       -0.0007603159 -0.0005707572 -0.0004926039 -0.0007262257
0003d0 81 1f 7e ba 20 f5 82 ba 96 bb 7d ba cc e8 5e ba
       -0.00096940255 -0.0009991266 -0.00096791366 -0.00085033174
0003e0 af 73 5b ba 84 12 5f ba 21 e0 55 ba 06 5e 53 ba
       -0.0008371425 -0.0008509534 -0.0008158703 -0.0008063022
0003f0 28 61 53 ba 28 68 53 ba 08 6d 53 ba b4 c2 53 ba
       -0.00080634886 -0.0008064532 -0.0008065258 -0.0008078024

exp_avg_sq f4 [10, 785]
000000 1d af 25 39 1d af 25 39 1d af 25 39 1d af 25 39
       0.00015800861 0.00015800861 0.00015800861 0.00015800861
000010 1d af 25 39 1d af 25 39 1d af 25 39 1d af 25 39
       0.00015800861 0.00015800861 0.00015800861 0.00015800861
000020 1d af 25 39 1d af 25 39 1d af 25 39 1d af 25 39
       0.00015800861 0.00015800861 0.00015800861 0.00015800861
000030 28 af 25 39 36 af 25 39 1e af 25 39 1e af 25 39
       0.00015800877 0.00015800897 0.00015800862 0.00015800862
000040 1d af 25 39 1d af 25 39 1d af 25 39 1d af 25 39
       0.00015800861 0.00015800861 0.00015800861 0.00015800861
000050 1d af 25 39 1d af 25 39 1d af 25 39 1d af 25 39
       0.00015800861 0.00015800861 0.00015800861 0.00015800861
000060 1d af 25 39 1d af 25 39 1d af 25 39 1d af 25 39
       0.00015800861 0.00015800861 0.00015800861 0.00015800861
000070 1d af 25 39 1d af 25 39 1d af 25 39 1d af 25 39
       0.00015800861 0.00015800861 0.00015800861 0.00015800861
000080 21 af 25 39 2b af 25 39 67 af 25 39 ec af 25 39
       0.00015800867 0.00015800881 0.00015800969 0.00015801162
000090 4e b0 25 39 33 b2 25 39 4e b4 25 39 24 b5 25 39
       0.00015801305 0.0001580201 0.00015802795 0.00015803106
0000a0 57 ba 25 39 bf bc 25 39 42 b5 25 39 61 b6 25 39
       0.00015805043 0.0001580594 0.0001580315 0.00015803568
0000b0 9f ba 25 39 f6 b7 25 39 23 b2 25 39 bd b0 25 39
       0.00015805148 0.00015804157 0.00015801987 0.00015801466
0000c0 c3 b0 25 39 2a b0 25 39 86 af 25 39 22 af 25 39
       0.00015801475 0.00015801252 0.00015801014 0.00015800868
0000d0 1d af 25 39 1d af 25 39 1d af 25 39 1d af 25 39
       0.00015800861 0.00015800861 0.00015800861 0.00015800861
0000e0 1d af 25 39 1d af 25 39 31 af 25 39 a4 af 25 39
       0.00015800861 0.00015800861 0.0001580089 0.00015801057
0000f0 ad af 25 39 34 af 25 39 41 b1 25 39 2b bc 25 39
       0.0001580107 0.00015800894 0.00015801658 0.00015805724
000100 23 c3 25 39 94 e4 25 39 3f f1 25 39 4a 06 26 39
       0.0001580832 0.00015820778 0.00015825497 0.00015833337
000110 2a 33 26 39 dc 5a 26 39 bd 6b 26 39 83 81 26 39
       0.00015850054 0.00015864841 0.0001587113 0.0001587924
000120 4e 89 26 39 ae 5f 26 39 d5 50 26 39 23 35 26 39
       0.00015882144 0.00015866637 0.00015861106 0.00015850789
000130 aa 14 26 39 33 e8 25 39 44 ca 25 39 cf b9 25 39
       0.00015838692 0.00015822127 0.00015810976 0.00015804845
000140 b7 b1 25 39 b5 af 25 39 1d af 25 39 1d af 25 39
       0.0001580183 0.00015801082 0.00015800861 0.00015800861
000150 1d af 25 39 1d af 25 39 5d af 25 39 d0 b0 25 39
       0.00015800861 0.00015800861 0.00015800954 0.00015801494
000160 24 b2 25 39 0f b6 25 39 ba c0 25 39 06 f2 25 39
       0.00015801989 0.00015803448 0.00015807422 0.00015825787
000170 21 36 26 39 ba bb 26 39 f7 45 27 39 d1 e4 27 39
       0.00015851158 0.00015900927 0.00015952425 0.00016011602
000180 3a a2 28 39 a0 88 29 39 65 2b 2a 39 b0 a5 2a 39
       0.00016082163 0.00016167993 0.00016228629 0.00016274187
000190 85 dc 2a 39 51 69 2a 39 12 b3 29 39 e5 28 29 39
       0.00016294613 0.00016251697 0.00016183805 0.0001613233
0001a0 32 4e 28 39 d6 7d 27 39 34 b3 26 39 df 1e 26 39
       0.00016050859 0.00015973239 0.00015897752 0.00015842494
0001b0 7b d3 25 39 51 b7 25 39 55 af 25 39 1d af 25 39
       0.00015814409 0.00015803917 0.00015800942 0.00015800861
0001c0 1d af 25 39 1d af 25 39 b1 af 25 39 96 af 25 39
       0.00015800861 0.00015800861 0.00015801076 0.00015801037
0001d0 62 b6 25 39 3c d1 25 39 4e 11 26 39 49 a7 26 39
       0.00015803569 0.00015813572 0.0001583744 0.00015893312
0001e0 7d b6 27 39 46 60 29 39 90 48 2b 39 e8 ed 2d 39
       0.00015994343 0.0001615296 0.00016334862 0.00016587193
0001f0 53 28 31 39 64 f7 34 39 4b 1e 38 39 bb 08 3a 39
       0.00016895057 0.00017258298 0.00017558892 0.00017741595
000200 5e e2 39 39 f2 df 37 39 1f 05 35 39 41 10 32 39
       0.00017727303 0.00017535666 0.00017263413 0.00016981458
000210 6b 77 2e 39 77 31 2b 39 59 d8 28 39 a2 1f 27 39
       0.0001663842 0.00016326258 0.00016102324 0.00015938145
000220 05 21 26 39 92 c4 25 39 0e b0 25 39 4d af 25 39
       0.00015843294 0.00015808854 0.00015801212 0.00015800931
000230 1d af 25 39 1d af 25 39 2a b0 25 39 cc b5 25 39
       0.00015800861 0.00015800861 0.00015801252 0.00015803351
000240 f8 d3 25 39 ef 1a 26 39 f1 ca 26 39 44 39 28 39
       0.00015814591 0.00015841027 0.00015906595 0.00016043062
000250 f6 83 2a 39 db c0 2d 39 cb f0 31 39 4a 78 37 39
       0.00016261623 0.0001657041 0.00016969738 0.00017497051
000260 f0 1d 3e 39 13 30 45 39 20 9e 4a 39 c7 18 4e 39
       0.00018130965 0.00018805293 0.00019323127 0.00019654921
000270 e7 73 4e 39 21 70 4b 39 77 76 45 39 1f 21 3e 39
       0.00019688868 0.0001940136 0.00018831516 0.0001813215
000280 cb df 36 39 c9 b4 30 39 ff 0a 2c 39 51 93 28 39
       0.00017440242 0.00016852016 0.00016407295 0.00016076608
000290 4b a5 26 39 ab dd 25 39 db b4 25 39 3d af 25 39
       0.0001589257 0.00015818204 0.00015803 0.00015800908
0002a0 1d af 25 39 22 af 25 39 b1 af 25 39 37 c0 25 39
       0.00015800861 0.00015800868 0.00015801076 0.00015807232
0002b0 03 f9 25 39 f2 86 26 39 83 e2 27 39 98 58 2a 39
       0.0001582839 0.00015881265 0.00016010743 0.00016245467
0002c0 e2 3b 2e 39 16 86 33 39 d1 bf 39 39 04 18 41 39
       0.00016616241 0.00017120721 0.00017714432 0.00018414861
0002d0 74 33 49 39 d2 71 50 39 52 8f 55 39 ba d2 58 39
       0.00019188022 0.00019878827 0.00020366654 0.00020677867
0002e0 e4 96 59 39 a0 01 57 39 de 2d 51 39 e9 13 48 39
       0.00020750944 0.00020504603 0.0001994888 0.00019080903
0002f0 0a ba 3e 39 16 76 36 39 7d ab 2f 39 a7 94 2a 39
       0.00018189117 0.00017400863 0.00016753185 0.0001626784
000300 17 4b 27 39 7f 20 26 39 0c c6 25 39 f2 b0 25 39
       0.00015954334 0.000158431 0.00015809404 0.00015801543
000310 1a af 25 39 44 af 25 39 33 b4 25 39 b7 c5 25 39
       0.00015800857 0.00015800918 0.00015802756 0.00015809281
000320 2a 2a 26 39 4b 2b 27 39 c4 44 29 39 83 0d 2d 39
       0.00015846701 0.00015942489 0.00016142713 0.00016503599
000330 17 a1 32 39 bf c3 39 39 0e 38 41 39 fc 2f 49 39
       0.00017035413 0.00017715896 0.00018426796 0.0001918673
000340 04 3d 50 39 37 42 55 39 3e e9 57 39 c1 c5 58 39
       0.00019859156 0.0002033793 0.00020590887 0.00020673034
000350 26 d1 58 39 0a 46 58 39 c5 8a 55 39 be 16 4e 39
       0.00020677279 0.00020625457 0.00020364959 0.00019654163
000360 00 ca 44 39 1d a6 3b 39 e9 72 33 39 66 ce 2c 39
       0.00018767267 0.00017895592 0.00017113578 0.00016480088
000370 b7 26 28 39 3d 55 26 39 45 ce 25 39 b6 b2 25 39
       0.00016036151 0.00015862747 0.00015812468 0.00015802201
000380 95 b0 25 39 3d b0 25 39 96 b8 25 39 1c eb 25 39
       0.00015801408 0.0001580128 0.0001580439 0.00015823211
000390 4d 70 26 39 4b e2 27 39 9a f6 2a 39 07 50 30 39
       0.00015872829 0.00016010662 0.0001630433 0.0001681448
0003a0 9f 6f 37 39 c4 e2 3e 39 3c 98 46 39 5e a6 4d 39
       0.00017493822 0.00018204289 0.00018939463 0.000196123
0003b0 ea 16 53 39 87 b7 54 39 c3 7e 53 39 45 99 51 39
       0.00020131064 0.00020286265 0.0002016975 0.0001998889
0003c0 a3 0e 51 39 ef f0 51 39 1b 63 52 39 f1 4b 4f 39
       0.00019937246 0.00020021548 0.0002006408 0.00019769349
0003d0 75 45 48 39 9d 63 3f 39 04 43 36 39 66 5d 2e 39
       0.00019099361 0.00018252288 0.00017381838 0.00016628727
0003e0 00 94 28 39 b9 53 26 39 ac cf 25 39 40 b0 25 39
       0.00016076863 0.00015862183 0.0001581299 0.00015801284
0003f0 3f af 25 39 61 b0 25 39 eb bd 25 39 cf 04 26 39
       0.0001580091 0.00015801332 0.00015806376 0.00015832785
