context/220318_tskone_context1_d3_lr0.3/model.pt (torch, 3223 bytes, 6 tensors)

l1_w f4 [2, 33]
00000000: e733 633f feef 0940 2943 1d3f 5c9a 9a3f
00000010: 9e24 0940 dbe1 7e3f 66fc 333e bf5f 76bf
00000020: ea88 be3f 6f7f 3c40 572c c23f 57b1 2940
00000030: 63ab ee3f 23f5 0340 9b21 b33f 5967 2a3d
00000040: f125 9b3f fe10 1abe a9a0 b93f 5d87 963f
00000050: bf0a 0dc0 cdd1 64bf d3ce c2bf 9433 8cbf
00000060: 6ec4 e03e 8f64 54be 0d7e 64bf 92d1 1ec0
00000070: 6f69 9a3f da38 9d3f ebe5 ae40 321d 7f40
00000080: 9621 fe3f fc0a 07bf a36d 443f 0060 57bf
00000090: 616d 88be b0b9 653f 2c23 5dbe 6dc1 b8bf
000000a0: ccf1 25c0 0d9d b0bb e80c aa3f 3ec6 edbd
000000b0: 8c48 893f 67a9 8c3e 3ab5 123f 3fbb 8ebe
000000c0: ef3d d4bf 025e 88be 0340 d9bf f8b4 843d
000000d0: f64c fdbd 66bb 77c0 5bc9 21c0 2fd9 3ac0
000000e0: fb29 1cc0 735f 82bf 8796 d2bf 78c1 12c0
000000f0: 6219 82c0 f7b5 a0be 00fa aebe b21b 7740
00000100: d3ca 1040 92f1 173f
0.8875107 2.155273 0.61430603 1.2078357 2.14286 0.9956338 0.17576751 -0.96239847
1.4885533 2.945278 1.5169781 2.651449 1.8646053 2.061837 1.399463 0.041602466
1.2120954 -0.15045545 1.4502155 1.176006 -2.203781 -0.8938263 -1.5219368 -1.095324
0.43899864 -0.20741485 -0.8925484 -2.4815412 1.2063426 1.2282975 5.465566 3.986157
1.9854 -0.52751136 0.7672979 -0.8413086 -0.2664595 0.8973646 -0.21595448 -1.4434029
-2.592883 -0.0053898157 1.3285189 -0.11610077 1.0725265 0.27472994 0.5730778 -0.27877232
-1.6581401 -0.26634222 -1.697266 0.064798295 -0.12368195 -3.870813 -2.5279148 -2.9195058
-2.4400623 -1.0185379 -1.6452187 -2.2930584 -4.0655985 -0.31388828 -0.3417511 3.8610654
2.2623794 0.5935298

l1_b f4 [2]
00000000: af9a 31c0 9c13 8ec0
-2.7750661 -4.4398937

exp_avg f4 [2, 33]
00000000: c414 90b9 a8ea 39ba 1f33 30b9 d12d 0bba
00000010: 4e3f 67ba 0c10 9eb7 136a 543a 13ba 013b
00000020: 23fb d2b8 2bad 7bba cef6 17b9 ea05 66ba
00000030: 53ea 88b9 c106 1eba 0ff3 b0b9 c4d0 253a
00000040: cdef b3b9 a407 253a 2cf6 2eba 7b68 deb9
00000050: 2e75 083b ecea c43a 48a0 5b3a e500 ea39
00000060: f9fb 0bb8 2b4a 1239 5bbb 343a 5a03 f93a
00000070: 7d86 68ba 7188 5dba 7707 43bb f467 00bb
00000080: 6740 8aba 3811 90b9 d8e8 39ba 0d2c 30b9
00000090: 1c2c 0bba 873d 67ba 1ad9 9db7 c96b 543a
000000a0: 94ba 013b faea d2b8 34ab 7bba 41ef 17b9
000000b0: f603 66ba 8be6 88b9 e204 1eba 43ef b0b9
000000c0: afd2 253a 22ec b3b9 8e09 253a 56f4 2eba
000000d0: ce64 deb9 ae75 083b f3eb c43a 4aa2 5b3a
000000e0: cf04 ea39 efdb 0bb8 e351 1239 4dbd 343a
000000f0: 5d04 f93a 9484 68ba 8a86 5dba 1607 43bb
00000100: 8067 00bb 833f 8aba
-0.00027481292 -0.00070921564 -0.00016803712 -0.00053092564 -0.0008821384 -1.884254e-05 0.00081029645 0.0019794747
-0.00010060358 -0.0009600694 -0.00014492424 -0.0008774685 -0.00026114527 -0.0006028228 -0.0003375043 0.0006325359
-0.00034320206 0.0006295389 -0.0006674256 -0.00042420984 0.0020821798 0.0015023625 0.0008378071 0.00044632624
-3.337485e-05 0.00013951275 0.0006894373 0.0018998191 -0.0008870138 -0.00084508123 -0.0029759088 -0.001959321
-0.0010547758 -0.0002747865 -0.00070918864 -0.00016801078 -0.0005309002 -0.0008821119 -1.8816954e-05 0.00081032194
0.0019795047 -0.00010057348 -0.00096004014 -0.00014489611 -0.0008774394 -0.0002611171 -0.0006027949 -0.000337476
0.0006325645 -0.00034317473 0.0006295674 -0.0006673982 -0.00042418245 0.0020822096 0.0015023932 0.000837837
0.0004463554 -3.334501e-05 0.0001395415 0.0006894663 0.0018998493 -0.00088698533 -0.0008450529 -0.0029758862
-0.001959294 -0.0010547492

exp_avg_sq f4 [2, 33]
00000000: 4435 ed3a 24aa eb3a d170 ec3a ba4c db3a
00000010: 2573 f63a de03 e23a d87f d93a 146f 0a3b
00000020: 646d 143b 5da8 0c3b c9c9 fd3a 8ccb 053b
00000030: 10cb fc3a 1efb f63a 943b 023b aacf fd3a
00000040: e1f3 e73a e5ad fe3a 9911 f73a c96b eb3a
00000050: eee0 073b 2e4e 0a3b a230 e53a 7e8b d53a
00000060: 367c f13a 14aa d63a 9b2e d63a fe35 f03a
00000070: 68d7 dc3a 9d32 d23a 657d bb3a 0a7c ed3a
00000080: 1623 db3a 4035 ed3a 24aa eb3a d170 ec3a
00000090: bb4c db3a 2773 f63a e003 e23a d47f d93a
000000a0: 136f 0a3b 656d 143b 5da8 0c3b c9c9 fd3a
000000b0: 8ccb 053b 12cb fc3a 1efb f63a 933b 023b
000000c0: a8cf fd3a e1f3 e73a e7ad fe3a 9911 f73a
000000d0: c96b eb3a eee0 073b 2d4e 0a3b a230 e53a
000000e0: 7e8b d53a 347c f13a 14aa d63a 9b2e d63a
000000f0: fc35 f03a 68d7 dc3a 9e32 d23a 667d bb3a
00000100: 0a7c ed3a 1823 db3a
0.001809754 0.0017979783 0.0018038993 0.001673124 0.0018802626 0.0017243584 0.0016593887 0.0021123337
0.002264821 0.0021462657 0.0019362505 0.0020415513 0.0019286592 0.0018843149 0.0019871937 0.0019364257
0.0017696583 0.0019430487 0.0018849849 0.00179612 0.0020733434 0.0021103728 0.0017485807 0.0016292182
0.0018423859 0.0016377592 0.0016340794 0.0018326638 0.0016848864 0.0016036812 0.0014304338 0.0018118632
0.001671883 0.0018097535 0.0017979783 0.0018038993 0.0016731241 0.0018802629 0.0017243586 0.0016593882
0.0021123334 0.0022648212 0.0021462657 0.0019362505 0.0020415513 0.0019286594 0.0018843149 0.0019871935
0.0019364255 0.0017696583 0.0019430489 0.0018849849 0.00179612 0.0020733434 0.0021103725 0.0017485807
0.0016292182 0.0018423856 0.0016377592 0.0016340794 0.0018326635 0.0016848864 0.0016036814 0.001430434
0.0018118632 0.0016718833

exp_avg f4 [2]
00000000: 01d5 183b edd4 183b
0.002332032 0.0023320273

exp_avg_sq f4 [2]
00000000: 713f 0f3b 713f 0f3b
0.0021857882 0.0021857882
