context/220314_tskone_context2_lr0.4/model.pt (torch, 3031 bytes, 6 tensors)

l1_w f4 [2, 30]
000000 b4 98 86 3f fb b8 16 40 56 40 3b 3f dd 50 a9 3f
       1.0515351 2.3550403 0.73145044 1.3227803
000010 03 fa 16 40 94 8a 5a 3f 27 d3 2c be db 77 3d bf
       2.3590095 0.85367703 -0.16877423 -0.7401101
000020 be 6c 1e 40 66 9f 86 40 7d bc 24 40 0d 02 80 40
       2.475387 4.206958 2.5740044 4.0002503
000030 f5 ed 3c 40 9a 4f 51 40 47 07 32 40 e1 49 56 3f
       2.9520237 3.2704835 2.7816942 0.8370648
000040 04 79 22 40 5b 70 51 3f b4 46 35 40 85 e3 1f 40
       2.5386362 0.81812066 2.8324404 2.4982617
000050 2f bd c8 bf f1 f6 05 3d 9e d0 ca bf 25 41 33 be
       -1.5682734 0.032706205 -1.5844915 -0.1750532
000060 d5 36 d5 3f 90 a6 35 3f ef 82 6e be f5 48 08 c0
       1.6657358 0.7095728 -0.23292135 -2.129453
000070 90 37 25 40 40 df 23 40 a8 c1 b0 bf a2 dd f3 bd
       2.5815163 2.560501 -1.3809099 -0.119075075
000080 87 8d e0 bf eb d1 83 bf ff 13 f6 3d d5 b8 d3 bf
       -1.7543191 -1.0298437 0.12015533 -1.6540781
000090 6f c0 3e c0 af 3f 54 c0 cf 67 15 bc c0 7a bc 3f
       -2.9804952 -3.316387 -0.009118988 1.472496
0000a0 2d 24 d4 3d 1f 64 d0 3f 94 48 b9 3e 0d ff 10 3f
       0.103584625 1.6280555 0.36188185 0.56639177
0000b0 2f 14 cf 3d 59 11 d5 bf 8b d1 bb bc d9 e1 da bf
       0.101112716 -1.6645919 -0.022927066 -1.7100173
0000c0 02 de 89 3e 50 b7 8c 3e 61 4c 86 c0 74 5b 14 c0
       0.2692719 0.27483606 -4.1968236 -2.3180819
0000d0 fc c7 80 c0 e0 5c 33 c0 a6 9e 93 bf f0 cf da bf
       -4.024412 -2.8025436 -1.1532791 -1.7094707
0000e0 68 fb 2b c0 15 89 8e c0 05 47 37 bd 71 b2 89 3e
       -2.6872196 -4.4542336 -0.044745464 0.26893952

l1_b f4 [2]
000000 84 e1 fd bf 9a 8a 87 c0
       -1.9834447 -4.235669

exp_avg f4 [2, 30]
000000 2b 69 93 b9 c3 ca 09 ba ca 4c cf b8 2b bb 00 ba
       -0.0002811638 -0.0005256349 -9.884832e-05 -0.00049107027
000010 a9 a3 3d ba 9e 9b 32 3a 0c dc ef 3a 0e c5 08 3b
       -0.0007234165 0.000681335 0.0018299832 0.0020869407
000020 2b 9a 11 ba 61 6b ca ba d7 9e 64 ba 61 a6 e5 ba
       -0.0005554284 -0.0015443378 -0.0008721179 -0.0017520898
000030 a2 d9 82 ba 2c ba c4 ba 82 a6 8d ba 4a 7d f8 39
       -0.0009983073 -0.0015009097 -0.001080707 0.00047395594
000040 e6 aa 97 ba de a3 09 39 e8 f4 b8 ba cd b6 96 ba
       -0.0011571317 0.00013126383 -0.0014111074 -0.0011498571
000050 5b 73 c7 3a 9e 5e 86 3a cd 32 d4 3a ed 6b c1 b9
       0.0015216874 0.0010251587 0.0016189456 -0.0003689224
000060 09 f9 3c ba 33 6e 87 b9 16 c6 00 3a 02 76 ef 3a
       -0.000720874 -0.0002583131 0.00049123296 0.0018269422
000070 28 26 d5 ba 85 a2 c2 ba ff 68 93 b9 b2 ca 09 ba
       -0.0016261982 -0.001484946 -0.00028116253 -0.0005256339
000080 1b 4c cf b8 17 bb 00 ba 96 a3 3d ba b2 9b 32 3a
       -9.884705e-05 -0.0004910691 -0.0007234154 0.00068133615
000090 17 dc ef 3a 12 c5 08 3b 1b 9a 11 ba 5b 6b ca ba
       0.0018299845 0.0020869416 -0.00055542745 -0.0015443371
0000a0 c5 9e 64 ba 58 a6 e5 ba 99 d9 82 ba 23 ba c4 ba
       -0.0008721168 -0.0017520888 -0.0009983062 -0.0015009086
0000b0 83 a6 8d ba 42 7d f8 39 e8 aa 97 ba d7 a3 09 39
       -0.0010807071 0.0004739557 -0.001157132 0.00013126373
0000c0 e9 f4 b8 ba cf b6 96 ba 5e 73 c7 3a 9f 5e 86 3a
       -0.0014111075 -0.0011498573 0.0015216877 0.0010251588
0000d0 d0 32 d4 3a d2 6b c1 b9 fa f8 3c ba 1f 6e 87 b9
       0.001618946 -0.0003689216 -0.0007208731 -0.00025831253
0000e0 20 c6 00 3a 09 76 ef 3a 28 26 d5 ba 7d a2 c2 ba
       0.00049123354 0.001826943 -0.0016261982 -0.0014849451

exp_avg_sq f4 [2, 30]
000000 f8 e0 54 3b 25 df 53 3b a1 48 54 3b b6 15 47 3b
       0.0032482725 0.003232905 0.0032391923 0.003037793
000010 18 2a 5c 3b 95 5f 4c 3b 51 b8 45 3b da 17 4b 3b
       0.0033594426 0.00311849 0.0030169676 0.0030989558
000020 84 fa 59 3b 67 8c 4e 3b a3 59 3a 3b e6 71 44 3b
       0.0033260891 0.0031516792 0.0028434775 0.0029975115
000030 63 9e 39 3b d7 5a 35 3b 3d 29 3f 3b c0 18 3a 3b
       0.0028323166 0.0027672553 0.0029168867 0.00283961
000040 cb 30 2a 3b 86 b7 3a 3b 85 58 35 3b f8 c1 2c 3b
       0.0025969024 0.0028490736 0.002767117 0.0026360732
000050 f3 bd 46 3b 5f a0 4a 3b bf 53 45 3b 2b 93 1b 3b
       0.003032562 0.0030918343 0.003010973 0.0023738842
000060 94 60 30 3b 67 98 1c 3b 7f 1e 1c 3b 77 c0 2e 3b
       0.0026913034 0.002389455 0.0023821888 0.002666501
000070 2d 5e 21 3b cb 97 19 3b c0 09 55 3b 5f 08 54 3b
       0.0024622784 0.0023436423 0.0032507032 0.0032353622
000080 1c 71 54 3b 16 3c 47 3b ba 53 5c 3b 80 85 4c 3b
       0.0032416051 0.0030400804 0.003361924 0.0031207502
000090 12 dd 45 3b 7b 3d 4b 3b 1c 24 5a 3b 6f b4 4e 3b
       0.0030191583 0.0031011987 0.0033285683 0.0031540652
0000a0 fa 7e 3a 3b 0a 9c 44 3b 8c c3 39 3b 46 7f 35 3b
       0.0028457032 0.0030000233 0.0028345315 0.002769427
0000b0 3a 50 3f 3b 82 3c 3a 3b d1 52 2a 3b ac dc 3a 3b
       0.0029192106 0.0028417413 0.0025989304 0.0028512878
0000c0 63 7f 35 3b e8 e4 2c 3b e3 e2 46 3b bd c6 4a 3b
       0.0027694337 0.0026381556 0.0030347637 0.003094121
0000d0 4e 78 45 3b 27 aa 1b 3b 9e 79 30 3b f5 ae 1c 3b
       0.0030131522 0.0023752542 0.0026927958 0.0023907993
0000e0 c5 34 1c 3b 80 d8 2e 3b 03 76 21 3b bd ae 19 3b
       0.0023835164 0.0026679337 0.002463699 0.00234501

exp_avg f4 [2]
000000 c2 41 9d 3a 9a 41 9d 3a
       0.0011997747 0.00119977

exp_avg_sq f4 [2]
000000 78 54 51 3b 74 78 51 3b
       0.0031941216 0.0031962665
