context/220310_tskone_direct_lr0.4/model.pt (torch, 3223 bytes, 6 tensors)

l1_w f4 [2, 34]
000000 dd 4e b8 3e 0d d7 9c 3f fc bf 55 3d c1 68 ad 3e
       0.35997668 1.2253128 0.052185044 0.33868983
000010 8a 90 d5 3f 47 d0 95 bd b6 67 76 bf c0 b1 b0 bf
       1.6684735 -0.073151164 -0.96252 -1.3804245
000020 25 00 eb 3f e0 df 41 40 27 cf a9 3f ad 08 31 40
       1.8359419 3.0292892 1.3266343 2.7661545
000030 4c 56 d1 3f 97 dd e0 3f db fb 4a 40 de 0e b6 3f
       1.6354461 1.7567624 3.171622 1.4223287
000040 d0 52 28 40 90 5c bb 3f b6 89 4a 40 c5 da 29 40
       2.6300545 1.4637623 3.1646552 2.6539776
000050 c1 fb f1 be 95 9f 3b 3f 21 21 01 bf de e8 88 be
       -0.47262385 0.7329038 -0.50441176 -0.26740164
000060 ae 59 b0 3f f9 4a 84 3e 76 e7 bd be e8 20 cb bf
       1.3777368 0.2583845 -0.37090653 -1.5869417
000070 81 ac ef 3f c7 10 d2 3f aa 51 70 bf be 45 87 c0
       1.8724519 1.641137 -0.9387461 -4.2272635
000080 60 4f 9c 3e 9d af 4e 40 8e 3f a8 bf 51 53 3b bf
       0.30529308 3.2294686 -1.3144395 -0.73174006
000090 cb b9 d7 bf 83 34 a1 bf 76 25 01 3e 72 77 d8 bf
       -1.6853575 -1.259415 0.12611946 -1.6911452
0000a0 ce 4a 38 c0 e1 d9 4b c0 0c 47 c4 3d b2 c3 62 3f
       -2.8795657 -3.1851733 0.095838636 0.8857986
0000b0 be 04 05 bf 79 b0 91 3f 69 16 84 be b4 57 20 be
       -0.5196036 1.138198 -0.25798348 -0.15658456
0000c0 ca 47 9a 3f 25 12 b7 be 80 c8 12 3f c4 bc 30 be
       1.2053158 -0.3575603 0.5733719 -0.17259508
0000d0 2a 85 ba 3f a4 06 48 3f 07 d1 1c c0 81 84 7b bf
       1.4571888 0.7813513 -2.450258 -0.9824906
0000e0 55 64 10 c0 cc 87 f6 bf 07 7c 16 bf 86 31 bb bf
       -2.2561238 -1.9260192 -0.58783 -1.4624488
0000f0 2d f0 18 c0 69 e2 54 c0 3d 7f 94 be 72 7a cf bc
       -2.3896592 -3.326319 -0.29003325 -0.025326941
000100 f2 60 36 c0 0a 58 be c0 f7 de aa bf 87 0f 94 3f
       -2.849667 -5.948247 -1.3349293 1.1567239

l1_b f4 [2]
000000 e9 90 5e 40 57 5d d0 3f
       3.4775946 1.6278485

exp_avg f4 [2, 34]
000000 14 9a 32 37 5d 17 8e b7 b3 2e 68 39 72 70 4c b8
       1.0645501e-05 -1.6938598e-05 0.00022142641 -4.8742113e-05
000010 c5 60 62 ba 8b 1b 8d 3a 17 ac 1e 3b f2 cb 2d 3b
       -0.00086356356 0.0010765655 0.002421146 0.0026519266
000020 50 d0 42 ba c0 34 d6 ba 60 57 0a ba 59 0b d2 ba
       -0.00074315537 -0.0016342625 -0.0005277302 -0.001602511
000030 39 e5 24 ba e1 6b 8d ba 03 70 fb ba c9 8b a6 b8
       -0.00062902604 -0.0010789597 -0.0019183162 -7.941534e-05
000040 ee 38 e0 ba 29 4f 0a ba 74 f5 10 bb 35 4d ec ba
       -0.001710681 -0.0005276078 -0.0022118958 -0.0018028381
000050 c7 3b 83 3a 37 a4 0e 3a eb bc 93 3a 73 9b 48 3a
       0.0010012322 0.000544134 0.0011271512 0.0007652558
000060 9f 97 60 b8 11 cd 56 3a 7d 3b d3 3a 18 f5 3b 3b
       -5.354697e-05 0.00081940094 0.0016115751 0.0028680023
000070 78 db 56 ba 86 cb 14 ba 2d 3f 28 3b 91 bf 82 3b
       -0.00081961555 -0.00056760793 0.0025672421 0.0039901217
000080 d3 bb b4 ba fd 66 42 bb a4 69 32 37 3d 2e 8e b7
       -0.0013788886 -0.0029663437 1.0634223e-05 -1.694925e-05
000090 af 2b 68 39 1a 7c 4c b8 75 61 62 ba 39 1b 8d 3a
       0.00022141518 -4.875297e-05 -0.0008635738 0.0010765559
0000a0 e8 ab 1e 3b c3 cb 2d 3b f9 d0 42 ba 07 35 d6 ba
       0.002421135 0.0026519157 -0.0007431652 -0.0016342708
0000b0 04 58 0a ba ac 0b d2 ba da e5 24 ba 32 6c 8d ba
       -0.00052773976 -0.0016025207 -0.0006290354 -0.0010789691
0000c0 62 70 fb ba dd 90 a6 b8 3e 39 e0 ba d4 4f 0a ba
       -0.0019183273 -7.94248e-05 -0.0017106903 -0.00052761775
0000d0 9b f5 10 bb 80 4d ec ba 67 3b 83 3a 85 a3 0e 3a
       -0.0022119049 -0.0018028468 0.001001221 0.00054412364
0000e0 8d bc 93 3a bd 9a 48 3a a3 a2 60 b8 73 cc 56 3a
       0.0011271402 0.00076524523 -5.355723e-05 0.00081939175
0000f0 27 3b d3 3a e8 f4 3b 3b 0d dc 56 ba 1c cc 14 ba
       0.0016115651 0.002867991 -0.0008196242 -0.00056761666
000100 05 3f 28 3b 7e bf 82 3b fd bb b4 ba 1a 67 42 bb
       0.0025672328 0.003990113 -0.0013788935 -0.0029663504

exp_avg_sq f4 [2, 34]
000000 69 d6 df 3b a0 87 de 3b 01 46 df 3b fa a4 d2 3b
       0.0068309796 0.00679107 0.006813765 0.006428358
000010 ed 7d e6 3b d4 87 d7 3b c5 5d d1 3b a8 87 d6 3b
       0.0070340545 0.0065774713 0.006389352 0.006546933
000020 df 74 e4 3b ce 37 d9 3b d0 49 c6 3b f2 a8 cf 3b
       0.00697194 0.006628967 0.0060512796 0.0063372785
000030 89 8c c5 3b 55 71 c1 3b 27 ad d7 3b de c3 d2 3b
       0.006028716 0.005903403 0.0065819207 0.0064320406
000040 45 64 c3 3b f8 60 d3 3b 7b 50 ce 3b 33 dd c5 3b
       0.005962881 0.0064507686 0.006296215 0.006038332
000050 74 ec de 3b 03 b8 e2 3b e3 8d dd 3b 32 2b d2 3b
       0.0068030898 0.0069189086 0.006761299 0.0064138407
000060 36 46 e7 3b a0 33 d3 3b e9 b0 d2 3b 5b 52 e5 3b
       0.0070579303 0.006445363 0.0064297807 0.006998343
000070 fd 20 d8 3b a3 3b d0 3b cc 99 00 3c 28 d6 d7 3b
       0.0065957294 0.0063547655 0.007849168 0.0065868087
000080 3c 4c e4 3b 85 70 03 3c 6b d6 df 3b a0 87 de 3b
       0.0069670957 0.008022432 0.0068309805 0.00679107
000090 01 46 df 3b fa a4 d2 3b ed 7d e6 3b d4 87 d7 3b
       0.006813765 0.006428358 0.0070340545 0.0065774713
0000a0 c7 5d d1 3b a8 87 d6 3b e1 74 e4 3b ce 37 d9 3b
       0.006389353 0.006546933 0.006971941 0.006628967
0000b0 cf 49 c6 3b f2 a8 cf 3b 8a 8c c5 3b 54 71 c1 3b
       0.006051279 0.0063372785 0.0060287165 0.0059034023
0000c0 25 ad d7 3b de c3 d2 3b 45 64 c3 3b f6 60 d3 3b
       0.0065819197 0.0064320406 0.005962881 0.0064507676
0000d0 7b 50 ce 3b 34 dd c5 3b 74 ec de 3b 03 b8 e2 3b
       0.006296215 0.0060383324 0.0068030898 0.0069189086
0000e0 e3 8d dd 3b 2e 2b d2 3b 36 46 e7 3b a0 33 d3 3b
       0.006761299 0.006413839 0.0070579303 0.006445363
0000f0 e9 b0 d2 3b 5b 52 e5 3b fd 20 d8 3b a3 3b d0 3b
       0.0064297807 0.006998343 0.0065957294 0.0063547655
000100 ca 99 00 3c 27 d6 d7 3b 3c 4c e4 3b 86 70 03 3c
       0.007849166 0.0065868082 0.0069670957 0.008022433

exp_avg f4 [2]
000000 9c 32 40 bb bc 32 40 bb
       -0.002932704 -0.0029327115

exp_avg_sq f4 [2]
000000 dc 12 c1 3b dc 12 c1 3b
       0.005892141 0.005892141
