context/220310_wcancer_ann/model.pt (torch, 2211 bytes, 3 tensors)

l1.weight f4 [2, 30]
-0.8451238 -0.4306375 -1.6782464 1.449523 -1.1438043 6.596049 -3.5626519 -3.9402196
0.4147177 -1.4001023 -5.1633615 1.4476887 -2.5424669 -3.0005307 -0.26598254 0.92382497
2.9979703 -1.6219703 1.8770827 4.0318966 -0.6501883 -3.0756724 -1.0495158 1.3477752
0.10711499 1.6840967 -5.736432 -2.6475713 -2.9255233 -0.70969343 0.7726004 0.6863197
1.4096484 -1.6679195 0.94594 -6.7180705 3.45247 4.2419353 -0.349434 1.536916
5.1177983 -1.57713 2.398955 2.709162 0.058809992 -1.0111618 -2.8105798 1.8385806
-2.0817904 -4.1179676 0.8332813 3.408781 1.0844128 -1.1864763 -0.014124519 -1.7722665
5.9357834 2.3366609 2.6840496 0.56916374
00000000: 095a 58bf 857c dcbe c7d0 d6bf f889 b93f
00000010: 2e68 92bf d512 d340 7d02 64c0 8f2c 7cc0
00000020: e155 d43e 8d36 b3bf 423a a5c0 dd4d b93f
00000030: c7b7 22c0 b208 40c0 dd2e 88be cb7f 6c3f
00000040: bfde 3f40 b99c cfbf 3f44 f03f 4c05 8140
00000050: be72 26bf d1d7 44c0 8956 86bf e683 ac3f
00000060: 1b5f db3d 7b90 d73f da90 b7c0 cf71 29c0
00000070: c63b 3bc0 78ae 35bf 24c9 453f a6b2 2f3f
00000080: 5c6f b43f 637e d5bf 2029 723f 6ffa d6c0
00000090: 45f5 5c40 efbd 8740 03e9 b2be aab9 c43f
000000a0: 01c5 a340 65df c9bf 7b88 1940 e962 2d40
000000b0: bfe2 703d c06d 81bf 8ae0 33c0 9c56 eb3f
000000c0: 0e3c 05c0 64c6 83c0 ec51 553f 7829 5a40
000000d0: 0ace 8a3f 75de 97bf 876a 67bc a1d9 e2bf
000000e0: f0f1 bd40 da8b 1540 78c7 2b40 b7b4 113f

exp_avg f4 [2, 30]
5.4970682e-05 1.161773e-05 0.00010271937 -8.252029e-05 3.460358e-05 -0.00023579288 0.00012986273 0.00013912319
-4.1829812e-06 2.205765e-05 0.000117041025 -6.269975e-06 6.559161e-05 8.182645e-05 7.890761e-06 6.3580565e-06
-5.712444e-05 1.2987647e-05 -1.1810219e-05 -7.977489e-05 -1.7812503e-05 5.7860645e-05 4.21243e-05 -0.000114442366
-2.8740393e-05 -9.085329e-05 0.00021306465 0.00013563498 7.190479e-05 2.7628665e-05 -5.4970857e-05 -1.1617384e-05
-0.00010271961 8.2520004e-05 -3.460318e-05 0.00023579292 -0.00012986275 -0.0001391233 4.18277e-06 -2.205749e-05
-0.00011704195 6.2698355e-06 -6.559256e-05 -8.182717e-05 -7.891033e-06 -6.3583534e-06 5.7124496e-05 -1.2987857e-05
1.1810341e-05 7.977426e-05 1.7812006e-05 -5.786051e-05 -4.212471e-05 0.000114441915 2.874051e-05 9.085306e-05
-0.00021306462 -0.00013563517 -7.1905124e-05 -2.7629016e-05
00000000: 5290 6638 c5e9 4237 0b6b d738 be0e adb8
00000010: 5023 1138 2b3f 77b9 c32b 0839 99e1 1139
00000020: 895b 8cb6 7108 b937 ec73 f538 ad62 d2b6
00000030: 3a8e 8938 3e9a ab38 8f62 0437 4a57 d536
00000040: e798 6fb8 85e5 5937 8124 46b7 d14c a7b8
00000050: 0f6c 95b7 65af 7238 9fae 3038 c700 f0b8
00000060: 8617 f1b7 7d88 beb8 1b6a 5f39 3d39 0e39
00000070: 97cb 9638 1bc4 e737 8290 66b8 49e8 42b7
00000080: 2c6b d7b8 970e ad38 e222 11b8 2e3f 7739
00000090: c42b 08b9 a0e1 11b9 b959 8c36 1908 b9b7
000000a0: 6b74 f5b8 7a61 d236 bd8e 89b8 a19a abb8
000000b0: bb63 04b7 d759 d5b6 f698 6f38 6ce6 59b7
000000c0: 0725 4637 7b4c a738 fe6a 9537 40af 72b8
000000d0: 10af 30b8 8900 f038 c617 f137 5d88 be38
000000e0: 196a 5fb9 4a39 0eb9 c5cb 96b8 dcc4 e7b7

exp_avg_sq f4 [2, 30]
3.0507392e-05 1.0029743e-05 3.2025568e-05 2.8697532e-05 8.793112e-06 2.7206863e-05 3.3027958e-05 3.737489e-05
6.987341e-06 4.235946e-06 1.6233882e-05 2.823139e-07 1.5831543e-05 1.6895658e-05 1.3073071e-06 1.2950932e-05
9.735813e-06 1.33315025e-05 8.621761e-07 6.4029796e-06 3.4661658e-05 1.3157034e-05 3.5820358e-05 3.1209387e-05
1.2418181e-05 2.8363325e-05 3.1962394e-05 4.0607538e-05 1.1507271e-05 1.181564e-05 3.0507392e-05 1.0029743e-05
3.2025568e-05 2.8697532e-05 8.7931085e-06 2.7206863e-05 3.3027958e-05 3.737489e-05 6.987341e-06 4.2359475e-06
1.6233882e-05 2.823139e-07 1.5831543e-05 1.6895658e-05 1.3073062e-06 1.2950932e-05 9.735813e-06 1.33315025e-05
8.6217614e-07 6.4029796e-06 3.466166e-05 1.3157036e-05 3.5820358e-05 3.1209387e-05 1.2418181e-05 2.8363325e-05
3.19624e-05 4.0607538e-05 1.1507267e-05 1.181564e-05
00000000: 20ea ff37 6b45 2837 3153 0638 7bbb f037
00000010: 2186 1337 4b3a e437 8087 0a38 fcc2 1c38
00000020: cd74 ea36 8022 8e36 ff2d 8837 ed90 9734
00000030: fbcd 8437 26bb 8d37 bb76 af35 d447 5937
00000040: 0057 2337 5eaa 5f37 4a70 6735 2dd9 d636
00000050: ac61 1138 08bd 5c37 d13d 1638 d3e6 0238
00000060: ae57 5037 c7ed ed37 5c0f 0638 0352 2a38
00000070: 5a0f 4137 ca3b 4637 20ea ff37 6b45 2837
00000080: 3153 0638 7bbb f037 1d86 1337 4b3a e437
00000090: 8087 0a38 fcc2 1c38 cd74 ea36 8322 8e36
000000a0: ff2d 8837 ed90 9734 fbcd 8437 26bb 8d37
000000b0: b376 af35 d447 5937 0057 2337 5eaa 5f37
000000c0: 4b70 6735 2dd9 d636 ad61 1138 0abd 5c37
000000d0: d13d 1638 d3e6 0238 ae57 5037 c7ed ed37
000000e0: 5e0f 0638 0352 2a38 560f 4137 ca3b 4637
