context/220428_wcancer_ann_direct/model.pt (torch, 2403 bytes, 3 tensors)

l1.weight f4 [2, 34]
00000000: adb7 7cbe b399 88bf 8827 d2be d7a2 41bf
00000010: 1b79 02bf 784d ce3e b18f 51bf 8876 10bf
00000020: 7cd2 f43d 18ad abbe cd85 00c0 7c73 2a3d
00000030: 8e1e c8bf c071 dfbf 67f0 4c3f 0ab3 f53f
00000040: 4436 e5bc 030f 9f3d b536 f23e fba3 a9bc
00000050: 226a 4dbf 0efd 9fbf 065b 34bf 834a 92bf
00000060: d640 35bf 52c6 833c 5bd9 43bf 4a86 1abf
00000070: 8dbb 5cbf f8ce 8bbf 2d56 a9bf be47 12c0
00000080: 8ffc bebe 7ed8 9f3f ce02 da3e b890 7d3f
00000090: f551 503e 1f35 463f 4834 f53e 270d 04bf
000000a0: 7129 853f 7e41 553f b249 923d d073 c73e
000000b0: de10 f03f b7c1 a23b e7b0 e63f 81fb d33f
000000c0: c47f 53bf 426b d3bf 863f 333c 2c3a 86bd
000000d0: d838 e1be 2ea5 9abe ee85 233f e367 9f3f
000000e0: 7553 533f 4ec5 a63f 2a18 603f 5597 eb3d
000000f0: 67a6 3a3f e795 423f fe63 593f b9fb 903f
00000100: b70b be3f bdee 2040 57a0 be3e 6693 a1bf
-0.24679442 -1.0671905 -0.41045785 -0.756391 -0.5096604 0.4029348 -0.8185988 -0.56430864
0.11954209 -0.33530498 -2.0081666 0.04161404 -1.5634325 -1.7456589 0.80054325 1.9195263
-0.027979977 0.07766535 0.47307363 -0.020708075 -0.8024007 -1.2499101 -0.7045139 -1.1428989
-0.70802057 0.016085777 -0.76503533 -0.6036116 -0.8622368 -1.0922537 -1.3229424 -2.2856288
-0.37302062 1.2487943 0.42580265 0.9904895 0.20343764 0.77424806 0.4789145 -0.5158257
1.0403272 0.8330306 0.071429625 0.38955545 1.8755147 0.0049669403 1.8022736 1.6561128
-0.8261683 -1.6517107 0.010940438 -0.06554064 -0.4398868 -0.30204147 0.63876235 1.2453579
0.8254922 1.3028963 0.8753687 0.11503474 0.7291016 0.7600998 0.849182 1.132682
1.4847325 2.5145714 0.37231705 -1.2623107

exp_avg f4 [2, 34]
00000000: 0601 a9b6 33ed c737 a6fc d7b6 d88a 0838
00000010: 0c48 d736 bb46 94b8 0ba9 7c38 1682 f837
00000020: 04f5 ea36 ece9 6537 de6f bf38 3ed0 4db7
00000030: 6ebd 8d38 5b59 ba38 d499 adb7 5dbe 93b8
00000040: f1b9 6d37 d1b5 fbb6 b579 ecb6 909b 6e37
00000050: ecf7 4738 803c 7638 a95c 0d38 1dbd a738
00000060: dd24 ed37 c845 e4b7 1d21 5c38 a824 5738
00000070: 7b84 ca37 54aa 3938 7072 b938 561f 1f39
00000080: fa5d 51b2 cfd1 2fb8 cd00 a936 b6e4 c7b7
00000090: e1ff d736 578b 08b8 9648 d7b6 6c48 9438
000000a0: 81a6 7cb8 9080 f8b7 4ce0 eab6 91e3 65b7
000000b0: 0d71 bfb8 bacf 4d37 98bd 8db8 5d5a bab8
000000c0: 1c9e ad37 2ec1 9338 c4b0 6db7 0dce fb36
000000d0: 4b8f ec36 528e 6eb7 04f9 47b8 ee39 76b8
000000e0: c75c 0db8 e4bd a7b8 4823 edb7 524e e437
000000f0: 7b1d 5cb8 4723 57b8 8c80 cab7 eda6 39b8
00000100: 5773 b9b8 ed1f 1fb9 5c82 1832 d1ca 2f38
-5.0367116e-06 2.3833103e-05 -6.4369115e-06 3.2554235e-05 6.4158867e-06 -7.0703645e-05 6.0238915e-05 2.962448e-05
7.002267e-06 1.3703928e-05 9.1284266e-05 -1.2267437e-05 6.758688e-05 8.885815e-05 -2.0694839e-05 -7.044964e-05
1.4169594e-05 -7.501549e-06 -7.0475166e-06 1.4222125e-05 4.7676192e-05 5.8707315e-05 3.3703316e-05 7.9984056e-05
2.8269767e-05 -2.7212212e-05 5.2482927e-05 5.1294133e-05 2.4141968e-05 4.4266068e-05 8.842803e-05 0.00015175095
-1.2186769e-08 -4.191865e-05 5.0366857e-06 -2.382915e-05 6.4372875e-06 -3.2554697e-05 -6.4159494e-06 7.0706796e-05
-6.023655e-05 -2.962377e-05 -6.999855e-06 -1.3702448e-05 -9.128647e-05 1.2267317e-05 -6.7587185e-05 -8.8860026e-05
2.0696833e-05 7.045489e-05 -1.4167457e-05 7.5043704e-06 7.0500296e-06 -1.4219042e-05 -4.767721e-05 -5.870492e-05
-3.3703425e-05 -7.9985504e-05 -2.826903e-05 2.7216189e-05 -5.2479543e-05 -5.129285e-05 -2.4140136e-05 -4.42629e-05
-8.842971e-05 -0.00015175315 8.877205e-09 4.191214e-05

exp_avg_sq f4 [2, 34]
00000000: 2cc4 2f38 d062 7937 8959 3638 e8bc 2638
00000010: fd63 0037 abf8 f637 a668 3a38 820c 4d38
00000020: 9511 2b37 3b1a 5c36 6f30 c537 8832 6136
00000030: 8943 b337 512f d237 071a 2e36 3d1a 4b37
00000040: 625f 4437 c781 5c37 5c62 eb35 5767 f636
00000050: a678 5f38 91c4 b037 e82f 6238 7552 4a38
00000060: a8ce b137 e7ce 2238 649d 4c38 4b36 7c38
00000070: 6e2e e837 c93f 8137 1d0f 0f38 912f a338
00000080: ad39 bf37 a580 1537 2bc4 2f38 d062 7937
00000090: 8959 3638 e8bc 2638 fc63 0037 abf8 f637
000000a0: a668 3a38 820c 4d38 9111 2b37 3c1a 5c36
000000b0: 6f30 c537 8832 6136 8943 b337 4f2f d237
000000c0: 091a 2e36 3d1a 4b37 605f 4437 c781 5c37
000000d0: 5e62 eb35 5767 f636 a678 5f38 91c4 b037
000000e0: ea2f 6238 7552 4a38 a8ce b137 e9ce 2238
000000f0: 649d 4c38 4b36 7c38 6c2e e837 ca3f 8137
00000100: 1b0f 0f38 912f a338 af39 bf37 a480 1537
4.190595e-05 1.4864563e-05 4.3475568e-05 3.9753417e-05 7.652675e-06 2.944128e-05 4.4443317e-05 4.8887458e-05
1.0196488e-05 3.2797823e-06 2.3506784e-05 3.3557026e-06 2.1369911e-05 2.5055984e-05 2.594317e-06 1.2105852e-05
1.1704718e-05 1.3143238e-05 1.7537491e-06 7.3434016e-06 5.3279706e-05 2.1072368e-05 5.3927215e-05 4.8237347e-05
2.1196276e-05 3.8816503e-05 4.878397e-05 6.0132046e-05 2.7678176e-05 1.54077e-05 3.4107932e-05 7.7813056e-05
2.2795832e-05 8.9110445e-06 4.1905947e-05 1.4864563e-05 4.3475568e-05 3.9753417e-05 7.652674e-06 2.944128e-05
4.4443317e-05 4.8887458e-05 1.0196484e-05 3.2797825e-06 2.3506784e-05 3.3557026e-06 2.1369911e-05 2.505598e-05
2.5943175e-06 1.2105852e-05 1.1704717e-05 1.3143238e-05 1.7537493e-06 7.3434016e-06 5.3279706e-05 2.1072368e-05
5.3927222e-05 4.8237347e-05 2.1196276e-05 3.881651e-05 4.878397e-05 6.0132046e-05 2.7678172e-05 1.5407702e-05
3.4107925e-05 7.7813056e-05 2.2795835e-05 8.911044e-06
