context/220314_tskone_context3_lr0.4/model.pt (torch, 3031 bytes, 6 tensors)

l1_w f4 [2, 30]
0.12909228 1.2692081 -0.1925191 0.32689974 1.334094 -0.20172943 -1.2074699 -0.26253384
2.6642656 4.311902 2.7971523 4.082334 3.1684628 3.5082195 3.171258 1.3830175
3.0946364 1.3511755 3.281706 2.9959688 -0.78960586 0.59336954 -0.8034186 -0.010316448
1.6159765 0.74057055 -0.121719055 -1.9372813 2.4811301 2.4394202 -2.2588098 -1.161196
-2.6336472 -1.9793284 -0.8629131 -2.6645324 -3.9725742 -2.8359046 0.18464924 1.5834583
0.33190298 1.7160988 0.5835776 0.8096371 0.49212244 -1.1188284 0.53395325 -1.1770525
0.7198188 0.77371943 -3.4202325 -1.7580947 -3.2454534 -2.6374938 -1.2012625 -1.677473
-2.5756009 -4.2628145 -0.14309005 0.15023611
00000000: c430 043e 6975 a23f ba23 45be 675f a73e
00000010: 98c3 aa3f 2992 4ebe 608e 9abf d66a 86be
00000020: 5483 2a40 1afb 8940 8b04 3340 7ba2 8240
00000030: 18c8 4a40 ab86 6040 e4f5 4a40 b806 b13f
00000040: 860e 4640 52f3 ac3f 7907 5240 f4bd 3f40
00000050: 9c23 4abf 11e7 173f d7ac 4dbf 5206 29bc
00000060: 51d8 ce3f 0896 3d3f d747 f9bd d5f8 f7bf
00000070: d6ca 1e40 761f 1c40 5790 10c0 12a2 94bf
00000080: ad8d 28c0 a25a fdbf dfe7 5cbf b387 2ac0
00000090: a83e 7ec0 767f 35c0 b114 3d3e c3ae ca3f
000000a0: 30ef a93e 20a9 db3f 5765 153f 6144 4f3f
000000b0: 79f7 fb3e c535 8fbf 29b1 083f a8a9 96bf
000000c0: 0b46 383f 7a12 463f 17e5 5ac0 3f09 e1bf
000000d0: 82b5 4fc0 b3cc 28c0 f8c2 99bf 6fb7 d6bf
000000e0: a5d6 24c0 fa68 88c0 3386 12be 7fd7 193e

l1_b f4 [2]
-1.8301016 -4.08147
00000000: c540 eabf 679b 82c0

exp_avg f4 [2, 30]
8.695179e-05 1.6601181e-05 0.0002569032 -9.649511e-05 -0.000247477 0.0010570504 0.002124595 0.0019500332
-0.00037537568 -0.0013166735 -0.00067005947 -0.0014105454 -0.00078657264 -0.0013122602 -0.001275037 0.00014035915
-0.0014866285 -0.00016871448 -0.0016427769 -0.0014334762 0.0009582947 0.0006516032 0.0010506907 -0.0003837622
-0.00061454595 -0.00021747756 0.00045642522 0.0017390853 -0.0014419905 -0.0013124372 8.6951615e-05 1.660071e-05
0.0002569031 -9.649556e-05 -0.0002474778 0.0010570496 0.0021245943 0.0019500323 -0.00037537693 -0.0013166753
-0.0006700606 -0.0014105464 -0.0007865737 -0.001312261 -0.0012750379 0.00014035779 -0.0014866295 -0.00016871508
-0.0016427782 -0.0014334776 0.00095829414 0.0006516026 0.00105069 -0.0003837615 -0.0006145456 -0.00021747747
0.0004564253 0.0017390858 -0.0014419905 -0.0013124378
00000000: e359 b638 c442 8b37 f7b0 8639 6b5d cab8
00000010: cdbf 81b9 ba8c 8a3a ca3c 0b3b 4298 ff3a
00000020: 12ce c4b9 3b94 acba eea6 2fba 0de2 b8ba
00000030: ff31 4eba 2500 acba 241f a7ba 5f2d 1339
00000040: fada c2ba f3e8 30b9 7252 d7ba 7be3 bbba
00000050: 1236 7b3a 5ad0 2a3a 54b7 893a b133 c9b9
00000060: 7b19 21ba b00a 64b9 5b4c ef39 05f2 e33a
00000070: 2c01 bdba 1606 acba cb59 b638 c141 8b37
00000080: f3b0 8639 a95d cab8 e8bf 81b9 b38c 8a3a
00000090: c73c 0b3b 3a98 ff3a 3dce c4b9 4b94 acba
000000a0: 01a7 2fba 15e2 b8ba 1132 4eba 2c00 acba
000000b0: 2c1f a7ba 022d 1339 02db c2ba 1ce9 30b9
000000c0: 7d52 d7ba 87e3 bbba 0836 7b3a 4fd0 2a3a
000000d0: 4eb7 893a 9933 c9b9 7519 21ba aa0a 64b9
000000e0: 5e4c ef39 09f2 e33a 2c01 bdba 1b06 acba

exp_avg_sq f4 [2, 30]
0.0030665407 0.0030474465 0.003057688 0.0028569545 0.0031739844 0.002936936 0.0028384128 0.0031166405
0.0033476723 0.0031727436 0.0028621245 0.0030177678 0.0028510324 0.0027858864 0.0029391493 0.0028603594
0.0026173575 0.0028700938 0.002788982 0.0026567748 0.0030523175 0.0031137203 0.0030306089 0.002384906
0.0027041147 0.0024008423 0.0023933041 0.002678581 0.002474208 0.002354677 0.0030656622 0.0030466435
0.0030568033 0.0028561375 0.0031730616 0.002936034 0.0028375327 0.0031163387 0.003347418 0.0031726072
0.0028620637 0.0030178162 0.002850977 0.0027858415 0.0029384266 0.0028595212 0.0026166516 0.0028693387
0.0027883442 0.0026560926 0.0030514107 0.0031128256 0.0030296983 0.0023842978 0.002703342 0.002400187
0.0023926403 0.0026777815 0.002473547 0.0023541024
00000000: 04f8 483b abb7 473b 7e63 483b be3b 3b3b
00000010: 9f02 503b 9c79 403b aa04 3a3b 8d40 4c3b
00000020: 9f64 5b3b ceed 4f3b 7b92 3b3b bec5 453b
00000030: 63d8 3a3b 6b93 363b be9e 403b de74 3b3b
00000040: f987 2b3b 2f18 3c3b 5ac7 363b 491d 2e3b
00000050: 6409 483b 8f0f 4c3b 2e9d 463b 154c 1c3b
00000060: 8437 313b 7357 1d3b fbd8 1c3b 228b 2f3b
00000070: 5226 223b ed50 1a3b 47e9 483b 32aa 473b
00000080: a654 483b 092e 3b3b 24f3 4f3b 7a6a 403b
00000090: e6f5 393b 7d3b 4c3b 5b60 5b3b 84eb 4f3b
000000a0: 7691 3b3b 8ec6 453b 75d7 3a3b aa92 363b
000000b0: 9e92 403b ce66 3b3b 217c 2b3b 840b 3c3b
000000c0: a7bc 363b d711 2e3b 2dfa 473b 8c00 4c3b
000000d0: e78d 463b e141 1c3b 8d2a 313b 754c 1d3b
000000e0: d8cd 1c3b b87d 2f3b 3b1b 223b 4947 1a3b

exp_avg f4 [2]
0.0013842697 0.0013842642
00000000: 6270 b53a 3370 b53a

exp_avg_sq f4 [2]
0.0032105881 0.0032099122
00000000: bb68 523b 645d 523b
