context/0920_tskone_context_lr0.5_dummy4/model.pt (torch, 3223 bytes, 6 tensors)

l1_w f4 [2, 34]
3.341174 -0.4433489 2.7016501 4.018326 2.769862 1.5694444 -3.5007875 -5.9767766
4.401501 5.9824147 -0.86419034 2.357421 1.1065834 3.6940603 3.1435666 0.36991718
3.7983646 -2.8770976 6.8533463 3.9890614 -7.153054 -8.962705 -4.183381 -3.202898
-1.8816595 -1.499728 -4.813737 -9.452405 5.0247326 1.9143453 16.959496 12.801613
7.1444864 12.720948 1.2785426 -2.8128605 0.57730466 2.0236874 0.80180395 -0.4476877
-5.800962 -8.307543 2.1220214 3.2775857 -3.2713478 0.15697229 -1.34763 1.2131016
0.68939745 -1.8770998 1.2494593 -4.982324 4.641366 1.6166904 -9.567156 -11.132679
-6.2062583 -5.1386604 -4.162574 -3.5108984 -7.1102695 -11.442937 2.5360937 -0.08262904
14.502958 10.326686 4.8998966 10.26929
00000000: cbd5 5540 a1fe e2be d6e7 2c40 2096 8040
00000010: 6b45 3140 8ee3 c83f e70c 60c0 c141 bfc0
00000020: 19d9 8c40 f16f bf40 943b 5dbf fcdf 1640
00000030: 86a4 8d3f 7c6b 6c40 3230 4940 c965 bd3e
00000040: 6818 7340 5e22 38c0 9d4e db40 c84c 7f40
00000050: d2e5 e4c0 3d67 0fc1 42de 85c0 48fc 4cc0
00000060: 38da f0bf 16f7 bfbf 220a 9ac0 0d3d 17c1
00000070: 9cca a040 4409 f53f 0cad 8741 68d3 4c41
00000080: a29f e440 0189 4b41 49a7 a33f e805 34c0
00000090: 3dca 133f 1884 0140 0643 4d3f 5237 e5be
000000a0: 7ba1 b9c0 b2eb 04c1 33cf 0740 f7c3 5140
000000b0: c35d 51c0 58bd 203e 247f acbf ea46 9b3f
000000c0: 5a7c 303f ce44 f0bf 48ee 9f3f 336f 9fc0
000000d0: 1286 9440 b6ef ce3f 1213 19c1 741f 32c1
000000e0: ab99 c6c0 e86f a4c0 ce33 85c0 8fb2 60c0
000000f0: 5487 e3c0 4516 37c1 5c4f 2240 6a39 a9bd
00000100: 1e0c 6841 1b3a 2541 f4cb 9c40 034f 2441

l1_b f4 [2]
-5.6669493 -7.8261037
00000000: a657 b5c0 716f fac0

exp_avg f4 [2, 34]
-0.0023151194 -0.0021325685 -0.002305289 -0.0022118313 -0.0022520719 -0.0021897603 -0.0020543076 -0.0022655176
-0.0025699711 -0.0023795958 -0.0021116782 -0.0022762276 -0.0021783784 -0.0022260593 -0.002435168 -0.0023219737
-0.0022548551 -0.0022434173 -0.002436101 -0.0022613502 -0.0022778232 -0.0021985688 -0.0021894125 -0.0021030204
-0.0022373388 -0.0020902152 -0.0020435133 -0.0021582544 -0.0022829527 -0.0020761024 -0.0021951972 -0.0023805504
-0.0022475524 -0.002154353 -0.0023151094 -0.0021325578 -0.0023052793 -0.0022118213 -0.0022520605 -0.0021897499
-0.0020542971 -0.0022655057 -0.002569959 -0.0023795834 -0.0021116668 -0.002276216 -0.0021783668 -0.0022260486
-0.002435157 -0.0023219632 -0.0022548444 -0.002243406 -0.0024360893 -0.0022613397 -0.0022778113 -0.002198557
-0.0021894018 -0.00210301 -0.0022373276 -0.0020902043 -0.0020435033 -0.0021582437 -0.0022829422 -0.0020760924
-0.0021951876 -0.0023805387 -0.0022475412 -0.0021543433
00000000: 42b9 17bb 90c2 0bbb 5514 17bb 5ff4 10bb
00000010: 7f97 13bb 1582 0fbb 90a1 06bb 1479 14bb
00000020: f66c 28bb fef2 1bbb 1564 0abb c32c 15bb
00000030: 20c3 0ebb 14e3 11bb 5797 1fbb 412c 18bb
00000040: 31c6 13bb 4c06 13bb fea6 1fbb 2933 14bb
00000050: 8847 15bb dd15 10bb 3f7c 0fbb d4d2 09bb
00000060: 51a0 12bb fefb 08bb 77ec 05bb 8071 0dbb
00000070: 979d 15bb 380f 08bb 4cdd 0fbb 0203 1cbb
00000080: ac4b 13bb 0c30 0dbb 17b9 17bb 62c2 0bbb
00000090: 2b14 17bb 34f4 10bb 4e97 13bb e881 0fbb
000000a0: 63a1 06bb e178 14bb c26c 28bb c9f2 1bbb
000000b0: e463 0abb 912c 15bb eec2 0ebb e6e2 11bb
000000c0: 2897 1fbb 142c 18bb 03c6 13bb 1b06 13bb
000000d0: cca6 1fbb fc32 14bb 5547 15bb aa15 10bb
000000e0: 117c 0fbb a7d2 09bb 21a0 12bb cffb 08bb
000000f0: 4cec 05bb 5271 0dbb 6a9d 15bb 0d0f 08bb
00000100: 23dd 0fbb d002 1cbb 7c4b 13bb e22f 0dbb

exp_avg_sq f4 [2, 34]
0.0009774591 0.00097324594 0.00097451464 0.00089854514 0.0010133605 0.0009289808 0.000895028 0.001144006
0.0012185683 0.0011465916 0.0010451264 0.0010898587 0.0010411135 0.0010119582 0.0010972973 0.0010735036
0.000981959 0.0010871347 0.0010294196 0.0009900972 0.0011544013 0.0011783431 0.00096919754 0.0008974739
0.0010227362 0.00091127935 0.0009135781 0.0010226177 0.0009257403 0.00088571996 0.0007558484 0.00096401095
0.0009246799 0.00075620215 0.0009774591 0.00097324594 0.0009745144 0.00089854497 0.0010133608 0.0009289809
0.000895028 0.001144006 0.0012185682 0.0011465917 0.0010451264 0.0010898587 0.0010411134 0.0010119579
0.0010972979 0.0010735038 0.0009819592 0.0010871346 0.0010294194 0.0009900973 0.0011544012 0.0011783427
0.00096919754 0.00089747383 0.0010227361 0.0009112791 0.00091357826 0.0010226176 0.00092574 0.0008857203
0.0007558483 0.0009640106 0.0009246798 0.00075620227
00000000: 161e 803a 6e21 7f3a 9276 7f3a 588c 6b3a
00000010: bcd2 843a d986 733a 50a0 6a3a 79f2 953a
00000020: 5eb8 9f3a 3b49 963a 9ffc 883a 97d9 8e3a
00000030: f975 883a afa3 843a 30d3 8f3a ceb4 8c3a
00000040: 14b5 803a 307e 8e3a 97ed 863a 26c6 813a
00000050: 484f 973a a272 9a3a bf11 7e3a 7444 6b3a
00000060: 550d 863a ece2 6e3a 307d 6f3a 5b09 863a
00000070: 61ad 723a a92f 683a 2124 463a aeb5 7c3a
00000080: 3866 723a de3b 463a 161e 803a 6e21 7f3a
00000090: 8e76 7f3a 558c 6b3a bfd2 843a da86 733a
000000a0: 50a0 6a3a 79f2 953a 5db8 9f3a 3c49 963a
000000b0: 9ffc 883a 97d9 8e3a f875 883a aca3 843a
000000c0: 35d3 8f3a cfb4 8c3a 15b5 803a 2f7e 8e3a
000000d0: 95ed 863a 27c6 813a 474f 973a 9f72 9a3a
000000e0: bf11 7e3a 7344 6b3a 540d 863a e8e2 6e3a
000000f0: 337d 6f3a 5a09 863a 5cad 723a af2f 683a
00000100: 1f24 463a a8b5 7c3a 3666 723a e03b 463a

exp_avg f4 [2]
-0.0025755793 -0.0025755677
00000000: 0dcb 28bb dbca 28bb

exp_avg_sq f4 [2]
0.0012189742 0.0012189745
00000000: fdc5 9f3a ffc5 9f3a
