context/220719_mnist_ann_direct_nothing_lr0.01/model.pt (torch, 96031 bytes, 3 tensors)

l1.weight f4 [10, 785]
000000 f4 cb 6a 3c 6e 28 6a 3c 6b 61 9c bc 84 1d 2e bc
       0.014330853 0.014291866 -0.019089421 -0.010627154
000010 9d a7 cd bc ef 13 bb bc 80 60 39 3d ce 0c 22 3d
       -0.025104338 -0.022836654 0.045258045 0.039562993
000020 73 dd 97 3c 52 f7 33 3d b8 f7 3a bb f0 78 28 bc
       0.018538212 0.043937035 -0.0028529 -0.01028274
000030 69 ef 25 3d 58 a0 06 3c 79 2f 8a 3c c9 60 ff 3c
       0.040511522 0.00821694 0.01686834 0.03117408
000040 f3 99 ec 3c de c9 29 bc 34 6b 74 bb 13 51 bb bc
       0.028882002 -0.01036307 -0.0037295343 -0.022865808
000050 80 cf 3e 3c f0 67 32 bb af 50 91 3c a2 40 40 3c
       0.011646152 -0.0027222596 0.017738668 0.01173416
000060 78 e5 25 3d 4c 69 57 3c 05 0d e5 3c 3d c9 ae 3c
       0.04050204 0.013147663 0.02796031 0.021336192
000070 d6 f7 2a 3d a6 17 9c bb 5e 54 23 3d 52 1e 12 3d
       0.04174026 -0.0047635613 0.03987538 0.035673447
000080 94 98 88 bb ec e9 02 3d 6c b4 30 3d d8 81 22 bc
       -0.0041685794 0.031961367 0.043140814 -0.0099186525
000090 fc a1 5d bb 35 8f 10 3d 97 53 25 3d ab 4f 9c 3c
       -0.0033818474 0.035292823 0.04036292 0.019080957
0000a0 5e 65 9c 3c 1c cc 13 3d 46 4f 31 3d a2 ec 4d bc
       0.019091304 0.036083326 0.04328849 -0.012568625
0000b0 5a 13 d8 bb db ae 21 3d 33 85 f9 3c 85 f5 bd bb
       -0.0065941038 0.039473396 0.030459022 -0.0057970905
0000c0 0d 76 ab ba 71 0d 39 3d c8 47 46 bc fd 5d 07 3d
       -0.0013081447 0.045178834 -0.012102075 0.03304862
0000d0 09 30 fc 3c 55 e3 c5 bc 17 59 d1 bc 37 96 b3 3c
       0.030784624 -0.024156252 -0.025555177 0.021922214
0000e0 17 fb e1 3c b2 d8 2a 3d b6 44 6d 3c 3a 75 0b 3d
       0.02758555 0.041710563 0.014481714 0.034047343
0000f0 b2 18 7b bc e8 0e 01 3d b6 c3 bf bc e6 a8 0e 3d
       -0.015325712 0.031508356 -0.023408752 0.034829043
000100 83 7b 95 3c 3a e4 31 3d 1d ce 26 3d fc ef ae 3b
       0.018247372 0.043430544 0.04072391 0.005338667
000110 56 ea 19 3d 42 04 48 3d 0a 9c 7a 3d 83 59 08 3d
       0.037576996 0.048832186 0.061183967 0.03328849
000120 07 e7 3e 3d 54 e6 34 3d c5 bc 0b 3d 50 83 9a 3d
       0.046607044 0.04416497 0.03411557 0.07544577
000130 25 4d 62 3d 5b 40 22 3d a2 03 f6 3b 46 5f 80 bc
       0.055249352 0.039612155 0.0075077573 -0.01567043
000140 36 ee 98 3c a8 f5 30 3d 5f a6 d4 3c a1 88 99 bc
       0.018668275 0.043203026 0.025958238 -0.018741908
000150 42 68 e2 3b 50 cc 3c 3c fd 20 06 3d a0 9d ca 3c
       0.006909401 0.011523321 0.032746304 0.024733365
000160 ea d6 6e bc 96 0e 9a bc 2a ea f1 3c 3a 11 30 3d
       -0.014577607 -0.018805783 0.029530603 0.04298518
000170 88 3f 5d 3d f4 02 a8 3d 62 e9 d8 3d 3d cd 8f 3d
       0.054015666 0.08203688 0.10591389 0.07021568
000180 1c 9f 90 3d 52 39 0a 3e 57 37 2c 3e 59 9c f0 3d
       0.07061598 0.13498428 0.16817985 0.11748571
000190 84 47 06 3e 14 ff 49 3e 96 09 55 3e 13 b9 23 3e
       0.13113219 0.19726211 0.20804438 0.15988569
0001a0 df c3 d8 3d 0c b8 cd 3d f3 58 e8 3c a6 a3 9e 3c
       0.105842344 0.1004487 0.028362727 0.019365143
0001b0 98 73 5e 3c de be 57 3b 2e ae cd 3c b8 6b 31 3c
       0.013577364 0.0032920162 0.02510747 0.010828905
0001c0 9f d7 93 bc b4 7a d7 3b fe 7e 5c 3c d3 47 04 3d
       -0.018047152 0.0065759066 0.013458012 0.03229506
0001d0 25 e6 75 3c c9 0e 64 3c 88 57 5d 3d a2 c1 99 3d
       0.015008484 0.013919541 0.054038554 0.07507636
0001e0 02 1e c5 3d 5f 17 c8 3d 14 a6 19 3e df c7 fe 3d
       0.09624864 0.09770083 0.1500476 0.12440466
0001f0 98 1c b6 3d 88 8e 00 bd 26 07 a1 bd b2 86 ee bd
       0.088921726 -0.03138593 -0.078626916 -0.11646785
000200 d2 22 ac bd 7e f5 68 bb 3c 44 cb 3c 2a df c8 3d
       -0.08405079 -0.0035546715 0.02481281 0.0980819
000210 81 2f b4 3d 17 b9 b9 3d 34 ae d3 3d c4 4f 94 3d
       0.08798123 0.09068506 0.10335961 0.072417766
000220 58 f2 9c 3d dc 6d 82 3c de 58 12 3d 9b a1 66 3a
       0.07663411 0.015921526 0.03572928 0.0008797885
000230 e0 6a 58 3c a5 58 b1 3c 14 2d bd bc 4f ac 8e 3c
       0.013209075 0.021648714 -0.023092784 0.017416148
000240 73 77 23 3d 4e 81 82 3d 6a b8 9c 3d 04 c0 f4 3d
       0.039908838 0.06372319 0.07652362 0.119506866
000250 e2 a7 3a 3e 68 35 53 3e 62 82 11 3e d9 fc b8 3d
       0.18228105 0.20625842 0.14209893 0.09032602
000260 b8 5c b3 bd 8f 2d 84 be 3c 28 c9 be 14 30 f5 be
       -0.08757919 -0.25816008 -0.3928851 -0.47888243
000270 09 8e 00 bf 2e b7 cb be 85 cb 8f be 26 e5 08 be
       -0.5021673 -0.39788193 -0.2808496 -0.13368663
000280 c4 c8 5f bc 56 79 04 3d 50 94 98 3d 14 0b 10 3e
       -0.013658706 0.032342277 0.07450163 0.14066726
000290 32 48 97 3d 49 7f e9 3c 5d 2c 12 3d 40 0b 26 3d
       0.07386817 0.028503077 0.03568684 0.040538073
0002a0 90 d5 ae ba f4 7a cd bc 11 6c 3a 3d de ae 07 3d
       -0.0013338793 -0.025083043 0.045513216 0.03312575
0002b0 fc 0c 6b 3d 96 e7 66 3d 8f 47 d7 3d 14 37 31 3e
       0.05738543 0.0563732 0.105116956 0.17306167
0002c0 38 70 6e 3e 75 5d 67 3e 75 e0 ec 3d a3 02 2b 3d
       0.23284996 0.22594245 0.11566249 0.04175056
0002d0 0a 34 e2 bd f9 80 8b be 6a ec c3 be d8 86 f4 be
       -0.11045082 -0.27246836 -0.38266307 -0.47759128
0002e0 0b 52 13 bf 2a a0 19 bf 97 7b f6 be a2 27 a2 be
       -0.5754706 -0.60010016 -0.48141167 -0.31670862
0002f0 e7 08 28 be 0e 63 0b be 2b c1 f8 bc e8 d4 05 3e
       -0.16409646 -0.13612005 -0.030365547 0.13069499
000300 92 51 46 3e 40 ed 61 3d 01 e7 0a 3d e2 bc fd 3c
       0.19367054 0.0551579 0.03391171 0.030973855
000310 fe 08 cc 3b ea e5 98 3c 36 a3 0c 3d 0d 86 8f bc
       0.006226658 0.018664319 0.034335338 -0.017519975
000320 fa 6a 90 3d 47 9e 58 3d a5 bc 17 3e f9 3f 5d 3e
       0.07051654 0.05288532 0.14818056 0.21606435
000330 37 23 57 3e e9 c4 13 3e 4f 3c 04 3d c4 16 4a bd
       0.21009527 0.14430584 0.032284077 -0.049338117
000340 8d c1 ee bd ca 7b 4b be c0 3f 9a be 48 40 de be
       -0.11658011 -0.1987144 -0.30126762 -0.43408418
000350 d8 63 15 bf 48 d6 27 bf 97 42 20 bf 14 0a dd be
       -0.58355474 -0.6556134 -0.6260161 -0.43171751
000360 7f 5e 80 be 99 a3 3b be dd f4 03 be 02 fe 6d 3d
       -0.25072095 -0.18324126 -0.12886377 0.05810357
000370 09 65 4b 3e b5 62 ad 3d 31 6d 00 3c a5 08 16 3a
       0.1986276 0.084660925 0.007838533 0.0005723334
000380 2d f8 92 3c ca 39 05 bc 6e ba 01 3d 3f 0d a8 bb
       0.017940605 -0.008131454 0.031671934 -0.005128532
000390 ea ab 87 3d fa 0e 0d 3e b1 5a 15 3e de 86 2d 3e
       0.06624587 0.13775244 0.14585377 0.16945979
0003a0 8d 4b 28 3e 38 8c f8 3d dd c5 f5 3b 2e 51 88 bd
       0.1643507 0.121361196 0.007500394 -0.06656109
0003b0 25 1b 35 be 82 06 91 be 10 73 bb be f2 64 c9 be
       -0.17686136 -0.28325278 -0.36611223 -0.39334828
0003c0 4e a5 15 bf 20 cd 1d bf b7 d6 27 bf 9f 0f 00 bf
       -0.5845536 -0.6164112 -0.65562004 -0.50023836
0003d0 8d 1a b5 be f3 8c 73 be fa 5d 88 be e6 b3 00 be
       -0.3537182 -0.23784237 -0.26634198 -0.12568626
0003e0 04 2c be 3d 5d 6a 10 3e 9b 9a ad 3c 69 22 7b 3c
       0.09285739 0.14103074 0.021191886 0.015328028
0003f0 b7 b2 9d bc 24 61 34 3b b2 16 67 bc 0a 91 69 3b
       -0.019250257 0.002752372 -0.014104532 0.0035639429

exp_avg f4 [10, 785]
000000 65 cb b7 ba 65 cb b7 ba 65 cb b7 ba 65 cb b7 ba
       -0.0014022408 -0.0014022408 -0.0014022408 -0.0014022408
000010 65 cb b7 ba 65 cb b7 ba 65 cb b7 ba 65 cb b7 ba
       -0.0014022408 -0.0014022408 -0.0014022408 -0.0014022408
000020 65 cb b7 ba 65 cb b7 ba 65 cb b7 ba 65 cb b7 ba
       -0.0014022408 -0.0014022408 -0.0014022408 -0.0014022408
000030 65 cb b7 ba 65 cb b7 ba 65 cb b7 ba 65 cb b7 ba
       -0.0014022408 -0.0014022408 -0.0014022408 -0.0014022408
000040 65 cb b7 ba 65 cb b7 ba 65 cb b7 ba 65 cb b7 ba
       -0.0014022408 -0.0014022408 -0.0014022408 -0.0014022408
000050 65 cb b7 ba 65 cb b7 ba 65 cb b7 ba 65 cb b7 ba
       -0.0014022408 -0.0014022408 -0.0014022408 -0.0014022408
000060 65 cb b7 ba 65 cb b7 ba 65 cb b7 ba 65 cb b7 ba
       -0.0014022408 -0.0014022408 -0.0014022408 -0.0014022408
000070 65 cb b7 ba 65 cb b7 ba 65 cb b7 ba 65 cb b7 ba
       -0.0014022408 -0.0014022408 -0.0014022408 -0.0014022408
000080 65 cb b7 ba 65 cb b7 ba 7f cb b7 ba 9d cc b7 ba
       -0.0014022408 -0.0014022408 -0.0014022439 -0.0014022772
000090 9d ce b7 ba 03 ce b7 ba 97 ce b7 ba 55 cf b7 ba
       -0.0014023368 -0.0014023188 -0.001402336 -0.0014023582
0000a0 41 cc b7 ba f7 cd b7 ba a3 d3 b7 ba 75 ce b7 ba
       -0.0014022664 -0.0014023174 -0.0014024865 -0.0014023321
0000b0 cf d7 b7 ba 97 d9 b7 ba ad cc b7 ba 89 cb b7 ba
       -0.0014026108 -0.0014026639 -0.001402279 -0.001402245
0000c0 95 cb b7 ba 8f cb b7 ba 69 cb b7 ba 65 cb b7 ba
       -0.0014022464 -0.0014022457 -0.0014022413 -0.0014022408
0000d0 65 cb b7 ba 65 cb b7 ba 65 cb b7 ba 65 cb b7 ba
       -0.0014022408 -0.0014022408 -0.0014022408 -0.0014022408
0000e0 65 cb b7 ba 65 cb b7 ba 65 cb b7 ba 59 cb b7 ba
       -0.0014022408 -0.0014022408 -0.0014022408 -0.0014022394
0000f0 ad cb b7 ba 65 cb b7 ba 79 cb b7 ba 85 f0 b7 ba
       -0.0014022492 -0.0014022408 -0.0014022432 -0.0014033472
000100 27 2e b8 ba d6 3e b8 ba 02 15 b8 ba 42 14 b8 ba
       -0.001405184 -0.0014056813 -0.0014044347 -0.0014044123
000110 86 af b8 ba 04 e1 b8 ba 57 d0 b8 ba e0 7a b9 ba
       -0.0014090396 -0.0014105146 -0.0014100176 -0.0014151
000120 19 01 ba ba 37 4d ba ba 0f d3 b9 ba 87 2f b9 ba
       -0.0014191001 -0.0014213686 -0.001417728 -0.0014128544
000130 13 ff b9 ba 37 84 b9 ba 33 89 b8 ba 85 f6 b7 ba
       -0.0014190398 -0.0014153783 -0.0014078974 -0.001403526
000140 95 e7 b7 ba 4b cd b7 ba 65 cb b7 ba 65 cb b7 ba
       -0.0014030809 -0.0014022974 -0.0014022408 -0.0014022408
000150 65 cb b7 ba 65 cb b7 ba 65 cb b7 ba 61 cb b7 ba
       -0.0014022408 -0.0014022408 -0.0014022408 -0.0014022404
000160 bb 22 b8 ba 11 29 b8 ba 95 13 b8 ba a0 91 b8 ba
       -0.0014048436 -0.0014050325 -0.0014043922 -0.0014081486
000170 ca 10 b9 ba c0 30 bb ba 61 ee bc ba eb ff bc ba
       -0.0014119383 -0.0014281496 -0.0014414304 -0.0014419531
000180 43 3d bd ba 16 c1 c0 ba f8 a8 c5 ba 94 cd c3 ba
       -0.0014437813 -0.0014705982 -0.0015080264 -0.0014938586
000190 1f 62 c6 ba 04 62 c8 ba 72 88 c5 ba 49 2d c6 ba
       -0.0015135444 -0.0015288 -0.0015070571 -0.0015119697
0001a0 31 b1 c0 ba 02 08 bf ba 0f 76 bf ba 1b e9 ba ba
       -0.0014701245 -0.001457453 -0.0014607328 -0.0014260145
0001b0 3f cb b7 ba 9b bb b7 ba 65 cb b7 ba 65 cb b7 ba
       -0.0014022364 -0.0014017703 -0.0014022408 -0.0014022408
0001c0 65 cb b7 ba 65 cb b7 ba 6f cb b7 ba 63 cb b7 ba
       -0.0014022408 -0.0014022408 -0.001402242 -0.0014022406
0001d0 35 63 b8 ba f3 bb b8 ba 33 76 ba ba 62 27 bd ba
       -0.0014067652 -0.0014094099 -0.00142259 -0.0014431293
0001e0 c0 be bb ba fc 77 b7 ba d5 96 be ba ee fa bf ba
       -0.0014323816 -0.001399755 -0.0014540801 -0.0014646926
0001f0 1b b1 bc ba 72 51 bc ba 80 8c b7 ba 03 39 bb ba
       -0.0014396043 -0.0014367534 -0.0014003664 -0.0014283959
000200 b8 88 c8 ba a3 9e c7 ba f6 5f c4 ba c6 4e bb ba
       -0.0015299534 -0.0015229773 -0.0014982212 -0.0014290444
000210 3d ae b9 ba eb f7 b8 ba 32 d4 bc ba 75 be c0 ba
       -0.0014166307 -0.0014111971 -0.0014406501 -0.0014705198
000220 18 06 b9 ba dd 12 b8 ba b5 d1 b7 ba 65 cb b7 ba
       -0.0014116196 -0.0014043708 -0.001402429 -0.0014022408
000230 65 cb b7 ba 65 cb b7 ba d9 cc b7 ba 47 d0 b7 ba
       -0.0014022408 -0.0014022408 -0.0014022841 -0.0014023863
000240 9d b8 b8 ba bf 07 ba ba eb 80 bd ba 19 fd bb ba
       -0.0014093105 -0.0014192982 -0.0014457976 -0.0014342397
000250 53 89 b6 ba 3c b4 b6 ba ef 8b b6 ba c8 1a b5 ba
       -0.0013926424 -0.0013939212 -0.0013927202 -0.0013817186
000260 97 86 c0 ba b1 bb ba ba fa 2f ae ba f1 07 ad ba
       -0.0014688548 -0.001424661 -0.0013289445 -0.0013201219
000270 57 70 a7 ba c2 b5 b7 ba da fc bd ba 89 a9 c0 ba
       -0.0012774569 -0.001401596 -0.0014494911 -0.0014698963
000280 87 b4 c4 ba 36 66 bd ba 38 14 b7 ba 68 6c bb ba
       -0.0015007415 -0.0014450017 -0.0013967818 -0.0014299275
000290 34 0c bc ba 77 98 b9 ba 4f 4d b8 ba 7b cb b7 ba
       -0.0014346899 -0.0014159818 -0.0014061126 -0.0014022434
0002a0 65 cb b7 ba 69 cb b7 ba 71 cb b7 ba a5 d3 b7 ba
       -0.0014022408 -0.0014022413 -0.0014022422 -0.0014024867
0002b0 ed e8 b8 ba 71 29 ba ba dc 72 bb ba c3 5d b6 ba
       -0.0014107503 -0.0014203024 -0.0014301199 -0.0013913441
0002c0 20 80 ba ba 1b 56 be ba 4b 32 b7 ba be ac c4 ba
       -0.0014228858 -0.0014521511 -0.001397678 -0.0015005094
0002d0 bf d8 cf ba b3 54 d1 ba c7 9d c2 ba 96 dc c4 ba
       -0.0015857442 -0.0015970677 -0.0014848047 -0.0015019353
0002e0 93 93 bd ba 9b 30 a4 ba df 9e b5 ba 17 16 c8 ba
       -0.0014463536 -0.0012526693 -0.0013856551 -0.0015265372
0002f0 be 07 c4 ba 02 63 b5 ba 0d 08 b0 ba a4 c5 bb ba
       -0.0014955921 -0.0013838711 -0.0013430134 -0.0014325869
000300 6d 3f c0 ba 63 02 be ba 03 c6 b8 ba c7 cb b7 ba
       -0.001466734 -0.0014496561 -0.0014097098 -0.0014022522
000310 65 cb b7 ba e3 cb b7 ba 01 cf b7 ba 86 dd b7 ba
       -0.0014022408 -0.0014022555 -0.0014023484 -0.0014027811
000320 a6 37 b9 ba 60 4e bd ba c6 64 bb ba 14 57 b8 ba
       -0.0014130964 -0.0014442913 -0.0014297001 -0.0014064037
000330 43 61 bb ba ad 58 bb ba 00 14 c5 ba d4 3a c6 ba
       -0.0014295954 -0.0014293395 -0.0015035868 -0.0015123733
000340 10 e5 d2 ba c1 4e c8 ba 67 01 c1 ba 99 51 c8 ba
       -0.0016089994 -0.001528226 -0.0014725149 -0.0015283107
000350 7f 56 c8 ba b1 e4 ae ba 5b f8 a1 ba 65 be c6 ba
       -0.0015284567 -0.0013343302 -0.0012357341 -0.0015162943
000360 4a 48 dd ba e1 e0 d2 ba c8 06 be ba c3 8b c1 ba
       -0.0016882506 -0.0016088748 -0.001449787 -0.0014766384
000370 27 90 ca ba c6 a3 c2 ba fe 50 bb ba ed cb b7 ba
       -0.0015454338 -0.0014849834 -0.0014291105 -0.0014022567
000380 65 cb b7 ba eb cb b7 ba 3e d4 b7 ba 83 f3 b7 ba
       -0.0014022408 -0.0014022564 -0.0014025045 -0.0014034364
000390 28 f4 b9 ba b2 63 c2 ba 11 02 c1 ba d5 09 bb ba
       -0.0014187144 -0.0014830737 -0.0014725347 -0.0014269898
0003a0 96 eb b6 ba fd 4e c3 ba 51 d3 c4 ba b3 f6 d0 ba
       -0.0013955708 -0.001490086 -0.001501659 -0.0015942663
0003b0 c6 19 c9 ba ce 43 d0 ba dc 4c b9 ba 08 e9 ce ba
       -0.0015342764 -0.0015889348 -0.0014137286 -0.0015786001
0003c0 eb cd c8 ba c2 0a a8 ba 22 3b a2 ba 7f 09 c0 ba
       -0.0015320157 -0.0012820589 -0.0012377242 -0.0014651268
0003d0 8d 07 d7 ba a9 64 d4 ba 17 74 c8 ba f0 ce b6 ba
       -0.0016405449 -0.0016204315 -0.0015293387 -0.001394717
0003e0 0d db c2 ba 6f 7d c2 ba 80 58 bd ba 81 cb b7 ba
       -0.0014866308 -0.0014838408 -0.0014445931 -0.0014022441
0003f0 d1 cb b7 ba ec cc b7 ba 9c e7 b7 ba ad 63 b8 ba
       -0.0014022534 -0.0014022863 -0.0014030817 -0.0014067792

exp_avg_sq f4 [10, 785]
000000 a1 0d 8c 39 a1 0d 8c 39 a1 0d 8c 39 a1 0d 8c 39
       0.00026713035 0.00026713035 0.00026713035 0.00026713035
000010 a1 0d 8c 39 a1 0d 8c 39 a1 0d 8c 39 a1 0d 8c 39
       0.00026713035 0.00026713035 0.00026713035 0.00026713035
000020 a1 0d 8c 39 a1 0d 8c 39 a1 0d 8c 39 a1 0d 8c 39
       0.00026713035 0.00026713035 0.00026713035 0.00026713035
000030 a0 0d 8c 39 9f 0d 8c 39 9e 0d 8c 39 a0 0d 8c 39
       0.00026713032 0.0002671303 0.00026713026 0.00026713032
000040 a1 0d 8c 39 a1 0d 8c 39 a1 0d 8c 39 a1 0d 8c 39
       0.00026713035 0.00026713035 0.00026713035 0.00026713035
000050 a1 0d 8c 39 a1 0d 8c 39 a1 0d 8c 39 a1 0d 8c 39
       0.00026713035 0.00026713035 0.00026713035 0.00026713035
000060 a1 0d 8c 39 a1 0d 8c 39 a1 0d 8c 39 a1 0d 8c 39
       0.00026713035 0.00026713035 0.00026713035 0.00026713035
000070 a1 0d 8c 39 a1 0d 8c 39 a1 0d 8c 39 a1 0d 8c 39
       0.00026713035 0.00026713035 0.00026713035 0.00026713035
000080 a1 0d 8c 39 a5 0d 8c 39 bc 0d 8c 39 e6 0d 8c 39
       0.00026713035 0.00026713047 0.00026713114 0.00026713236
000090 9f 0e 8c 39 4a 0f 8c 39 a7 11 8c 39 07 14 8c 39
       0.00026713774 0.00026714272 0.00026716033 0.00026717802
0000a0 2d 13 8c 39 20 13 8c 39 67 12 8c 39 26 12 8c 39
       0.00026717168 0.0002671713 0.00026716592 0.00026716402
0000b0 61 14 8c 39 ed 12 8c 39 42 0f 8c 39 aa 0e 8c 39
       0.00026718064 0.00026716982 0.0002671425 0.00026713806
0000c0 84 0e 8c 39 8c 0e 8c 39 00 0e 8c 39 a5 0d 8c 39
       0.00026713696 0.0002671372 0.00026713312 0.00026713047
0000d0 a1 0d 8c 39 a1 0d 8c 39 a1 0d 8c 39 a1 0d 8c 39
       0.00026713035 0.00026713035 0.00026713035 0.00026713035
0000e0 a1 0d 8c 39 a1 0d 8c 39 aa 0d 8c 39 eb 0d 8c 39
       0.00026713035 0.00026713035 0.0002671306 0.0002671325
0000f0 ea 0d 8c 39 d2 0d 8c 39 ca 0e 8c 39 1f 14 8c 39
       0.00026713248 0.00026713178 0.000267139 0.00026717872
000100 c2 17 8c 39 5f 27 8c 39 56 32 8c 39 e7 3b 8c 39
       0.00026720582 0.00026732215 0.00026740384 0.00026747512
000110 83 50 8c 39 64 62 8c 39 68 78 8c 39 a5 90 8c 39
       0.00026762867 0.00026776188 0.0002679259 0.0002681065
000120 17 95 8c 39 77 76 8c 39 13 61 8c 39 6d 4c 8c 39
       0.0002681396 0.00026791144 0.00026775207 0.00026759823
000130 79 3a 8c 39 a7 29 8c 39 a3 1d 8c 39 a6 13 8c 39
       0.00026746446 0.00026733914 0.00026724962 0.0002671752
000140 24 0f 8c 39 e5 0d 8c 39 a1 0d 8c 39 a1 0d 8c 39
       0.00026714162 0.00026713233 0.00026713035 0.00026713035
000150 a1 0d 8c 39 a1 0d 8c 39 b9 0d 8c 39 28 0f 8c 39
       0.00026713035 0.00026713035 0.00026713105 0.00026714173
000160 a3 0f 8c 39 74 0f 8c 39 ff 17 8c 39 2d 33 8c 39
       0.0002671453 0.00026714394 0.0002672076 0.0002674101
000170 49 53 8c 39 31 90 8c 39 cc d8 8c 39 bf 3c 8d 39
       0.00026764933 0.00026810312 0.00026864407 0.00026938875
000180 04 bb 8d 39 2a 38 8e 39 4e b8 8e 39 01 0c 8f 39
       0.00027032953 0.00027126196 0.00027221668 0.0002728403
000190 9b 18 8f 39 f7 cf 8e 39 b5 54 8e 39 95 04 8e 39
       0.00027293418 0.00027239296 0.00027147462 0.00027087764
0001a0 8e 7c 8d 39 36 fe 8c 39 7c 88 8c 39 89 40 8c 39
       0.00026986416 0.00026892283 0.0002680457 0.00026750963
0001b0 3e 1c 8c 39 13 11 8c 39 1e 0e 8c 39 a1 0d 8c 39
       0.00026723923 0.00026715602 0.000267134 0.00026713035
0001c0 a1 0d 8c 39 a1 0d 8c 39 b9 0d 8c 39 0b 0f 8c 39
       0.00026713035 0.00026713035 0.00026713105 0.0002671409
0001d0 e9 11 8c 39 f1 23 8c 39 cb 55 8c 39 f9 b4 8c 39
       0.00026716225 0.0002672966 0.00026766802 0.00026837716
0001e0 05 54 8d 39 e0 5e 8e 39 79 bf 8f 39 c3 9f 91 39
       0.00026956215 0.00027155038 0.00027417744 0.00027775587
0001f0 73 0a 94 39 35 be 96 39 77 27 99 39 d3 a3 9a 39
       0.00028236545 0.00028751945 0.00029211838 0.00029495227
000200 30 ad 9a 39 f1 96 99 39 b4 a4 97 39 a7 a2 95 39
       0.00029502204 0.00029294894 0.00028923678 0.0002854068
000210 97 f8 92 39 f8 91 90 39 16 bd 8e 39 af 5d 8d 39
       0.00028032504 0.00027574576 0.0002722523 0.00026963415
000220 1a 93 8c 39 6f 2d 8c 39 94 11 8c 39 bd 0d 8c 39
       0.0002681248 0.00026736732 0.00026715978 0.00026713117
000230 a1 0d 8c 39 a1 0d 8c 39 ef 0d 8c 39 91 12 8c 39
       0.00026713035 0.00026713035 0.00026713262 0.00026716714
000240 a1 1e 8c 39 cf 5d 8c 39 69 e3 8c 39 d4 b9 8d 39
       0.000267257 0.00026772774 0.00026872315 0.00027032068
000250 4a 33 8f 39 d8 7f 91 39 95 b1 94 39 3a 00 99 39
       0.000273133 0.00027751806 0.0002836107 0.00029182603
000260 6d fb 9d 39 77 3f a3 39 2e ea a7 39 4a c2 aa 39
       0.000301327 0.00031137068 0.000320272 0.00032569683
000270 41 89 ab 39 e2 f4 a9 39 e2 25 a6 39 6e d4 a0 39
       0.00032717924 0.00032416644 0.00031690212 0.0003067585
000280 c0 3c 9b 39 96 39 96 39 88 ff 91 39 a4 f7 8e 39
       0.00029609166 0.00028653134 0.0002784694 0.00027268857
000290 ea 3a 8d 39 c3 60 8c 39 9c 21 8c 39 0b 0e 8c 39
       0.0002693751 0.00026774974 0.00026727922 0.00026713344
0002a0 a1 0d 8c 39 a6 0d 8c 39 c1 0e 8c 39 26 14 8c 39
       0.00026713035 0.0002671305 0.00026713873 0.00026717893
0002b0 ba 38 8c 39 08 ba 8c 39 34 9a 8d 39 18 16 8f 39
       0.00026745145 0.00026841485 0.00027008506 0.00027291547
0002c0 8d e3 91 39 4a 16 96 39 cf 3c 9b 39 df 1f a1 39
       0.00027826094 0.00028626836 0.0002960921 0.0003073206
0002d0 a9 49 a7 39 06 78 ad 39 da 0a b2 39 62 09 b5 39
       0.00031907603 0.00033086556 0.0003395889 0.0003453
0002e0 7c da b5 39 e7 56 b4 39 b9 58 b0 39 c9 c7 a9 39
       0.00034685794 0.00034397023 0.0003363544 0.00032383043
0002f0 f0 c5 a2 39 7d 24 9c 39 90 fa 95 39 90 1f 91 39
       0.00031046523 0.00029781825 0.00028606178 0.0002768007
000300 bc 0c 8e 39 bd b7 8c 39 d2 37 8c 39 49 13 8c 39
       0.00027093838 0.00026839777 0.0002674447 0.0002671725
000310 a1 0d 8c 39 23 0e 8c 39 36 10 8c 39 1a 1c 8c 39
       0.00026713035 0.00026713414 0.0002671496 0.00026723818
000320 df 60 8c 39 6f 18 8d 39 66 6a 8e 39 10 1b 91 39
       0.00026775055 0.0002691182 0.00027163624 0.00027676718
000330 5f 79 95 39 23 fb 9a 39 a3 19 a1 39 46 cf a7 39
       0.00028509923 0.0002956028 0.00030727414 0.00032007153
000340 fd fa ad 39 6a cc b2 39 77 62 b5 39 7a 26 b6 39
       0.00033184132 0.00034103106 0.00034596372 0.00034742412
000350 2a 4b b6 39 69 b5 b5 39 ff 62 b3 39 3a 45 ae 39
       0.00034769747 0.0003465817 0.00034215298 0.00033239444
000360 ae 03 a8 39 7c 14 a1 39 90 f7 99 39 e6 99 93 39
       0.000320462 0.00030723575 0.00029366883 0.00028152688
000370 b2 fb 8e 39 3d 07 8d 39 26 4a 8c 39 f2 11 8c 39
       0.00027271878 0.0002689901 0.00026758126 0.0002671625
000380 2f 0e 8c 39 58 0e 8c 39 5a 16 8c 39 42 35 8c 39
       0.00026713448 0.00026713568 0.00026719534 0.0002674256
000390 8b 94 8c 39 d2 87 8d 39 87 9d 8f 39 b9 bf 93 39
       0.00026813554 0.0002699481 0.00027392452 0.0002818087
0003a0 de 38 99 39 9f 47 9f 39 22 fe a5 39 c5 32 ac 39
       0.00029224803 0.00030380205 0.00031660596 0.00032844223
0003b0 5a 21 b1 39 a1 23 b3 39 8b 6a b2 39 0c bd b0 39
       0.0003378492 0.00034168086 0.00034030186 0.00033710187
0003c0 a6 26 b0 39 77 37 b0 39 57 e0 af 39 09 a4 ad 39
       0.0003359813 0.0003361066 0.00033545747 0.00033119347
0003d0 fb b9 a9 39 90 d6 a3 39 fa 7b 9c 39 38 64 95 39
       0.00032372758 0.00031249644 0.00029847008 0.00028494163
0003e0 6e 95 8f 39 bc 20 8d 39 a5 45 8c 39 7a 0f 8c 39
       0.0002738642 0.00026918005 0.0002675477 0.00026714412
0003f0 c1 0d 8c 39 86 0e 8c 39 c4 1c 8c 39 a2 49 8c 39
       0.00026713128 0.00026713702 0.00026724313 0.00026757742
