context/220719_mnist_ann_base_lr0.01/model.pt (torch, 96783 bytes, 6 tensors)

l1.weight f4 [10, 784]
0.0042599016 0.004220886 -0.029181655 -0.020714058 -0.035200387 -0.032931294 0.035206757 0.02950808
0.008469931 0.033884905 -0.012934847 -0.02036941 -0.11006744 -0.36757055 -0.2936011 -0.023884382
0.018820316 -0.020449806 -0.013812032 -0.032960467 0.0015735031 -0.012804117 0.0076698833 0.0016615647
0.03044773 0.0030759575 0.017898029 0.011269706 0.031686746 -0.014846713 0.02982067 0.025616003
-0.023600765 -0.0033535503 -0.07075129 -0.33217275 -0.24656965 -0.10097612 -0.5843408 1.3299199
1.3577975 1.3965101 -0.5133956 1.7334168 1.7343795 1.7354065 -1.3527516 -0.6042264
-0.52446693 -0.3917251 -0.1693284 -0.05943659 0.020724153 -0.034251705 -0.035651498 0.011856092
0.017523026 0.03165703 -0.035578776 1.4166951 0.97190166 -0.1185248 -0.96807903 0.8236236
-0.6490825 -1.6642238 -1.2056898 -1.4215009 -1.2410556 -1.6168336 -2.5558023 -2.8698099
-0.92010397 -1.9978834 -1.3812249 -0.89496815 -1.8295474 -0.72419596 -0.36029005 -0.23531511
-0.3899137 -0.2748163 0.015894694 -0.02883391 -0.0031663054 0.001450594 -0.068697 1.2474456
-0.78247845 -0.09754351 -0.75409716 -1.4672645 0.077388465 -0.7392801 -0.20296967 0.09849965
-0.3125043 0.4805882 0.61656296 -0.10721106 0.18648295 0.41652462 -0.36565927 -0.5220196
0.030610561 -0.90520567 -0.51367074 -0.39166385 -0.2117993 0.7371684 -1.4413412 0.0007557188
-0.028138716 -0.013975089 -0.69734204 -0.81529534 -0.845923 -1.5989372 -1.2359269 0.088832
0.064231224 0.50938183 -0.118034735 0.6407064 -0.33023447 0.3146546 -0.17161317 0.36509377
-0.30549407 0.28359422 0.036501266 0.03350748 0.11894047 -0.31150138 0.2664603 0.25005522
-0.52431357 0.19628586 -1.3989289 -0.98419434 0.00313741 0.011582426 -1.1428801 -1.3475146
-0.7185299 -1.8510661 0.3055422 -0.21303274 0.23328415 0.08106212 0.47587496 0.18249811
-0.25945944 0.16547948 0.28053692 0.098162346 0.034196906 0.24809182 0.31314382 0.17381902
-0.17900538 -0.085885085 0.12900327 -0.46420193 -0.3444681 -1.136813 -1.7513179 -0.6385626
-0.011414839 -0.6921686 -1.6855856 -0.43230018 -0.963938 -0.00767002 0.21959926 0.06326492
-0.022989389 -0.79631215 -0.10711332 0.026242236 -0.21334416 0.4874426 0.30326027 -0.11640555
0.16658871 0.062018137 0.28209016 -0.021284591 0.043259114 0.5421509 0.68124604 -0.31487995
-1.1404794 -2.6489403 -2.2948308 -0.6297642 -0.003997449 -0.9790698 -0.6245233 -0.72609866
-1.2463363 0.14954528 0.31507197 0.022346424 -0.49046937 0.2311837 0.14074361 0.19782728
-0.11339745 0.18176423 0.1341947 -0.01763535 -0.045321774 0.49485657 0.3764944 0.21190614
0.004549199 -0.12597564 -0.25450355 0.3998703 0.042992234 -0.9992499 -2.889228 -0.18156075
1.9149699 -0.8493752 0.85624903 1.4665023 -1.3086563 -0.15179016 -0.15723364 -0.026797548
0.100259736 0.3430421 -0.15096457 -0.104641035 0.2415993 -0.15773286 0.29335126 0.28385705
0.7268701 0.3771415 0.15575172 -0.20236264 0.27791214 0.38004556 0.24077746 0.35980827
0.18033177 -2.5196145 -3.0965602 -0.802932 -0.27996984 -0.27270752 1.6550771 0.96892565
00000000: a596 8b3b 5c4f 8a3b 5e0e efbc 87b0 a9bc
00000010: 482e 10bd f7e2 06bd f634 103d eeba f13c
00000020: 77c5 0a3c e6ca 0a3d aeec 53bc c0dd a6bc
00000030: 0a6b e1bd 3532 bcbe e252 96be 2ea9 c3bc
00000040: 102d 9a3c 5a86 a7bc dc4b 62bc 8e01 07bd
00000050: 013e ce3a 5cc8 51bc a553 fb3b dcc8 d93a
00000060: 856d f93c 0196 493b e39e 923c 93a4 383c
00000070: f6c9 013d a13f 73bc 7a4a f43c a7d8 d13c
00000080: 6456 c1bc 3dc7 5bbb 0de6 90bd 8c12 aabe
00000090: c17c 7cbe 91cc cebd 5c97 15bf d13a aa3f
000000a0: 4fcc ad3f d8c0 b23f e56d 03bf 9ae0 dd3f
000000b0: 2600 de3f cd21 de3f f726 adbf 95ae 1abf
000000c0: 7743 06bf 3190 c8be 6d64 2dbe c873 73bd
000000d0: b3c5 a93c 844b 0cbd 4e07 12bd 0e40 423c
000000e0: 738c 8f3c cdaa 013d 0dbb 11bd 4456 b53f
000000f0: 8cce 783f 21bd f2bd 07d4 77bf ffd8 523f
00000100: 452a 26bf 4905 d5bf 0b54 9abf bef3 b5bf
00000110: e9da 9ebf 67f4 cebf 4492 23c0 f7aa 37c0
00000120: ef8b 6bbf a5ba ffbf facb b0bf a21c 65bf
00000130: 9c2e eabf e864 39bf f077 b8be 72f6 70be
00000140: c5a2 c7be b9b4 8cbe 9735 823c 1835 ecbc
00000150: ca81 4fbb dc21 be3a 03b1 8cbd 4cac 9f3f
00000160: 8250 48bf e4c4 c7bd 830c 41bf 53cf bbbf
00000170: d87d 9e3d 7641 3dbf 48d7 4fbe 2fba c93d
00000180: 9000 a0be a80f f63e 12d7 1d3f 7991 dbbd
00000190: 63f5 3e3e b742 d53e b137 bbbe 14a3 05bf
000001a0: 00c3 fa3c 8fbb 67bf ed7f 03bf 2a88 c8be
000001b0: eae1 58be 11b7 3c3f de7d b8bf 6e1b 463a
000001c0: 2a83 e6bc c6f7 64bc 0285 32bf 32b7 50bf
000001d0: 698e 58bf f9a9 ccbf da32 9ebf 8ded b53d
000001e0: a98b 833d d966 023f 32bc f1bd 5605 243f
000001f0: 7e14 a9be 681a a13e 5dbb 2fbe 92ed ba3e
00000200: b869 9cbe 4333 913e 5a82 153d 243f 093d
00000210: 1097 f33d 1c7d 9fbe 7c6d 883e 3d07 803e
00000220: 6a39 06bf 29ff 483e 1a10 b3bf 29f4 7bbf
00000230: 019d 4d3b 37c4 3d3c e549 92bf 5c7b acbf
00000240: 93f1 37bf bcef ecbf 0770 9c3e 4125 5abe
00000250: 0ae2 6e3e e603 a63d e2a5 f33e c9e0 3a3e
00000260: ded7 84be 7473 293e 89a2 8f3e 5709 c93d
00000270: 0e12 0c3d c80b 7e3e 6354 a03e 9dfd 313e
00000280: 304d 37be 85e4 afbd 6f19 043e e0ab edbe
00000290: 1f5e b0be 1783 91bf 2f2b e0bf d778 23bf
000002a0: 4e05 3bbc f631 31bf 45c1 d7bf 7356 ddbe
000002b0: a4c4 76bf cb54 fbbb a1de 603e 0a91 813d
000002c0: 3e54 bcbc 1ddb 4bbf 3a5e dbbd f5f9 d63c
000002d0: e476 5abe 1492 f93e ee44 9b3e 0866 eebd
000002e0: 3b96 2a3e bb06 7e3d 1f6e 903e 065d aebc
000002f0: 7830 313d 67ca 0a3f 2466 2e3f f237 a1be
00000300: 3bfb 91bf 3d88 29c0 82de 12c0 3a38 21bf
00000310: 08fd 82bb 52a4 7abf c2e0 1fbf 9ae1 39bf
00000320: f387 9fbf 6622 193e 1d51 a13e d90f b73c
00000330: cd1e fbbe 6bbb 6c3e 181f 103e 3c93 4a3e
00000340: ec3c e8bd 6720 3a3e 566a 093e 0278 90bc
00000350: 53a3 39bd d75d fd3e e0c3 c03e ecfd 583e
00000360: 7211 953b c2ff 00be 4a4e 82be cdbb cc3e
00000370: a018 303d d7ce 7fbf 1de9 38c0 10eb 39be
00000380: bc1d f53f a770 59bf 2333 5b3f 59b6 bb3f
00000390: 0d82 a7bf e16e 1bbe db01 21be 8886 dbbc
000003a0: fa54 cd3d 37a3 af3e 7596 1abe 0a4e d6bd
000003b0: cf65 773e b984 21be 2332 963e b655 913e
000003c0: 2914 3a3f b118 c13e 617d 1f3e 2738 4fbe
000003d0: 804a 8e3e 5595 c23e 5e8e 763e ca38 b83e
000003e0: e4a8 383e 5d41 21c0 0b2e 46c0 f48c 4dbf
000003f0: 3558 8fbe 52a0 8bbe 91d9 d33f 830b 783f

l1.bias f4 [10]
-0.95846105 1.2954593 0.27702367 -0.6872733 0.36910713 2.1971264 -0.44051126 1.3106976
-2.2163951 -0.5243686
00000000: b45d 75bf 9cd1 a53f 0cd6 8d3e 25f1 2fbf
00000010: 9cfb bc3e b89d 0c40 b18a e1be f0c4 a73f
00000020: 6bd9 0dc0 053d 06bf

exp_avg f4 [10, 784]
0.0 0.0 0.0 0.0 0.0 0.0 0.0 0.0
0.0 0.0 0.0 0.0 1.4608056e-15 3.1475707e-14 3.146693e-14 1.3111225e-15
0.0 0.0 0.0 0.0 0.0 0.0 0.0 0.0
0.0 0.0 0.0 0.0 0.0 0.0 0.0 0.0
1.3815483e-20 2.956475e-18 7.521761e-14 1.6663537e-13 7.7338103e-13 3.2150573e-13 4.3161502e-10 7.304511e-10
5.9352896e-09 9.599682e-10 2.809335e-09 1.6649353e-09 1.5180465e-08 6.759805e-08 1.5877601e-08 8.222515e-13
1.0463674e-12 2.3750348e-12 2.0074567e-13 4.658747e-15 0.0 0.0 0.0 0.0
0.0 0.0 3.4352207e-20 -3.6363712e-09 -1.2519932e-09 2.4979278e-13 -1.7498324e-10 1.3353085e-07
4.84436e-07 4.012924e-07 1.4311715e-07 1.7878264e-08 4.477896e-07 5.8121964e-07 1.0013538e-07 6.1490886e-07
1.6504757e-06 1.8605579e-06 8.170835e-07 1.7417167e-07 1.4092964e-07 7.9158404e-08 1.9713482e-08 7.99025e-09
5.610342e-09 5.8236077e-10 0.0 0.0 0.0 0.0 6.327781e-15 -1.0501973e-08
-3.1011973e-09 -3.2537187e-10 8.6550024e-08 1.6970629e-05 2.0048417e-06 1.6790338e-05 3.3540076e-05 2.7142743e-05
-9.656299e-06 0.00012259952 6.608411e-05 -1.2052009e-05 8.4007734e-05 9.013229e-05 3.7343852e-05 0.00010103336
5.3780186e-05 6.7288393e-06 -1.4067554e-06 -2.463189e-06 -4.6342493e-06 -1.3419408e-06 2.2168253e-11 0.0
0.0 6.5337187e-21 2.7946818e-12 -2.2896564e-10 4.1241213e-10 1.8967509e-07 2.6740992e-05 6.924014e-05
2.2478132e-06 5.8771393e-06 6.328832e-06 -8.845612e-05 -0.00017249791 -0.00015109856 -0.00039642752 -0.00041203463
-0.00020355299 3.204385e-05 -0.00016418264 -9.854792e-05 6.176388e-05 4.9932114e-05 -2.7528256e-05 -1.0470687e-05
-1.3903493e-06 -2.8383966e-09 1.9204083e-10 1.4174627e-16 0.0 0.0 6.756143e-09 6.1079506e-09
1.4081889e-08 5.313839e-06 7.320327e-05 8.867546e-06 -0.000121735575 -0.00022459388 -0.00043642317 -0.0006906821
-0.00036297378 -0.0006576128 -0.0010913726 -0.0010617136 -0.00090092607 -0.00018233513 -9.4583156e-05 -5.6307726e-05
0.00031950625 0.0003284802 4.7655718e-05 -3.8770137e-05 -1.4352083e-05 4.4822568e-07 3.4425283e-09 5.7275188e-11
0.0 1.6936667e-10 6.5634936e-10 2.0082666e-08 -2.9197966e-07 8.568582e-06 5.4260603e-05 -9.700673e-05
-0.00021386759 -0.00029216905 -0.00056104426 -0.00042406615 -0.00047453403 -0.00085448194 -0.0011919745 -0.0007076854
-0.0005983839 -0.0007169238 -0.00033300847 -0.000107377346 0.00017145844 4.705892e-05 3.8253263e-05 9.8227974e-05
1.561059e-05 3.321047e-05 8.849044e-07 -1.5045314e-11 7.299627e-21 3.855086e-09 8.68316e-09 3.1974228e-08
-1.0797307e-06 3.5819983e-05 1.4841525e-05 -0.0001884087 -0.00029901418 -0.00041681362 -0.00033728732 -0.0004450972
-0.00046662285 -0.00064294017 -0.00048295854 -0.00016587612 2.6600197e-05 -0.0005673782 -0.0006462783 -0.0001286029
0.00015403371 0.00033231944 0.0002037498 0.00015758567 0.00018943865 7.0367845e-05 3.158779e-06 8.640834e-11
-5.851302e-14 7.7390605e-10 -1.7158983e-07 1.1159977e-06 3.1850215e-07 6.9629554e-05 -1.4661143e-05 -0.00032673197
-0.00044242328 -0.00017480388 -0.00017602085 -0.00021612435 -0.0006659347 -0.00025052548 -0.00022578302 0.00030073404
0.0005317644 -0.00020975653 -0.00080336037 -0.0004627451 -7.744158e-06 0.00027203208 0.00029098932 -6.332351e-05
-1.5222238e-05 4.4154335e-06 5.1049137e-06 2.0626226e-12 3.256199e-15 5.0420657e-10 -6.246832e-08 4.259162e-06
00000000: 0000 0000 0000 0000 0000 0000 0000 0000
00000010: 0000 0000 0000 0000 0000 0000 0000 0000
00000020: 0000 0000 0000 0000 0000 0000 0000 0000
00000030: 3786 d226 05c1 0d29 e6b6 0d29 e2f3 bc26
00000040: 0000 0000 0000 0000 0000 0000 0000 0000
00000050: 0000 0000 0000 0000 0000 0000 0000 0000
00000060: 0000 0000 0000 0000 0000 0000 0000 0000
00000070: 0000 0000 0000 0000 0000 0000 0000 0000
00000080: ca7b 821e 3c26 5a22 0060 a929 609d 3b2a
00000090: faaf 592b dcfd b42a 6a48 ed2f edc8 4830
000000a0: 5cef cb31 e1ef 8330 580e 4131 b4d3 e430
000000b0: 3266 8232 6c2a 9133 3763 8832 7771 672b
000000c0: 5c43 932b d320 272c 0005 622a 5bd9 a727
000000d0: 0000 0000 0000 0000 0000 0000 0000 0000
000000e0: 0000 0000 0000 0000 4539 221f b8e3 79b1
000000f0: 9812 acb0 ef9e 8c2a 6765 40af ae60 0f34
00000100: 300a 0235 3571 d734 beab 1934 b892 9932
00000110: bc67 f034 1c05 1c35 020a d733 3710 2535
00000120: ea85 dd35 48b8 f935 8d55 5b35 f203 3b34
00000130: 7252 1734 cbfd a933 6856 a932 7e45 0932
00000140: 17c5 c031 ff13 2030 0000 0000 0000 0000
00000150: 0000 0000 0000 0000 7afb e327 2a6c 34b2
00000160: d71c 55b1 05e0 b2af 61dd b933 265c 8e37
00000170: eb8a 0636 fad8 8c37 62ad 0c38 99b0 e337
00000180: 7d01 22b7 0f8e 0039 a396 8a38 fc32 4ab7
00000190: 4f2d b038 6805 bd38 a8a1 1c38 dfe1 d338
000001a0: 0992 6138 4ac8 e136 bfcf bcb5 444d 25b6
000001b0: e67f 9bb6 bc1c b4b5 78fe c22d 0000 0000
000001c0: 0000 0000 40d6 f61d 83a8 442c 19c0 7baf
000001d0: d9b9 e22f 7ea9 4b34 d851 e037 0435 9138
000001e0: 23d9 1636 3e34 c536 415c d436 8581 b9b8
000001f0: 8ee0 34b9 3670 1eb9 9ad7 cfb9 5a06 d8b9
00000200: d770 55b9 d266 0638 7128 2cb9 83ab ceb8
00000210: 3b87 8138 336e 5138 7bec e6b7 42ab 2fb7
00000220: 0a9c bab5 9a0d 43b1 b026 532f 1d6c 2325
00000230: 0000 0000 0000 0000 aa23 e831 1ade d131
00000240: ceec 7132 884d b236 b584 9938 d2c5 1437
00000250: 4a4c ffb8 f680 6bb9 bacf e4b9 e40e 35ba
00000260: 844d beb9 a663 2cba 630c 8fba 3229 8bba
00000270: 202c 6cba 3731 3fb9 f25a c6b8 f62b 6cb8
00000280: 6783 a739 de37 ac39 f0e1 4738 1e9d 22b8
00000290: bac9 70b7 aba3 f034 9991 6c31 21e6 7b2e
000002a0: 0000 0000 7b38 3a2f 7b6a 3430 4082 ac32
000002b0: 61c1 9cb4 c8c1 0f37 e195 6338 1770 cbb8
000002c0: a541 60b9 442e 99b9 0b13 13ba 3255 deb9
000002d0: e1ca f8b9 50ff 5fba 073c 9cba f783 39ba
000002e0: dddc 1cba f1ef 3bba a497 aeb9 c62f e1b8
000002f0: 86c9 3339 2161 4538 2172 2038 beff cd38
00000300: 7df3 8237 784b 0b38 2b8a 6d35 0957 84ad
00000310: d5e2 091e b275 8431 f12c 1532 0954 0933
00000320: 44eb 90b5 6a3d 1638 ddff 7837 938f 45b9
00000330: 01c5 9cb9 c787 dab9 f0d5 b0b9 ef5b e9b9
00000340: 0fa5 f4b9 fc8a 28ba 9935 fdb9 08ef 2db9
00000350: 7d23 df37 1bbc 14ba 016b 29ba 94d9 06b9
00000360: 1c84 2139 293b ae39 aca5 5539 953d 2539
00000370: 0da4 4639 7392 9338 69fb 5336 9203 be2e
00000380: 76c2 83a9 ccba 5430 413e 38b4 64c9 9535
00000390: 9afe aa34 1506 9238 21f9 75b7 394d abb9
000003a0: 0cf5 e7b9 8f4b 37b9 3d92 38b9 709f 62b9
000003b0: 1f92 2eba f658 83b9 2bc0 6cb9 d7ab 9d39
000003c0: 1b66 0b3a 17f2 5bb9 9a98 52ba 999c f2b9
000003d0: e8ec 01b7 879f 8e39 ed8f 9839 8dcc 84b8
000003e0: 0463 7fb7 4928 9436 e04a ab36 e824 112c
000003f0: 45a2 6a27 6298 0a30 5226 86b3 ece9 8e36

exp_avg_sq f4 [10, 784]
0.0 0.0 0.0 0.0 0.0 0.0 0.0 0.0
0.0 0.0 0.0 0.0 3.914026e-19 3.175088e-17 3.018453e-17 5.2403598e-20
0.0 0.0 0.0 0.0 0.0 0.0 0.0 0.0
0.0 0.0 0.0 0.0 0.0 0.0 0.0 0.0
5.2706272e-21 4.5649574e-20 6.453352e-19 1.082235e-16 1.1493935e-14 2.8281e-13 6.027698e-13 3.5712198e-09
1.39207295e-08 2.3518114e-09 6.269714e-12 6.6387433e-09 4.9506898e-08 1.119559e-08 7.560258e-14 4.221448e-14
2.109561e-14 1.1347459e-15 5.923991e-17 1.5918618e-18 0.0 0.0 0.0 0.0
0.0 0.0 7.843923e-20 6.548415e-11 9.597431e-12 6.415756e-14 9.522038e-12 1.0453517e-09
1.0013828e-10 1.05188365e-10 8.668195e-11 1.0697091e-08 2.6275448e-08 1.0411221e-08 3.663216e-09 2.7887774e-09
7.384918e-09 1.0325644e-09 5.8888827e-10 4.7111426e-10 1.635798e-10 6.356228e-11 4.4512914e-11 2.1411728e-11
7.672586e-14 2.8838755e-17 0.0 0.0 0.0 0.0 4.306462e-19 5.5327604e-10
2.4981062e-10 2.2683944e-09 1.4007479e-09 1.0076551e-08 3.6842604e-08 6.330109e-08 1.3213729e-07 3.4798734e-07
3.966836e-07 4.3974882e-07 4.5002744e-07 4.620729e-07 4.982442e-07 5.085505e-07 4.1889498e-07 3.779003e-07
2.0652281e-07 7.3943546e-08 2.4063104e-08 6.258613e-09 3.54866e-09 2.4572847e-10 3.9059e-12 0.0
0.0 3.2184644e-21 2.0204853e-16 3.3185152e-12 1.4599608e-10 1.1950061e-09 1.4660485e-08 1.2062927e-07
2.333308e-07 5.173943e-07 9.1982656e-07 1.1960312e-06 1.3575817e-06 1.7068468e-06 2.032084e-06 2.316192e-06
2.402854e-06 2.302095e-06 1.8149491e-06 1.685135e-06 1.1778052e-06 6.5502866e-07 3.8298074e-07 2.1744067e-07
1.047214e-07 1.3974652e-08 1.10427995e-11 4.062007e-15 0.0 0.0 1.5671777e-12 1.6528008e-10
1.5553558e-09 2.451178e-08 1.9230632e-07 3.8357746e-07 7.743469e-07 1.3378029e-06 2.1124365e-06 2.7737851e-06
3.5775172e-06 4.476538e-06 5.2031855e-06 5.762757e-06 6.041589e-06 6.126655e-06 5.4033176e-06 3.948351e-06
2.82256e-06 1.7359214e-06 9.716439e-07 4.52678e-07 2.297751e-07 9.614216e-09 6.009729e-11 2.0519222e-11
0.0 2.6949814e-17 4.0180945e-12 8.023912e-12 6.303409e-09 1.1578409e-07 3.7160137e-07 7.434145e-07
1.3291462e-06 2.3435678e-06 3.473501e-06 4.388061e-06 5.166087e-06 6.5087006e-06 7.546137e-06 8.172346e-06
8.773205e-06 8.615194e-06 7.727106e-06 6.424108e-06 4.8922125e-06 3.1414831e-06 1.8892808e-06 8.786537e-07
2.7393475e-07 1.0081014e-08 5.8357336e-10 1.3306865e-10 1.0389658e-24 1.6494068e-13 1.2468045e-11 3.640934e-11
3.7288856e-09 1.411308e-07 4.9567916e-07 1.1517228e-06 2.1644992e-06 3.3033816e-06 4.5828915e-06 5.5010432e-06
6.684216e-06 7.885514e-06 8.7358185e-06 8.759615e-06 8.793613e-06 8.940758e-06 8.521944e-06 7.3806696e-06
6.1839146e-06 4.4367084e-06 2.826391e-06 1.4401504e-06 4.5840935e-07 4.7328058e-08 9.76989e-10 1.0916355e-10
2.0916395e-09 4.770954e-13 1.9161461e-10 2.7384786e-09 8.921564e-09 2.3410696e-07 8.432501e-07 1.8591509e-06
3.1747193e-06 4.25898e-06 5.3300955e-06 6.6433945e-06 7.4842633e-06 8.210466e-06 8.595175e-06 8.583942e-06
8.588589e-06 8.616641e-06 8.222926e-06 7.336405e-06 6.402258e-06 4.9988116e-06 3.4084653e-06 1.8512696e-06
4.9954235e-07 2.3940798e-08 5.719023e-10 1.2936448e-11 7.409227e-17 1.6370373e-13 4.7190457e-10 3.0304278e-08
00000000: 0000 0000 0000 0000 0000 0000 0000 0000
00000010: 0000 0000 0000 0000 0000 0000 0000 0000
00000020: 0000 0000 0000 0000 0000 0000 0000 0000
00000030: 170b e720 d36c 1224 9a33 0b24 1078 771f
00000040: 0000 0000 0000 0000 0000 0000 0000 0000
00000050: 0000 0000 0000 0000 0000 0000 0000 0000
00000060: 0000 0000 0000 0000 0000 0000 0000 0000
00000070: 0000 0000 0000 0000 0000 0000 0000 0000
00000080: 611e c71d f392 571f 2678 3e21 e18b f924
00000090: 6b0e 4f28 3735 9f2a 24aa 292b 9069 7531
000000a0: 0428 6f32 819d 2131 9098 dc2c 011b e431
000000b0: 69a1 5433 ba56 4032 ec3d aa29 fb1d 3e29
000000c0: 2a03 be28 bc88 a326 1299 8824 d7ea ea21
000000d0: 0000 0000 0000 0000 0000 0000 0000 0000
000000e0: 0000 0000 0000 0000 9b35 b91f 4d00 902e
000000f0: fdd6 282d 5178 9029 7283 272d 0bac 8f30
00000100: d734 dc2e c94f e72e 9a9d be2e 4ec6 3732
00000110: 52b4 e132 09dd 3232 fabb 7b31 b1a4 3f31
00000120: 6dbe fd31 21ea 8d30 54df 2130 b87f 0130
00000130: 9fdb 332f 62c6 8b2e 16c5 432e ed56 bc2d
00000140: 72c5 ac29 cbfe 0424 0000 0000 0000 0000
00000150: 0000 0000 0000 0000 6a35 fe20 5715 1830
00000160: b855 892f 04e2 1b31 6f84 c030 241d 2d32
00000170: df3c 1e33 24f0 8733 9fe1 0d34 04d3 ba34
00000180: c7f7 d434 9e16 ec34 4d9b f134 d112 f834
00000190: 15bf 0535 5383 0835 7de4 e034 39e2 ca34
000001a0: 8fc0 5d34 e5ca 9e33 53b3 ce32 580b d731
000001b0: b0dc 7331 3517 872f 386d 892c 0000 0000
000001c0: 0000 0000 282e 731d 33f2 6825 0e85 692c
000001d0: 3e86 202f 8a3d a430 7fdd 7b32 5286 0134
000001e0: 7b89 7a34 11e3 0a35 00ea 7635 5287 a035
000001f0: 2736 b635 cf16 e535 f05e 0836 e06f 1b36
00000200: b840 2136 b17d 1a36 2d99 f335 cc2c e235
00000210: 1415 9e35 3ad5 2f35 799c cd34 a379 6934
00000220: 33e3 e033 2b15 7032 5944 422d 6759 9227
00000230: 0000 0000 0000 0000 878f dc2b 35ba 352f
00000240: 38c4 d530 f98d d232 c27c 4e34 7cee cd34
00000250: b7dc 4f35 8f8e b335 62c3 0d36 4425 3a36
00000260: 4715 7036 2b35 9636 0697 ae36 b55d c136
00000270: dbb8 ca36 9193 cd36 254e b536 147c 8436
00000280: 366b 3d36 cefd e835 6e69 8235 9707 f334
00000290: 19b8 7634 c52b 2532 c427 842e 2e7d b42d
000002a0: 0000 0000 7391 f823 c75f 8d2c 7d28 0d2d
000002b0: 5f95 d831 faa4 f833 8180 c734 0e8f 4735
000002c0: 1e65 b235 3046 1d36 4b1a 6936 283d 9336
000002d0: 5958 ad36 5065 da36 d334 fd36 f51b 0937
000002e0: a130 1337 fa89 1037 aba3 0137 ab8e d736
000002f0: c927 a436 45d2 5236 3293 fd35 9fdc 6b35
00000300: 4e11 9334 c530 2d32 5369 2030 7f4f 122f
00000310: adc5 a017 eab4 392a 1557 5b2d 4621 202e
00000320: a01f 8031 bd89 1734 d00e 0535 e594 9a35
00000330: d041 1136 aaaf 5d36 bdc6 9936 9a95 b836
00000340: fa48 e036 064c 0437 0e90 1237 43f6 1237
00000350: 4888 1337 4300 1637 79f9 0e37 78a7 f736
00000360: 6c7f cf36 09df 9436 07ad 3d36 314b c135
00000370: 4d1b f634 c045 4b33 bf46 8630 9e0d f02e
00000380: 83bc 0f31 594a 062b b8ae 522f d32f 3c31
00000390: 7445 1932 d55e 7b34 b55b 6235 f087 f935
000003a0: 430d 5536 5ce8 8e36 2cd9 b236 53ea de36
000003b0: 5521 fb36 afbf 0937 ff33 1037 c003 1037
000003c0: b517 1037 3190 1037 33f5 0937 3d2b f636
000003d0: fad2 d636 77bb a736 fdbc 6436 2479 f835
000003e0: 4a18 0635 5fa6 cd32 0c34 1d30 9594 632d
000003f0: 5bd8 aa24 6350 382a 55b7 0130 e827 0233

exp_avg f4 [10]
-0.0009804493 -0.0017021163 -0.000475307 -0.0032805463 4.5649722e-05 0.001095939 7.866258e-05 -0.0005288969
0.0041697384 0.0015773289
00000000: 6b82 80ba 8c19 dfba a032 f9b9 6ffe 56bb
00000010: 0478 3f38 9ca5 8f3a a7f7 a438 aca5 0aba
00000020: 4da2 883b 60be ce3a

exp_avg_sq f4 [10]
2.1925554e-05 2.3940935e-05 6.358943e-05 7.862498e-05 4.8621994e-05 8.396281e-05 3.1169016e-05 4.9164904e-05
0.00010140986 8.403563e-05
00000000: c5ec b737 c4d4 c837 515b 8538 77e3 a438
00000010: 78ef 4b38 3115 b038 7abb 0238 6a36 4e38
00000020: 01ac d438 493c b038
