context/220318_tskone_context1_d1_lr0.3/model.pt (torch, 3031 bytes, 6 tensors)

l1_w f4 [2, 31]
000000 a0 c2 85 3f aa bf 14 40 6f 88 41 3f 95 23 ae 3f
       1.045002 2.3241982 0.75598806 1.3604609
000010 74 a6 12 40 6a d8 87 3f 3f 72 71 3e eb dc fa be
       2.2914095 1.0612919 0.23578738 -0.48996672
000020 b2 22 ff 3f 56 01 5f 40 76 3a 04 40 80 4c 4c 40
       1.9932463 3.4844565 2.0660682 3.1921692
000030 9e 93 1a 40 03 8c 29 40 e4 42 df 3f a9 09 a2 3e
       2.4152598 2.6491706 1.7442288 0.31647995
000040 95 b5 cd 3f 48 a1 29 3e 3f 4e e1 3f 6b c7 c4 3f
       1.607104 0.1656543 1.7602004 1.5373358
000050 e2 20 f0 bf c7 b8 09 bf a9 1a ae bf f7 43 6c bf
       -1.8760035 -0.5379757 -1.3601886 -0.92291206
000060 1f da 28 3f 16 cd 22 bd 61 f3 37 bf 35 50 16 c0
       0.65957826 -0.039746366 -0.7185574 -2.3486454
000070 89 06 b5 3f f1 55 b7 3f 44 18 b7 40 c9 d6 2b bf
       1.4142619 1.4323102 5.721712 -0.6712461
000080 94 6c c6 3e 97 45 4f bf 6f 5b 4a be 11 7a 04 3f
       0.38754714 -0.8096556 -0.19761442 0.5174876
000090 90 c9 2c bf 1e 71 d1 bf 97 3c 16 c0 82 70 e8 3d
       -0.6749506 -1.6362646 -2.347448 0.11349584
0000a0 ce e8 bb 3f 2b 9d c0 3e 28 3d c6 3f a9 aa 84 3e
       1.4680421 0.3761991 1.5487413 0.25911453
0000b0 ad 41 31 3f ca 97 22 bc c6 bf c5 bf 26 eb df be
       0.6924084 -0.009923885 -1.544915 -0.43734092
0000c0 b9 7e d2 bf 2a d5 06 3e fc e5 8e be 78 95 65 c0
       -1.6444923 0.13167253 -0.2790984 -3.5872478
0000d0 92 79 0d c0 07 55 55 c0 60 0d 38 c0 61 63 9d bf
       -2.210545 -3.3333147 -2.8758163 -1.2295953
0000e0 c8 d1 df bf d4 f7 1a c0 ac 5a 84 c0 c6 e4 d8 be
       -1.7485895 -2.4213762 -4.1360683 -0.4236204
0000f0 2a 63 d9 be e5 5e 73 40
       -0.4245847 3.802667

l1_b f4 [2]
000000 5b a4 38 c0 cb d5 8c c0
       -2.8850315 -4.401098

exp_avg f4 [2, 31]
000000 e5 56 9e b9 d6 73 4c ba 16 63 2e b9 a2 06 1a ba
       -0.0003020085 -0.00077992433 -0.00016630845 -0.0005875622
000010 8a d1 71 ba db 65 0f 39 5a 30 8b 3a eb 59 00 3b
       -0.0009224644 0.00013675487 0.0010619268 0.0019584845
000020 f0 23 c9 b9 2c f1 b2 ba 31 d1 fd b9 b8 03 a8 ba
       -0.00038364483 -0.0013652197 -0.0004841178 -0.0012818491
000030 bf 34 1d ba 68 66 89 ba cd be 09 ba 27 12 2c 3a
       -0.00059969345 -0.001048279 -0.0005254567 0.0006563984
000040 33 9c 22 ba 54 08 16 3a b0 b4 58 ba 67 3b 2b ba
       -0.0006203085 0.0005723287 -0.00082666706 -0.0006531984
000050 0e 19 0a 3b e5 1b bc 3a 6a 78 79 3a b1 7a 02 3a
       0.0021072063 0.0014351575 0.0009516539 0.0004977389
000060 c9 9c 85 b8 3a a5 3d 39 5b 60 4b 3a b5 45 0e 3b
       -6.371138e-05 0.00018085996 0.00077581935 0.002170903
000070 fd 0e 81 ba aa 25 76 ba b6 f9 5f bb 48 58 9e b9
       -0.0009846386 -0.00093897677 -0.003417594 -0.00030201883
000080 8d 74 4c ba e2 65 2e b9 4c 07 1a ba 45 d2 71 ba
       -0.000779935 -0.00016631887 -0.0005875721 -0.0009224753
000090 1a 63 0f 39 03 30 8b 3a ba 59 00 3b 9a 25 c9 b9
       0.00013674461 0.0010619167 0.0019584731 -0.00038365723
0000a0 91 f1 b2 ba aa d2 fd b9 1c 04 a8 ba 7c 35 1d ba
       -0.0013652315 -0.00048412877 -0.0012818608 -0.00059970445
0000b0 c4 66 89 ba 71 bf 09 ba 82 11 2c 3a d3 9c 22 ba
       -0.0010482897 -0.0005254662 0.0006563888 -0.0006203178
0000c0 ae 07 16 3a 54 b5 58 ba 07 3c 2b ba e2 18 0a 3b
       0.000572319 -0.0008266766 -0.0006532077 0.002107196
0000d0 89 1b bc 3a b7 77 79 3a 0a 7a 02 3a 8b a2 85 b8
       0.0014351468 0.0009516435 0.00049772917 -6.37221e-05
0000e0 81 a2 3d 39 aa 5f 4b 3a 89 45 0e 3b 58 0f 81 ba
       0.00018084982 0.00077580905 0.0021708927 -0.0009846492
0000f0 58 26 76 ba de f9 5f bb
       -0.0009389869 -0.0034176032

exp_avg_sq f4 [2, 31]
000000 c0 f6 08 3b e4 29 08 3b c8 83 08 3b 76 47 fd 3a
       0.0020899028 0.0020776922 0.00208305 0.0019323665
000010 b7 77 0e 3b 65 8b 02 3b 6c 20 fb 3a d6 42 20 3b
       0.0021738836 0.0019919511 0.0019159443 0.00244539
000020 64 27 2c 3b 87 4f 23 3b e1 34 13 3b 82 56 1b 3b
       0.0026268596 0.0024919228 0.0022461938 0.0023702686
000030 1d a4 12 3b 25 4d 0f 3b 67 bd 16 3b d9 bf 12 3b
       0.0022375651 0.002186605 0.0023001076 0.0022392182
000040 00 2f 06 3b 74 3d 13 3b 63 fc 0e 3b 44 39 08 3b
       0.0020474792 0.002246705 0.0021817915 0.0020786086
000050 d5 db 1c 3b 31 d2 1f 3b 0a 00 04 3b 68 01 f6 3a
       0.002393474 0.0024386758 0.0020141625 0.001876873
000060 fb 4c 0b 3b 5b 78 f7 3a 6b cf f6 3a 2b 4c 0a 3b
       0.00212556 0.0018880473 0.0018830126 0.0021102529
000070 e2 cf fe 3a e1 8f f2 3a 5d e9 d8 3a c0 f6 08 3b
       0.0019440616 0.0018506014 0.001654904 0.0020899028
000080 e4 29 08 3b c8 83 08 3b 74 47 fd 3a b7 77 0e 3b
       0.0020776922 0.00208305 0.0019323663 0.0021738836
000090 65 8b 02 3b 6e 20 fb 3a d7 42 20 3b 62 27 2c 3b
       0.0019919511 0.0019159445 0.0024453902 0.0026268591
0000a0 88 4f 23 3b e2 34 13 3b 83 56 1b 3b 1c a4 12 3b
       0.002491923 0.002246194 0.0023702688 0.002237565
0000b0 28 4d 0f 3b 68 bd 16 3b d9 bf 12 3b 01 2f 06 3b
       0.0021866057 0.0023001079 0.0022392182 0.0020474794
0000c0 74 3d 13 3b 66 fc 0e 3b 43 39 08 3b d6 db 1c 3b
       0.002246705 0.0021817922 0.0020786084 0.0023934743
0000d0 2f d2 1f 3b 0a 00 04 3b 66 01 f6 3a fc 4c 0b 3b
       0.0024386754 0.0020141625 0.0018768727 0.0021255603
0000e0 5f 78 f7 3a 6d cf f6 3a 2b 4c 0a 3b e4 cf fe 3a
       0.0018880478 0.0018830128 0.0021102529 0.0019440618
0000f0 e1 8f f2 3a 5b e9 d8 3a
       0.0018506014 0.0016549038

exp_avg f4 [2]
000000 4c c5 38 3b 33 c5 38 3b
       0.002819377 0.0028193712

exp_avg_sq f4 [2]
000000 40 80 25 3b 40 80 25 3b
       0.0025253445 0.0025253445
