context/0920_tskone_context_lr0.3_dummy2/model.pt (torch, 3031 bytes, 6 tensors)

l1_w f4 [2, 32]
0	0x40492fd3	3.143544
1	0x3ef3711f	0.47547242
2	0x40188002	2.382813
3	0x4078c11d	3.8867867
4	0x4041cbd4	3.0280657
5	0x3eb1c5a3	0.34721097
6	0xc08cdfcd	-4.4023194
7	0xc0e70f12	-7.2205896
8	0x4028e193	2.638768
9	0x40a97dd0	5.296608
10	0xbf0128f5	-0.5045312
11	0x4034fac8	2.8278065
12	0x3f8af856	1.0857036
13	0x405ca5d3	3.447621
14	0x404958f2	3.1460538
15	0xbec5456b	-0.38529524
16	0x4087a292	4.238595
17	0xc006c4c2	-2.1057591
18	0x40c05303	6.0101333
19	0x40863c1c	4.1948376
20	0xc0dee08d	-6.964911
21	0xc0f84329	-7.7581983
22	0xc05aac2f	-3.4167593
23	0xc00893f7	-2.134031
24	0xbf63fad3	-0.890546
25	0xbf4a6674	-0.7906258
26	0xc0820cf7	-4.0640826
27	0xc111d25c	-9.113857
28	0x40a101f1	5.031487
29	0x4049bfff	3.1523435
30	0x418aab2e	17.333584
31	0x41458cf8	12.346916
32	0x3fd50d57	1.6644696
33	0xbf5b1a9e	-0.8558749
34	0x3fa70ebf	1.3051375
35	0x401fb4ea	2.495417
36	0x3fd98352	1.6993201
37	0xbf44dce2	-0.7689954
38	0xc0b9f888	-5.8115883
39	0xc10c7874	-8.7794075
40	0x3f92c833	1.1467346
41	0x406e8f89	3.7275107
42	0xbfe5d495	-1.79555
43	0x3fa3bc04	1.2791753
44	0xbf261809	-0.64880425
45	0x4005b539	2.089186
46	0x3fdc11bd	1.7192913
47	0xc001e083	-2.029328
48	0x4026b96e	2.6050677
49	0xc052980e	-3.2905307
50	0x408f0c59	4.4702573
51	0x403ed5d0	2.9818
52	0xc1047843	-8.279361
53	0xc114e56c	-9.306011
54	0xc09e19ad	-4.9406343
55	0xc05988df	-3.398979
56	0xc01445f0	-2.3167686
57	0xbffe070a	-1.9845898
58	0xc0ae7296	-5.4514875
59	0xc12571ff	-10.340331
60	0x40583138	3.378004
61	0x3ffa39c3	1.9548877
62	0x4178c4a7	15.548011
63	0x412c9e3c	10.788631

l1_b f4 [2]
0	0xc0be1446	-5.939975
1	0xc0e738bb	-7.225675

exp_avg f4 [2, 32]
0	0xbaf20a6e	-0.0018466243
1	0xbad50a24	-0.0016253632
2	0xbaf00d82	-0.0018314573
3	0xbae774fa	-0.0017658763
4	0xbae8e3cc	-0.0017768084
5	0xbaddbf93	-0.0016918055
6	0xbaca11ea	-0.0015416716
7	0xbad85cfc	-0.0016507204
8	0xbb00e8f5	-0.0019670103
9	0xbaf1e95c	-0.0018456387
10	0xbacff905	-0.001586706
11	0xbae37707	-0.0017354198
12	0xbad8d19f	-0.0016541964
13	0xbae1bc4c	-0.0017222255
14	0xbafa316e	-0.0019088218
15	0xbae92037	-0.001778609
16	0xbaebacca	-0.0017980572
17	0xbae22fbc	-0.0017256658
18	0xbafbcd89	-0.0019211035
19	0xbaea8f4e	-0.0017895491
20	0xbae12618	-0.001717749
21	0xbad286a7	-0.0016061858
22	0xbae11c93	-0.0017174653
23	0xbad9871f	-0.0016596055
24	0xbae625f4	-0.0017558918
25	0xbad7d78f	-0.001646744
26	0xbacf9e3c	-0.0015840004
27	0xbad588ee	-0.0016291419
28	0xbaef591c	-0.001826081
29	0xbad983c9	-0.0016595061
30	0xbaf2a0bc	-0.0018511037
31	0xbafd75cc	-0.0019337474
32	0xbaf20a0c	-0.0018466129
33	0xbad509bd	-0.0016253513
34	0xbaf00d21	-0.001831446
35	0xbae7749a	-0.0017658651
36	0xbae8e369	-0.0017767969
37	0xbaddbf34	-0.0016917945
38	0xbaca118f	-0.001541661
39	0xbad85c92	-0.001650708
40	0xbb00e8bb	-0.0019669968
41	0xbaf1e8f4	-0.0018456266
42	0xbacff899	-0.0015866935
43	0xbae3769e	-0.0017354076
44	0xbad8d13b	-0.0016541848
45	0xbae1bbe6	-0.0017222136
46	0xbafa3101	-0.0019088091
47	0xbae91fca	-0.0017785963
48	0xbaebac6b	-0.0017980462
49	0xbae22f56	-0.0017256539
50	0xbafbcd1e	-0.001921091
51	0xbaea8ee8	-0.0017895373
52	0xbae125a9	-0.0017177361
53	0xbad2863c	-0.0016061733
54	0xbae11c2c	-0.0017174534
55	0xbad986bd	-0.0016595941
56	0xbae6258a	-0.0017558795
57	0xbad7d733	-0.0016467333
58	0xbacf9dda	-0.001583989
59	0xbad58887	-0.0016291299
60	0xbaef58b6	-0.0018260691
61	0xbad9836a	-0.001659495
62	0xbaf2a064	-0.0018510935
63	0xbafd756e	-0.0019337365

exp_avg_sq f4 [2, 32]
0	0x3a2a5d87	0.0006498922
1	0x3a2a0271	0.0006485349
2	0x3a29d7e6	0.000647901
3	0x3a1ca83d	0.0005975997
4	0x3a309178	0.0006735544
5	0x3a21b580	0.0006168708
6	0x3a1bc6c6	0.00059424003
7	0x3a46e9c4	0.00075879344
8	0x3a5538e4	0.00081337825
9	0x3a481d67	0.0007633776
10	0x3a36bbd3	0.0006970737
11	0x3a3d7fee	0.0007228841
12	0x3a3601e5	0.00069430313
13	0x3a30f765	0.0006750732
14	0x3a3fd502	0.00073178124
15	0x3a3b3d10	0.0007142583
16	0x3a2b56b7	0.0006536054
17	0x3a3d57fe	0.00072228897
18	0x3a335a75	0.0006841787
19	0x3a2c8120	0.00065805204
20	0x3a499550	0.0007689791
21	0x3a4da28f	0.00078443525
22	0x3a27cbbc	0.0006400903
23	0x3a1b51cd	0.000592497
24	0x3a3109af	0.0006753457
25	0x3a1d8b3f	0.0006009824
26	0x3a1e1480	0.00060302764
27	0x3a30b118	0.0006740256
28	0x3a200f63	0.00061058084
29	0x3a18d099	0.00058294233
30	0x3a042749	0.00050412543
31	0x3a2874ef	0.0006426116
32	0x3a2a5d88	0.00064989226
33	0x3a2a0271	0.0006485349
34	0x3a29d7e9	0.00064790115
35	0x3a1ca83a	0.00059759954
36	0x3a309177	0.0006735543
37	0x3a21b57c	0.0006168706
38	0x3a1bc6c5	0.00059424
39	0x3a46e9c6	0.00075879355
40	0x3a5538e6	0.00081337837
41	0x3a481d66	0.0007633775
42	0x3a36bbd2	0.00069707364
43	0x3a3d7fee	0.0007228841
44	0x3a3601e1	0.0006943029
45	0x3a30f763	0.00067507307
46	0x3a3fd503	0.0007317813
47	0x3a3b3d12	0.0007142584
48	0x3a2b56b8	0.00065360544
49	0x3a3d57fb	0.0007222888
50	0x3a335a73	0.0006841786
51	0x3a2c8122	0.00065805216
52	0x3a49954e	0.00076897896
53	0x3a4da297	0.0007844357
54	0x3a27cbb9	0.00064009015
55	0x3a1b51d3	0.00059249735
56	0x3a3109ad	0.0006753456
57	0x3a1d8b43	0.00060098263
58	0x3a1e1479	0.00060302723
59	0x3a30b11a	0.00067402574
60	0x3a200f61	0.0006105807
61	0x3a18d09c	0.0005829425
62	0x3a042749	0.00050412543
63	0x3a2874ec	0.0006426114

exp_avg f4 [2]
0	0xbb03cd13	-0.0020111247
1	0xbb03ccdc	-0.002011112

exp_avg_sq f4 [2]
0	0x3a56f62a	0.00082001335
1	0x3a56f62a	0.00082001335
