context/0725_tskone_baseline/model.pt (torch, 3031 bytes, 6 tensors)

l1_w f4 [2, 30]
00000000: 8311 c5be bb13 66bd 440e 5dbf 7990 b7be
00000010: dc61 a63f 5e87 d5bf 5a34 66c0 34cc 8cc0
00000020: e857 943f 8f2a 5c40 752c e43e 7f53 2f40
00000030: 324d 7d3f 50a1 d13f a99e 6140 0c57 683f
00000040: 164a 5d40 7255 8f3f 6fba 6640 9dca 5440
00000050: c261 13c0 eb36 8fbf 82b1 14c0 4ca1 f0bf
00000060: e712 313e 4860 94bf 1b6c 0ec0 00d6 92c0
00000070: 0023 863f e49d 913f e23b 3abf 8ca6 d8be
00000080: 364f a1bf 513f 1dbf 8beb 953f 74f3 04c0
00000090: 013d 8ac0 91ae 9cc0 b514 493f fe78 3540
000000a0: d8db bb3d 00f8 1f40 1d7a 043f 9b16 873f
000000b0: 67e3 3b40 90f6 f33e 70d5 3e40 826c 293f
000000c0: 7296 4840 7b42 4c40 7465 39c0 c0b1 b4bf
000000d0: c89a 2ec0 a946 22c0 6a32 24bf 8e5b cbbf
000000e0: 8dd2 2cc0 928b 9ec0 48f2 dc3e 172b 5c3f
-0.38489923 -0.05617116 -0.8634989 -0.3585241 1.2998614 -1.6681936 -3.5969453 -4.399927
1.1589327 3.4400976 0.44565168 2.7394712 0.98945916 1.6377354 3.5253088 0.90757823
3.4576468 1.1197951 3.605129 3.3248665 -2.3028417 -1.1188635 -2.3233342 -1.8799224
0.17292367 -1.1591883 -2.2253482 -4.588623 1.0479431 1.1376309 -0.72747624 -0.42314565
-1.2602298 -0.6142474 1.1712507 -2.0773592 -4.319947 -4.8963094 0.7854722 2.8355098
0.09172791 2.4995117 0.5174883 1.0553774 2.9357545 0.4764905 2.9817772 0.66181195
3.1341825 3.1915576 -2.8968172 -1.4116745 -2.728197 -2.5355628 -0.64139426 -1.5887315
-2.700351 -4.9545374 0.43153596 0.8600325

l1_b f4 [2]
00000000: 6f2c 9e40 d679 9640
4.942924 4.7023726

exp_avg f4 [2, 30]
00000000: fb3e bfb9 d14d 1e3a 4e3b 4cb9 ad8d c0b9
00000010: 0103 eeb9 87c1 2a3a 97d0 e23a 6f88 043b
00000020: f7a4 c4b8 f7f5 88ba 9f3c c838 710d ecb9
00000030: d0c2 e0b8 d8bc 33ba 822b 66ba 7c16 11b9
00000040: 1453 c8ba c919 b3b9 594f 86ba 4729 acba
00000050: 9c5c 313a dee1 963a 80b9 353a 1dee f739
00000060: d256 b739 a1c5 c739 a6b6 5d3a 9548 003b
00000070: c70f b3b8 5ecf a1b9 2e3d bfb9 d24e 1e3a
00000080: 7337 4cb9 ea8b c0b9 e900 eeb9 93c2 2a3a
00000090: 11d1 e23a ac88 043b 5f9d c4b8 77f5 88ba
000000a0: d843 c838 7b0b ecb9 3fbb e0b8 eebb 33ba
000000b0: 992a 66ba b712 11b9 9952 c8ba f317 b3b9
000000c0: db4e 86ba d828 acba 965d 313a 58e2 963a
000000d0: 7aba 353a 06f0 f739 f058 b739 91c7 c739
000000e0: 81b7 5d3a d848 003b db07 b3b8 80cd a1b9
-0.00036477283 0.0006038817 -0.00019477049 -0.0003672665 -0.00045397136 0.0006513823 0.0017304596 0.0020222922
-9.3767354e-05 -0.001044928 9.548035e-05 -0.00045023442 -0.00010717439 -0.0006856448 -0.0008780287 -0.00013836654
-0.0015283548 -0.00034160752 -0.0010247036 -0.001313486 0.0006765814 0.0011511405 0.00069322437 0.0004728892
0.00034969166 0.00038103483 0.00084576977 0.0019574512 -8.538324e-05 -0.00030862814 -0.0003647594 0.0006038967
-0.00019475612 -0.00036725338 -0.00045395576 0.0006513979 0.0017304738 0.0020223064 -9.375321e-05 -0.0010449131
9.54938e-05 -0.0004502198 -0.0001071603 -0.0006856312 -0.0008780151 -0.0001383525 -0.0015283405 -0.00034159384
-0.001024689 -0.0013134731 0.00067659596 0.0011511547 0.0006932389 0.00047290343 0.00034970744 0.00038104926
0.0008457825 0.0019574668 -8.536848e-05 -0.00030861422

exp_avg_sq f4 [2, 30]
00000000: f1e4 7439 d7ac 7439 8787 7439 3255 6639
00000010: 049e 7f39 77c5 6c39 6784 6b39 1b37 7539
00000020: 4a22 7d39 eccd 7939 f5bf 5939 a99e 6d39
00000030: 7c44 5939 8588 5539 3a01 7a39 7087 6839
00000040: 633a 5d39 c86b 6939 09dc 6e39 524b 6239
00000050: 5a1e 7739 1829 7939 42b5 7539 59eb 6739
00000060: 5c55 7e39 9fa9 6739 14e3 6839 658f 8339
00000070: b57a 6e39 0cac 6639 f1e4 7439 ddac 7439
00000080: 8987 7439 3455 6639 049e 7f39 77c5 6c39
00000090: 7384 6b39 1d37 7539 4a22 7d39 eecd 7939
000000a0: f7bf 5939 a59e 6d39 7844 5939 8388 5539
000000b0: 3601 7a39 6c87 6839 5f3a 5d39 c86b 6939
000000c0: 05dc 6e39 524b 6239 5c1e 7739 1a29 7939
000000d0: 49b5 7539 5beb 6739 5a55 7e39 9ea9 6739
000000e0: 17e3 6839 658f 8339 b77a 6e39 0cac 6639
0.0002335494 0.00023334041 0.00023320141 0.00021966247 0.0002437756 0.00022580275 0.0002246067 0.00023385549
0.00024140734 0.00023823202 0.00020766242 0.00022661187 0.00020720245 0.0002036412 0.00023842315 0.00022175699
0.00021097953 0.00022260763 0.00022779418 0.00021581099 0.00023567062 0.00023761799 0.00023432545 0.0002211755
0.00024255126 0.00022093065 0.00022209837 0.00025093104 0.0002274316 0.00021998602 0.0002335494 0.0002333405
0.00023320144 0.0002196625 0.0002437756 0.00022580275 0.00022460688 0.00023385552 0.00024140734 0.00023823205
0.00020766245 0.00022661181 0.00020720239 0.00020364118 0.00023842309 0.00022175693 0.00021097947 0.00022260763
0.00022779412 0.00021581099 0.00023567065 0.00023761802 0.00023432555 0.00022117553 0.00024255124 0.00022093064
0.00022209842 0.00025093104 0.00022743164 0.00021998602

exp_avg f4 [2]
00000000: 9945 1ebb 5f45 1ebb
-0.002415037 -0.0024150235

exp_avg_sq f4 [2]
00000000: 210a 6239 220a 6239
0.00021556813 0.00021556814
