context/220318_ann_base/model.pt (torch, 2211 bytes, 3 tensors)

l1.weight f4 [2, 30]
000000 83 41 a7 3d 28 92 5a bd 8c 77 2f be 58 fb ca bc
       0.08166792 -0.05336204 -0.17135447 -0.024778053
000010 06 6d 08 be 2c a8 bd 3f 12 9e b6 bf fd 9e a4 bf
       -0.13322839 1.4816947 -1.4266989 -1.2861019
000020 a7 12 45 3e 7e 22 09 bd 0e 17 03 c0 33 c7 26 3f
       0.19245397 -0.03348016 -2.0482821 0.65147704
000030 5d 84 a4 bf 32 3a bf bf c5 b0 28 3e 47 8e c1 3f
       -1.2852894 -1.4939635 0.16473682 1.5121545
000040 3c 3e 42 3f 53 43 6a bf a2 03 1e 3f 80 32 94 3f
       0.7587621 -0.9150898 0.61724293 1.1577911
000050 98 a9 0e bf 9e 9d d6 bf e4 ee eb be 15 65 09 bf
       -0.5572753 -1.6766851 -0.46080697 -0.53669864
000060 d2 78 09 bf 9f b7 9e 3e 2d ec ef bf 96 06 3c bf
       -0.5369998 0.30999467 -1.874395 -0.7344755
000070 84 1a 80 bf 08 3c ba bd ac 8d bd 3d e3 d3 52 3e
       -1.0008092 -0.09093481 0.092555374 0.20588641
000080 8d a3 4f bd 3f 52 fc 3c ff fc f9 3d 67 6b e0 bf
       -0.050693084 0.030800937 0.12206458 -1.7532777
000090 14 8a c4 3f 9f ea c7 3f 75 07 ff ba 49 7d 82 3e
       1.5354638 1.5618476 -0.0019457178 0.2548621
0000a0 4c 72 02 40 53 d1 1e bf b3 eb cc 3f b0 35 af 3f
       2.0382261 -0.62038153 1.600943 1.3688259
0000b0 3d 17 52 be a9 10 a0 bf 95 5e 10 bf 89 91 39 3f
       -0.20516677 -1.2505084 -0.5639432 0.72487694
0000c0 7b f3 3f bf 07 16 93 bf 81 e5 e6 3e 45 45 dd 3f
       -0.74980897 -1.1491097 0.45096973 1.7286764
0000d0 37 20 1b 3f 66 7d bd 3e ae a9 02 3f 25 45 6f be
       0.6059603 0.37009734 0.5104016 -0.2336622
0000e0 d7 8c 03 40 12 34 74 3f eb b7 97 3f dd 3c 0e 3e
       2.0554712 0.95391953 1.1853002 0.13890405

exp_avg f4 [2, 30]
000000 29 ad 48 38 e3 5e c0 37 b9 8a ce 38 29 b8 59 b9
       4.7844984e-05 2.2932369e-05 9.8486846e-05 -0.00020763338
000010 9b 84 5b 38 42 29 3a ba 27 18 c7 39 77 5c 10 3a
       5.2337167e-05 -0.0007101485 0.00037974233 0.00055069424
000020 85 f6 25 b8 30 b9 c3 38 e7 25 ca 39 d0 69 70 b8
       -3.9568655e-05 9.3328184e-05 0.00038556682 -5.7319005e-05
000030 87 83 8f 38 da b0 25 39 5f 03 fb b7 82 8b 20 38
       6.84327e-05 0.00015801509 -2.9923101e-05 3.82769e-05
000040 3d 02 6a b9 76 2f 35 39 99 ec 31 b8 90 83 05 b9
       -0.00022316813 0.00017279186 -4.2420437e-05 -0.00012732879
000050 d4 62 c2 38 fa 27 00 39 5e f1 39 38 7a 35 2c b9
       9.269049e-05 0.00012221924 4.4332228e-05 -0.0001642312
000060 44 13 4a b7 77 16 26 b9 d5 39 32 3a c5 82 40 39
       -1.2044624e-05 -0.00015839362 0.0006798779 0.00018359262
000070 94 dd 4b 39 96 82 b9 b7 46 b4 48 b8 01 4f c0 b7
       0.00019442133 -2.2114527e-05 -4.785161e-05 -2.2924973e-05
000080 63 8e ce b8 ef b6 59 39 ca 79 5b b8 4e 29 3a 3a
       -9.849367e-05 0.00020762881 -5.2327094e-05 0.0007101492
000090 03 18 c7 b9 40 5c 10 ba 12 07 26 38 69 b5 c3 b8
       -0.00037974128 -0.00055069104 3.958407e-05 -9.332115e-05
0000a0 93 24 ca b9 7a 88 70 38 f1 7e 8f b8 4f af 25 b9
       -0.00038555692 5.7347563e-05 -6.842416e-05 -0.00015800934
0000b0 09 18 fb 37 91 87 20 b8 bb 03 6a 39 74 2c 35 b9
       2.9932724e-05 -3.827323e-05 0.00022317369 -0.00017278065
0000c0 82 fa 31 38 bc 84 05 39 b4 66 c2 b8 5c 24 00 b9
       4.2433392e-05 0.00012733316 -9.269771e-05 -0.00012220576
0000d0 67 f9 39 b8 21 34 2c 39 3b d4 49 37 19 13 26 39
       -4.433971e-05 0.00016422618 1.2029947e-05 0.00015838108
0000e0 67 3a 32 ba 24 84 40 b9 e3 e1 4b b9 b8 5e b9 37
       -0.0006798864 -0.00018359773 -0.00019443738 2.2097825e-05

exp_avg_sq f4 [2, 30]
000000 ca d3 8b 38 7d 7e 16 37 90 82 8d 38 f6 97 84 38
       6.667485e-05 8.970147e-06 6.747723e-05 6.3225554e-05
000010 1a 4b 25 37 0f c2 f6 37 38 20 3e 38 15 9c 85 38
       9.852252e-06 2.941585e-05 4.5329536e-05 6.371007e-05
000020 f7 4b eb 36 06 d9 fd 36 14 5e 08 38 43 d9 0a 37
       7.0123892e-06 7.5652524e-06 3.2512544e-05 8.276026e-06
000030 a6 bc ee 37 a4 f5 1b 38 1a f3 a8 36 93 33 10 37
       2.8459657e-05 3.718365e-05 5.035091e-06 8.595077e-06
000040 66 79 07 37 f1 45 3b 37 db ba 7e 36 aa 90 43 37
       8.074892e-06 1.1162353e-05 3.7957714e-06 1.1656588e-05
000050 8b 24 a6 38 88 bc 77 37 1c 1c a4 38 f3 e0 97 38
       7.9223035e-05 1.4766243e-05 7.825365e-05 7.242141e-05
000060 5e 9c e0 37 54 72 11 38 93 0b 3a 38 51 37 99 38
       2.6775695e-05 3.467717e-05 4.4356635e-05 7.305912e-05
000070 aa c1 d5 37 18 97 fa 36 ca d3 8b 38 7d 7e 16 37
       2.548176e-05 7.46817e-06 6.667485e-05 8.970147e-06
000080 90 82 8d 38 f6 97 84 38 1a 4b 25 37 0d c2 f6 37
       6.747723e-05 6.3225554e-05 9.852252e-06 2.9415847e-05
000090 38 20 3e 38 15 9c 85 38 f6 4b eb 36 0a d9 fd 36
       4.5329536e-05 6.371007e-05 7.012389e-06 7.5652542e-06
0000a0 15 5e 08 38 45 d9 0a 37 a6 bc ee 37 a4 f5 1b 38
       3.2512547e-05 8.276028e-06 2.8459657e-05 3.718365e-05
0000b0 1e f3 a8 36 96 33 10 37 69 79 07 37 f3 45 3b 37
       5.0350927e-06 8.59508e-06 8.074895e-06 1.1162355e-05
0000c0 e3 ba 7e 36 ac 90 43 37 8b 24 a6 38 84 bc 77 37
       3.7957732e-06 1.165659e-05 7.9223035e-05 1.47662395e-05
0000d0 1c 1c a4 38 f3 e0 97 38 5e 9c e0 37 53 72 11 38
       7.825365e-05 7.242141e-05 2.6775695e-05 3.4677167e-05
0000e0 93 0b 3a 38 51 37 99 38 ac c1 d5 37 18 97 fa 36
       4.4356635e-05 7.305912e-05 2.5481764e-05 7.46817e-06
