context/220314_tskone_context4_lr0.4/model.pt (torch, 3031 bytes, 6 tensors)

l1_w f4 [2, 30]
00000000: 0545 d6be 3765 1540 26eb 103f 9060 9a3f
00000010: e19e 1140 86dc 083f e611 2fbf 91f6 14bf
00000020: eb13 1e40 8339 8540 c2a1 2b40 8b6d 8240
00000030: 48d0 4340 8061 5840 00b6 3340 0d96 653f
00000040: d33f 2740 62dd 673f c2c4 3740 5ba9 2340
00000050: 2dbe b0bf 8c4f e13d a384 b3bf f89c c33e
00000060: 09d7 f83f e4dc 883f c902 2f3e af05 dcbf
00000070: a782 3640 dc54 9d3f 4433 33c0 1558 f8bc
00000080: 41d6 e6bf 0e5a 83bf b281 103e d69a edbf
00000090: 9bbc 57c0 81af 49c0 c95c d3bb 3102 b83f
000000a0: a79a 603e 8825 db3f 7c7e f43e 2665 2f3f
000000b0: ccdc 083e adb3 ccbf eda1 6c3d 2ff8 cebf
000000c0: 60e3 a03e 0f0d ae3e eb25 80c0 b311 0fc0
000000d0: bb9c 75c0 9050 0fc0 a128 5ebf 61ed abbf
000000e0: a4ba 11c0 5334 81c0 6d2a 6e3e 5bfd 8ebf
-0.41849533 2.3343027 0.5660881 1.2060719 2.2753222 0.5346149 -0.68386686 -0.5818873
2.4699657 4.1632705 2.681748 4.075872 3.0595875 3.380951 2.8079834 0.89682084
2.6132705 0.9057218 2.8713841 2.5572116 -1.3808037 0.110015005 -1.4024853 0.38205695
1.9440624 1.069241 0.17090906 -1.7189234 2.8517244 1.2291522 -2.800004 -0.030315438
-1.8034135 -1.0261858 0.14111975 -1.8562877 -3.3708866 -3.151337 -0.00645027 1.4375669
0.21933995 1.7120829 0.4775275 0.68513715 0.13365477 -1.5992333 0.057771612 -1.616949
0.31423473 0.33994338 -4.0046287 -2.2354553 -3.837691 -2.2392921 -0.86780745 -1.3431817
-2.2770166 -4.037637 0.23258372 -1.1171068

l1_b f4 [2]
00000000: 0b1d fdbf 4325 87c0
-1.9774488 -4.2232985

exp_avg f4 [2, 30]
00000000: 4f2d 5a3a f8ac 68ba bbed f4b9 32f8 65ba
00000010: 8b25 8eba f7ce a439 c88d c73a 8042 253b
00000020: 101d adb8 65b5 96ba 7087 dab9 b63f aaba
00000030: 8ae1 10ba 3dd4 8aba 5de1 61ba 9408 233a
00000040: 5780 83ba 3756 aa39 6519 a1ba cb70 86ba
00000050: c2d8 e43a 61d9 a83a f188 f03a 327a b5b8
00000060: 89df cbb9 6cfe 98b7 a3a8 423a cc57 0c3b
00000070: b635 adba 0229 8a39 b52c 5a3a 6cad 68ba
00000080: a9ee f4b9 a7f8 65ba c825 8eba 34ce a439
00000090: 978d c73a 5742 253b 8722 adb8 b8b5 96ba
000000a0: cc88 dab9 0d40 aaba 33e2 10ba 94d4 8aba
000000b0: 02e2 61ba 0f08 233a 9f80 83ba 2955 aa39
000000c0: af19 a1ba 1171 86ba 76d8 e43a 16d9 a83a
000000d0: a688 f03a d07d b5b8 86e0 cbb9 d40b 99b7
000000e0: 38a8 423a b157 0c3b f235 adba e527 8a39
0.00083227915 -0.0008875872 -0.0004671643 -0.0008772641 -0.0010844929 0.00031434718 0.0015224749 0.002521664
-8.254696e-05 -0.0011498152 -0.0004168111 -0.0012988958 -0.0005526772 -0.0010591816 -0.00086166506 0.0006219235
-0.0010032755 0.00032489162 -0.0012290893 -0.0010257004 0.0017459618 0.0012882167 0.0018351359 -8.653513e-05
-0.00038885724 -1.8238286e-05 0.00074256415 0.0021414636 -0.001321486 0.00026351964 0.0008322702 -0.00088759395
-0.00046717122 -0.0008772709 -0.0010845 0.0003143415 0.0015224692 0.0025216544 -8.255714e-05 -0.0011498248
-0.00041682122 -0.0012989059 -0.00055268704 -0.0010591918 -0.00086167466 0.00062191574 -0.0010032839 0.00032488376
-0.001229098 -0.0010257085 0.001745953 0.001288208 0.0018351271 -8.654187e-05 -0.0003888646 -1.824453e-05
0.0007425579 0.0021414573 -0.001321493 0.00026351135

exp_avg_sq f4 [2, 30]
00000000: 2580 443b 7161 263b d61f 273b 9bbe 1a3b
00000010: 5f1f 2e3b 9895 1f3b 5c8d 193b 1b2f 483b
00000020: 9ac9 563b a176 4b3b b79a 373b 758d 413b
00000030: 31e0 363b a5a9 323b 1a18 3c3b d51d 373b
00000040: e864 273b 0dc1 373b 4f62 323b 5eea 293b
00000050: 2caa 433b d77f 473b 8843 423b b646 1a3b
00000060: 2cf1 2e3b c753 1b3b 8ed2 1a3b 4a39 2d3b
00000070: 1c0b 203b b591 343b 2380 443b 7061 263b
00000080: d51f 273b 9abe 1a3b 5e1f 2e3b 9695 1f3b
00000090: 5a8d 193b 1a2f 483b 98c9 563b a076 4b3b
000000a0: b49a 373b 758d 413b 2fe0 363b a1a9 323b
000000b0: 1a18 3c3b d51d 373b e864 273b 0cc1 373b
000000c0: 4c62 323b 5eea 293b 28aa 433b d47f 473b
000000d0: 8643 423b b446 1a3b 2af1 2e3b c753 1b3b
000000e0: 8cd2 1a3b 4739 2d3b 1a0b 203b b491 343b
0.0029983607 0.002538767 0.0025501153 0.0023612145 0.0026568992 0.002435064 0.0023430204 0.0030545655
0.0032773972 0.003104605 0.0028015801 0.0029533778 0.0027904625 0.002726176 0.002870089 0.0027941365
0.0025542323 0.0028038651 0.002721924 0.0025927047 0.002985607 0.0030441189 0.0029642303 0.0023540682
0.0026694043 0.0023701058 0.0023624036 0.0026431852 0.0024420684 0.0027552668 0.0029983602 0.0025387667
0.002550115 0.0023612143 0.002656899 0.0024350635 0.00234302 0.0030545653 0.0032773968 0.0031046048
0.0028015794 0.0029533778 0.002790462 0.0027261751 0.002870089 0.0027941365 0.0025542323 0.002803865
0.0027219234 0.0025927047 0.002985606 0.0030441182 0.0029642298 0.0023540678 0.0026694038 0.0023701058
0.002362403 0.0026431845 0.002442068 0.0027552666

exp_avg f4 [2]
00000000: 1b1f da3a f51e da3a
0.001664135 0.0016641306

exp_avg_sq f4 [2]
00000000: 4cb4 4e3b 4cb4 4e3b
0.003154057 0.003154057
