context/220719_mnist_ann_direct_lr0.01/model.pt (torch, 96031 bytes, 3 tensors)

l1.weight f4 [10, 785]
000000 5e 89 96 ba 9e a5 9b ba ed 97 0d bd 73 dd d5 bc
       -0.001148503 -0.0011874919 -0.034568716 -0.026106572
000010 f5 3a 26 bd 29 f1 1c bd 6b f2 f3 3c df 4a c5 3c
       -0.04058357 -0.038315926 0.02977868 0.024083553
000020 4c 77 48 3b 0b 20 e9 3c 95 2d 96 bc 25 0b d3 bc
       0.0030588685 0.028457662 -0.018332282 -0.02576215
000030 8b 1b cd 3c 05 82 ed bb 2d b4 b6 3a c3 92 80 3c
       0.025037548 -0.0072481656 0.0013939195 0.015694981
000040 ad 96 5b 3c a1 b3 d3 bc 15 5c 9d bc bb 0f 1d bd
       0.013402623 -0.02584249 -0.019208947 -0.03834508
000050 70 36 7b bb 8f 1b 95 bc 47 11 14 3b f8 71 75 bb
       -0.0038332008 -0.018201618 0.0022593306 -0.0037451964
000060 35 fc cc 3c 52 cf 18 bb cb 7c 4c 3c dd ea bf 3b
       0.025022605 -0.0023316932 0.012480925 0.0058568553
000070 f1 20 d7 3c 97 d4 a5 bc ff d9 c7 3c c7 6d a5 3c
       0.026260825 -0.020242972 0.02439594 0.020193947
000080 62 f4 a0 bc 1e 07 87 3c 0c d4 e2 3c 76 89 cf bc
       -0.01964778 0.016482886 0.027689002 -0.025334101
000090 df 6d 99 bc 3b 6e a4 3c 96 1b cf 3c c3 23 7e 3b
       -0.018729148 0.020072093 0.025281709 0.003877864
0000a0 03 bb 74 3b d7 30 aa 3c 8f 8e e6 3c 4e ce e3 bc
       0.0037342913 0.020775242 0.02814415 -0.027808335
0000b0 7f 35 b4 bc d3 90 c6 3c 0d 37 7b 3c fb ed ab bc
       -0.021998165 0.02423898 0.015332949 -0.020987501
0000c0 c3 e5 87 bc c7 3b f4 3c e0 8f e1 bc a7 f0 8f 3c
       -0.016589051 0.02981366 -0.027534425 0.017570807
0000d0 b4 c2 7a 3c d1 58 22 bd af 13 28 bd 93 1e d3 3b
       0.01530521 -0.039635483 -0.041034397 0.0064428537
0000e0 f9 58 46 3c a9 e2 d6 3c d7 9e 82 ba 64 fa 97 3c
       0.012106174 0.026231127 -0.0009965551 0.018552013
0000f0 78 52 fc bc 4a 66 83 3c bd a6 1d bd de e7 a4 3c
       -0.030801043 0.016039986 -0.038489092 0.020130094
000100 8e e9 86 3b 68 ce ff 3c 06 0d f0 3c cd 87 c4 bb
       0.0041171974 0.031226352 0.029303085 -0.005997634
000110 10 19 e1 3c d1 3e 24 3d 9e 7d 5c 3d 09 bc db 3c
       0.027477771 0.04009897 0.053830735 0.02682306
000120 7d 43 24 3d fe b3 13 3d e6 e7 d4 3c 5f 90 87 3d
       0.040103424 0.036060326 0.025989484 0.066193335
000130 bd 0c 37 3d 47 f4 de 3c f4 b2 cd bb d1 c4 fa bc
       0.044689883 0.02721609 -0.0062774364 -0.030611428
000140 d6 09 5e 3b 72 6b e3 3c a9 af 2b 3c 85 2b 0c bd
       0.0033880374 0.027761195 0.010478892 -0.03422119
000150 08 69 0c bc 99 a1 81 bb 48 76 8d 3c fb 70 17 3c
       -0.008569963 -0.0039560315 0.017268315 0.009243245
000160 57 a7 f5 bc 17 92 0e bd 25 c2 71 3c 84 29 fa 3c
       -0.02998702 -0.03480729 0.01475576 0.030537374
000170 bb 1a 38 3d 49 a3 a2 3d 2e 5a da 3d 10 a2 8b 3d
       0.044947367 0.079413004 0.10661732 0.0681802
000180 e3 cb 82 3d 1c 49 04 3e 1b 1b 27 3e cf aa e5 3d
       0.063865446 0.12918514 0.16318934 0.1121422
000190 d0 fb fe 3d 4f 7e 40 3e 27 dc 4f 3e eb 58 23 3e
       0.12450373 0.18798183 0.20298825 0.15951888
0001a0 f9 8a db 3d 01 b9 cb 3d 1c 1d c9 3c 36 81 43 3c
       0.10719866 0.09947396 0.024550013 0.011932662
0001b0 33 43 e0 3a 28 13 46 bc 10 1a 1a 3c f8 62 98 bb
       0.0017109871 -0.012089528 0.009405628 -0.00465047
0001c0 0d 53 09 bd a6 e3 11 bc 23 5d 05 bb 7a 25 8a 3c
       -0.03352647 -0.008904373 -0.0020349703 0.016863573
0001d0 00 7d 55 ba 49 29 59 bb 54 19 17 3d 15 bc 6e 3d
       -0.00081439316 -0.003313618 0.03688939 0.058284838
0001e0 9a 58 a2 3d 27 b3 a9 3d 84 ca 04 3e a4 23 db 3d
       0.07927056 0.08286124 0.12967879 0.10700157
0001f0 08 d7 ab 3d c3 ba 5c bc d3 15 2d bd 3e 72 95 bd
       0.08390623 -0.013472262 -0.04225714 -0.072971806
000200 ab fc 2c bd ab b3 fa 3c 87 67 58 3d c5 2d 06 3e
       -0.04223315 0.03060325 0.052833106 0.13103397
000210 20 bc f2 3d b8 1c cc 3d 9e 73 bf 3d bb 8b 4e 3d
       0.11852288 0.09966415 0.09348224 0.050426226
000220 d0 91 5e 3d 41 c8 45 bb b4 1c 9d 3c 85 cc 6e bc
       0.054338276 -0.0030179175 0.019178726 -0.014575128
000230 08 c9 14 bb 71 28 ca 3b fd e9 1d bd 0f f8 f1 3a
       -0.0022702832 0.006169372 -0.038553227 0.0018460768
000240 70 c7 c4 3c 73 17 36 3d fb 82 63 3d d5 5c c0 3d
       0.02402088 0.044455957 0.055544835 0.09392706
000250 fe cd 1c 3e a0 5e 3a 3e bd 03 01 3e 65 92 b3 3d
       0.15312955 0.18200159 0.12599082 0.08768157
000260 21 c2 80 bd e6 6d 4c be e4 e9 97 be c6 43 b4 be
       -0.06287027 -0.19963798 -0.29670632 -0.35207957
000270 e9 aa b0 be 38 44 77 be 4a 86 18 be b3 45 20 bd
       -0.34505394 -0.24147117 -0.14894977 -0.03912897
000280 c8 d3 25 3d a4 c9 4b 3d d3 0f 5b 3d d6 6e b8 3d
       0.040485173 0.049752846 0.053481888 0.09005515
000290 f2 51 eb 3c 17 78 47 bb e3 16 7d 3c 32 1d ca 3c
       0.028725598 -0.003043657 0.015447351 0.024672125
0002a0 ef bb 89 bc 7a 26 26 bd 38 09 f5 3c 11 f4 8c 3c
       -0.016813247 -0.040564038 0.029911622 0.017206224
0002b0 23 b9 25 3d 92 97 0d 3d ea 1d 9f 3d a0 3f 11 3e
       0.040459763 0.034568377 0.077693775 0.14184427
0002c0 20 27 4d 3e fb e4 51 3e 09 1c d9 3d 85 65 45 3d
       0.20034456 0.20497505 0.106010504 0.04819252
0002d0 c9 42 ad bd ed ec 79 be 0f 43 af be 4f 05 ca be
       -0.08460004 -0.24406786 -0.3423085 -0.39457175
0002e0 0a c6 eb be 36 bc ee be 24 ae b8 be 70 0a 5f be
       -0.4604953 -0.4662797 -0.3607036 -0.21781325
0002f0 e6 98 c4 bd f7 ec c2 bd 90 9b 06 bd f3 58 95 3d
       -0.095994756 -0.09517854 -0.0328632 0.07292356
000300 38 29 e6 3d 97 ea 09 3b 89 db c0 3b e8 2c 62 3c
       0.112383306 0.0021044367 0.0058855456 0.013804652
000310 87 94 17 bc 10 07 49 3b 08 c7 9f 3c 47 ac 08 bd
       -0.00925172 0.0030674376 0.019504085 -0.03336742
000320 42 86 4d 3d e2 64 ef 3c 0f ef f6 3d 0f 18 3b 3e
       0.050176866 0.02922291 0.120573156 0.18270896
000330 fd cd 36 3e 4e 8a 07 3e c5 b5 df 3c 6b 2e 2d bd
       0.17852016 0.13236353 0.027308354 -0.042280596
000340 42 cc ed bd f1 b1 51 be de 20 9b be 00 25 d0 be
       -0.11611225 -0.20478036 -0.30298513 -0.4065323
000350 14 22 09 bf b8 40 17 bf c8 c2 0c bf 4f b3 c7 be
       -0.53567624 -0.5908313 -0.5498471 -0.3900399
000360 87 33 6c be 50 2d 22 be 95 6c eb bd 33 f9 65 3c
       -0.23066531 -0.15837598 -0.1149532 0.0140364645
000370 f9 36 cc 3d 91 72 0a 3c 13 50 c8 bc 68 ed 81 bc
       0.09971423 0.008450166 -0.024452245 -0.015860274
000380 dd b2 1a 3b fb 05 c2 bc 19 ab 7d 3c f3 9c c4 bc
       0.0023605146 -0.023684492 0.015482687 -0.02400062
000390 d2 83 21 3d cd ae d3 3d 78 f8 d9 3d b1 de 03 3e
       0.039432354 0.10336075 0.10643095 0.12877919
0003a0 6c 71 05 3e 4e 91 ba 3d 5c bd 3e bb f1 66 97 bd
       0.13031548 0.09109746 -0.0029104566 -0.073926814
0003b0 2d 49 48 be ce 91 93 be c3 57 bf be 1a 62 d1 be
       -0.19559164 -0.28822178 -0.37371644 -0.40895158
0003c0 38 50 19 bf 56 a9 1b bf 74 6d 24 bf d1 d7 ff be
       -0.5988803 -0.6080526 -0.6422951 -0.49969342
0003d0 01 77 bd be 92 5d 6c be 53 8b 62 be 35 d4 dd bd
       -0.37004855 -0.23082569 -0.2212346 -0.10831491
0003e0 72 6a 82 3c 1a 33 76 3d 02 46 27 bc b0 4a 9c ba
       0.015919898 0.060107328 -0.010209562 -0.0011924114
0003f0 60 4e 0e bd f6 8a 54 bc 72 ad 02 bd 88 b0 9b bc
       -0.034742713 -0.012972584 -0.03190369 -0.019005075

exp_avg f4 [10, 785]
000000 4c 1d 96 ba 4c 1d 96 ba 4c 1d 96 ba 4c 1d 96 ba
       -0.0011452823 -0.0011452823 -0.0011452823 -0.0011452823
000010 4c 1d 96 ba 4c 1d 96 ba 4c 1d 96 ba 4c 1d 96 ba
       -0.0011452823 -0.0011452823 -0.0011452823 -0.0011452823
000020 4c 1d 96 ba 4c 1d 96 ba 4c 1d 96 ba 4c 1d 96 ba
       -0.0011452823 -0.0011452823 -0.0011452823 -0.0011452823
000030 4c 1d 96 ba 4c 1d 96 ba 4c 1d 96 ba 4c 1d 96 ba
       -0.0011452823 -0.0011452823 -0.0011452823 -0.0011452823
000040 4c 1d 96 ba 4c 1d 96 ba 4c 1d 96 ba 4c 1d 96 ba
       -0.0011452823 -0.0011452823 -0.0011452823 -0.0011452823
000050 4c 1d 96 ba 4c 1d 96 ba 4c 1d 96 ba 4c 1d 96 ba
       -0.0011452823 -0.0011452823 -0.0011452823 -0.0011452823
000060 4c 1d 96 ba 4c 1d 96 ba 4c 1d 96 ba 4c 1d 96 ba
       -0.0011452823 -0.0011452823 -0.0011452823 -0.0011452823
000070 4c 1d 96 ba 4c 1d 96 ba 4c 1d 96 ba 4c 1d 96 ba
       -0.0011452823 -0.0011452823 -0.0011452823 -0.0011452823
000080 4c 1d 96 ba 4c 1d 96 ba 7f 1d 96 ba 69 1e 96 ba
       -0.0011452823 -0.0011452823 -0.0011452882 -0.0011453155
000090 b8 20 96 ba ab 1f 96 ba 75 28 96 ba 58 2d 96 ba
       -0.0011453843 -0.001145353 -0.0011456149 -0.0011457605
0000a0 c5 1e 96 ba 5f 28 96 ba 98 42 96 ba 3d 28 96 ba
       -0.0011453262 -0.0011456123 -0.0011463938 -0.0011456084
0000b0 81 29 96 ba bb 28 96 ba f9 1e 96 ba 8d 1d 96 ba
       -0.0011456461 -0.001145623 -0.0011453322 -0.0011452899
0000c0 af 1d 96 ba a2 1d 96 ba 55 1d 96 ba 4c 1d 96 ba
       -0.0011452938 -0.0011452923 -0.0011452833 -0.0011452823
0000d0 4c 1d 96 ba 4c 1d 96 ba 4c 1d 96 ba 4c 1d 96 ba
       -0.0011452823 -0.0011452823 -0.0011452823 -0.0011452823
0000e0 4c 1d 96 ba 4c 1d 96 ba 4c 1d 96 ba 44 1d 96 ba
       -0.0011452823 -0.0011452823 -0.0011452823 -0.0011452814
0000f0 6c 1d 96 ba 4c 1d 96 ba 6b 1d 96 ba c8 91 97 ba
       -0.001145286 -0.0011452823 -0.0011452859 -0.0011563832
000100 19 fb 99 ba 65 d9 99 ba ec c7 97 ba aa 7b 96 ba
       -0.0011747807 -0.0011737762 -0.0011579967 -0.0011480947
000110 2a fd 96 ba 8d 92 97 ba 66 b5 97 ba e9 27 99 ba
       -0.001151954 -0.0011564061 -0.0011574447 -0.0011684868
000120 43 25 99 ba 53 3b 98 ba 25 72 98 ba 1e 01 98 ba
       -0.0011684078 -0.001161436 -0.0011630697 -0.0011597013
000130 e7 5b 97 ba 1b cf 96 ba 91 a0 96 ba 31 9d 96 ba
       -0.0011547775 -0.0011505814 -0.0011491944 -0.0011490938
000140 7e 78 96 ba 17 25 96 ba 4c 1d 96 ba 4c 1d 96 ba
       -0.0011480001 -0.0011455145 -0.0011452823 -0.0011452823
000150 4c 1d 96 ba 4c 1d 96 ba 4c 1d 96 ba 45 1d 96 ba
       -0.0011452823 -0.0011452823 -0.0011452823 -0.0011452815
000160 a3 96 96 ba 10 95 96 ba 90 3d 97 ba 56 4b 9a ba
       -0.0011488985 -0.0011488516 -0.0011538733 -0.001177172
000170 7a 7a 99 ba 7d 4c 99 ba 10 cb 9a ba 46 74 9a ba
       -0.0011709474 -0.0011695769 -0.0011809785 -0.001178392
000180 87 6b 99 ba 47 22 9e ba 51 87 a1 ba df 96 a4 ba
       -0.0011705019 -0.0012064659 -0.0012323653 -0.001255717
000190 d2 a6 a7 ba 92 df a3 ba 23 0a a1 ba c8 f7 9f ba
       -0.0012790805 -0.0012502542 -0.0012286346 -0.0012204582
0001a0 27 f4 9b ba c4 18 9c ba 31 90 9c ba f4 da 98 ba
       -0.0011898325 -0.0011909236 -0.0011944828 -0.0011661933
0001b0 18 9a 96 ba a7 2c 96 ba 4c 1d 96 ba 4c 1d 96 ba
       -0.0011490015 -0.0011457399 -0.0011452823 -0.0011452823
0001c0 4c 1d 96 ba 4c 1d 96 ba 63 1d 96 ba 58 1d 96 ba
       -0.0011452823 -0.0011452823 -0.001145285 -0.0011452837
0001d0 38 e5 96 ba 0c 4d 97 ba 48 88 99 ba 9f a5 9d ba
       -0.0011512404 -0.0011543348 -0.0011713589 -0.0012027508
0001e0 20 00 9a ba d2 8f 9a ba 96 7b 9c ba f5 47 9b ba
       -0.0011749305 -0.0011792129 -0.0011938687 -0.0011847006
0001f0 98 66 99 ba d7 ff 9b ba 6c 2e 9d ba 32 dd a1 ba
       -0.0011703549 -0.0011901808 -0.0011991984 -0.0012349247
000200 76 e9 aa ba 5a d6 a7 ba 20 e6 a2 ba 0e 8a 9f ba
       -0.0013039547 -0.0012804971 -0.0012428202 -0.0012171881
000210 a0 ac 9f ba 3c 7e a1 ba f0 3e 9e ba 41 0a 9b ba
       -0.0012182184 -0.0012320946 -0.00120732 -0.0011828617
000220 9e bc 96 ba 6f 52 96 ba f7 25 96 ba 4c 1d 96 ba
       -0.0011500304 -0.0011468659 -0.0011455406 -0.0011452823
000230 4c 1d 96 ba 4c 1d 96 ba 7a 35 96 ba 56 20 96 ba
       -0.0011452823 -0.0011452823 -0.0011460029 -0.0011453729
000240 d1 3f 97 ba 89 a2 97 ba bb 0e 9d ba a1 b5 9b ba
       -0.0011539405 -0.0011568825 -0.001198254 -0.0011879691
000250 6d 37 97 ba 70 ae 97 ba 5b 73 96 ba 9e 73 90 ba
       -0.0011536904 -0.0011572372 -0.001147847 -0.0011020785
000260 d5 38 97 ba c7 4b 9a ba 9d 75 95 ba 27 18 9a ba
       -0.0011537323 -0.0011771851 -0.0011402849 -0.0011756466
000270 b5 1a 9c ba 56 f5 a5 ba 9c 11 b1 ba 37 95 b3 ba
       -0.0011909815 -0.0012661617 -0.0013509276 -0.0013701086
000280 e9 4a b2 ba 0b b3 a4 ba 12 61 9d ba 89 0e 98 ba
       -0.0013602647 -0.0012565566 -0.0012007079 -0.0011601012
000290 86 65 98 ba f7 db 96 ba a8 45 96 ba 4d 1d 96 ba
       -0.0011626936 -0.0011509646 -0.0011464851 -0.0011452824
0002a0 4c 1d 96 ba 4c 1d 96 ba 55 1d 96 ba 42 21 96 ba
       -0.0011452823 -0.0011452823 -0.0011452833 -0.0011454003
0002b0 d3 66 97 ba a7 c2 97 ba 16 0d 9d ba 66 f3 96 ba
       -0.001155103 -0.0011578397 -0.0011982049 -0.001151663
0002c0 3f fe 97 ba 00 7f 98 ba 47 e1 8f ba 0f 90 95 ba
       -0.0011596157 -0.0011634529 -0.0010977172 -0.0011410731
0002d0 e0 b1 9c ba d2 3f 9e ba 82 dd 9a ba e2 67 a7 ba
       -0.0011954866 -0.0012073463 -0.0011815282 -0.0012772048
0002e0 93 54 a1 ba 95 e0 91 ba f5 6a a0 ba cf d0 b2 ba
       -0.001230853 -0.0011129553 -0.0012238907 -0.0013642552
0002f0 ea cb b3 ba 31 b6 a2 ba d5 43 98 ba 75 1d 96 ba
       -0.0013717387 -0.0012413916 -0.0011616895 -0.0011452871
000300 4b 0d 97 ba dd a2 97 ba f4 6e 96 ba 12 1d 96 ba
       -0.0011524347 -0.0011568923 -0.0011477158 -0.0011452755
000310 4c 1d 96 ba 64 1d 96 ba 18 1f 96 ba 48 25 96 ba
       -0.0011452823 -0.0011452851 -0.0011453358 -0.0011455202
000320 61 d4 97 ba d2 4f 9a ba 8e b7 9c ba 55 52 96 ba
       -0.001158368 -0.0011773056 -0.0011956559 -0.0011468629
000330 c1 22 95 ba e6 dd 8c ba 57 fd 94 ba 9f 72 9b ba
       -0.0011378155 -0.0010747283 -0.0011367005 -0.0011859721
000340 35 d6 a6 ba 8d cf a1 ba e6 b7 a2 ba 7f 20 a5 ba
       -0.0012728634 -0.001234518 -0.0012414425 -0.0012598186
000350 6f d7 a4 ba 76 49 8d ba 8c d0 83 ba 8a 3e 9d ba
       -0.0012576411 -0.0010779339 -0.0010056659 -0.0011996788
000360 aa 32 b2 ba 3e da af ba 65 0b 9f ba 0b 0b 9c ba
       -0.0013595421 -0.0013416482 -0.0012134133 -0.0011905147
000370 a5 47 9a ba ab 87 99 ba 8a eb 96 ba ed 1c 96 ba
       -0.0011770619 -0.0011713406 -0.0011514288 -0.0011452712
000380 4c 1d 96 ba 85 1d 96 ba 36 1f 96 ba 91 2e 96 ba
       -0.0011452823 -0.0011452889 -0.0011453393 -0.001145797
000390 36 50 98 ba ed 25 9e ba 77 47 9d ba ae 53 93 ba
       -0.0011620584 -0.0012065746 -0.0011999448 -0.0011240148
0003a0 53 93 8f ba b3 29 95 ba 70 f8 9a ba 02 69 aa ba
       -0.001095394 -0.0011380225 -0.0011823308 -0.0013001265
0003b0 07 ac a4 ba 50 ef b3 ba 25 13 a1 ba e9 9b a6 ba
       -0.0012563475 -0.0013727937 -0.0012289031 -0.001271126
0003c0 5f e9 95 ba 56 0b 75 ba 7a 12 61 ba f2 94 90 ba
       -0.0011437348 -0.00093476975 -0.0008585822 -0.0011030717
0003d0 2d bc ab ba e4 9d b0 ba f2 36 aa ba 46 29 9b ba
       -0.0013102345 -0.001347479 -0.0012986346 -0.0011837862
0003e0 47 a3 9a ba 70 53 9b ba 2f 5f 97 ba 61 1d 96 ba
       -0.0011797928 -0.0011850428 -0.0011548753 -0.0011452847
0003f0 de 1d 96 ba 2c 1f 96 ba 25 25 96 ba fc 56 96 ba
       -0.0011452993 -0.0011453382 -0.0011455162 -0.0011470015

exp_avg_sq f4 [10, 785]
000000 62 6a 37 39 62 6a 37 39 62 6a 37 39 62 6a 37 39
       0.0001749187 0.0001749187 0.0001749187 0.0001749187
000010 62 6a 37 39 62 6a 37 39 62 6a 37 39 62 6a 37 39
       0.0001749187 0.0001749187 0.0001749187 0.0001749187
000020 62 6a 37 39 62 6a 37 39 62 6a 37 39 62 6a 37 39
       0.0001749187 0.0001749187 0.0001749187 0.0001749187
000030 60 6a 37 39 5e 6a 37 39 5a 6a 37 39 61 6a 37 39
       0.00017491868 0.00017491865 0.00017491859 0.00017491869
000040 62 6a 37 39 62 6a 37 39 62 6a 37 39 62 6a 37 39
       0.0001749187 0.0001749187 0.0001749187 0.0001749187
000050 62 6a 37 39 62 6a 37 39 62 6a 37 39 62 6a 37 39
       0.0001749187 0.0001749187 0.0001749187 0.0001749187
000060 62 6a 37 39 62 6a 37 39 62 6a 37 39 62 6a 37 39
       0.0001749187 0.0001749187 0.0001749187 0.0001749187
000070 62 6a 37 39 62 6a 37 39 62 6a 37 39 62 6a 37 39
       0.0001749187 0.0001749187 0.0001749187 0.0001749187
000080 6a 6a 37 39 7b 6a 37 39 b2 6a 37 39 4a 6b 37 39
       0.00017491882 0.00017491907 0.00017491987 0.00017492208
000090 f3 6b 37 39 56 6d 37 39 a1 6f 37 39 3f 71 37 39
       0.00017492454 0.00017492971 0.00017493825 0.00017494427
0000a0 78 74 37 39 f2 74 37 39 ea 71 37 39 10 77 37 39
       0.00017495628 0.00017495806 0.00017494676 0.00017496594
0000b0 2f 77 37 39 4d 74 37 39 3b 6d 37 39 9a 6c 37 39
       0.0001749664 0.00017495565 0.00017492932 0.00017492697
0000c0 73 6c 37 39 75 6c 37 39 52 6b 37 39 63 6a 37 39
       0.0001749264 0.00017492643 0.0001749222 0.00017491872
0000d0 62 6a 37 39 62 6a 37 39 62 6a 37 39 62 6a 37 39
       0.0001749187 0.0001749187 0.0001749187 0.0001749187
0000e0 62 6a 37 39 62 6a 37 39 7f 6a 37 39 ec 6a 37 39
       0.0001749187 0.0001749187 0.00017491913 0.00017492071
0000f0 f5 6a 37 39 87 6a 37 39 c5 6c 37 39 44 77 37 39
       0.00017492085 0.00017491925 0.0001749276 0.0001749667
000100 78 7c 37 39 fe 95 37 39 64 a5 37 39 0b bd 37 39
       0.00017498608 0.00017508116 0.00017513853 0.00017522664
000110 f6 e6 37 39 f8 12 38 39 11 36 38 39 6a 45 38 39
       0.0001753828 0.00017554674 0.00017567749 0.00017573466
000120 f8 42 38 39 82 19 38 39 3a 0c 38 39 75 e7 37 39
       0.00017572555 0.0001755711 0.00017552162 0.00017538464
000130 6d c5 37 39 38 9d 37 39 f0 82 37 39 b4 73 37 39
       0.00017525787 0.00017510809 0.00017501018 0.00017495343
000140 ed 6c 37 39 fc 6a 37 39 62 6a 37 39 62 6a 37 39
       0.00017492818 0.00017492095 0.0001749187 0.0001749187
000150 62 6a 37 39 62 6a 37 39 96 6a 37 39 81 6c 37 39
       0.0001749187 0.0001749187 0.00017491946 0.00017492661
000160 cb 6c 37 39 41 71 37 39 1a 7d 37 39 98 ae 37 39
       0.00017492769 0.0001749443 0.00017498844 0.00017517281
000170 d5 ea 37 39 07 5f 38 39 30 df 38 39 f1 7a 39 39
       0.00017539722 0.00017583008 0.00017630751 0.00017688774
000180 b8 3f 3a 39 de 28 3b 39 5a e0 3b 39 3b 5c 3c 39
       0.0001776208 0.00017848934 0.00017917287 0.00017963436
000190 5c 84 3c 39 d7 11 3c 39 51 41 3b 39 e5 b5 3a 39
       0.00017978385 0.00017935723 0.00017858042 0.00017806103
0001a0 59 db 39 39 eb 04 39 39 79 43 38 39 13 c9 37 39
       0.00017724688 0.00017644807 0.00017572743 0.00017527146
0001b0 d0 87 37 39 46 70 37 39 c7 6a 37 39 62 6a 37 39
       0.00017502834 0.00017494065 0.00017492018 0.0001749187
0001c0 62 6a 37 39 5e 6a 37 39 82 6a 37 39 c9 6a 37 39
       0.0001749187 0.00017491865 0.00017491917 0.0001749202
0001d0 f7 70 37 39 90 8c 37 39 73 ce 37 39 88 62 38 39
       0.00017494323 0.00017504604 0.00017529148 0.00017584313
0001e0 99 64 39 39 22 04 3b 39 48 f6 3c 39 0b cb 3f 39
       0.0001768045 0.0001783525 0.00018020824 0.00018290819
0001f0 4c 26 43 39 03 ef 46 39 5d 31 4a 39 71 32 4c 39
       0.00018610916 0.0001897179 0.0001928261 0.00019473747
000200 72 1b 4c 39 10 2e 4a 39 fa 23 47 39 2c 1c 44 39
       0.0001946518 0.00019281381 0.00018991521 0.00018702511
000210 e1 63 40 39 92 06 3d 39 fa 8f 3a 39 0a dc 38 39
       0.00018347755 0.00018026892 0.00017791978 0.00017629578
000220 e3 e1 37 39 e6 7b 37 39 87 6b 37 39 9e 6a 37 39
       0.0001753639 0.00017498396 0.00017492297 0.00017491958
000230 62 6a 37 39 62 6a 37 39 12 6b 37 39 56 6f 37 39
       0.0001749187 0.0001749187 0.00017492127 0.00017493716
000240 94 8b 37 39 26 da 37 39 d2 9a 38 39 7b f9 39 39
       0.00017504237 0.00017533507 0.00017605282 0.00017735914
000250 97 33 3c 39 1a 77 3f 39 fe f3 43 39 06 cb 49 39
       0.00017948296 0.00018259548 0.00018687543 0.00019244486
000260 51 8d 50 39 5f ea 57 39 0f 96 5d 39 2e 11 61 39
       0.0001988907 0.00020591308 0.00021132104 0.00021464072
000270 c5 5c 61 39 a2 77 5e 39 c1 80 58 39 e1 10 51 39
       0.00021492231 0.00021216137 0.0002064733 0.00019938081
000280 f0 9d 49 39 1e 1d 43 39 22 19 3e 39 cf 93 3a 39
       0.0001922769 0.00018607496 0.00018129175 0.00017793405
000290 ee 83 38 39 ab a2 37 39 15 72 37 39 a1 6a 37 39
       0.00017596755 0.00017512839 0.00017494739 0.00017491962
0002a0 62 6a 37 39 66 6a 37 39 01 6b 37 39 fa 76 37 39
       0.0001749187 0.00017491876 0.00017492102 0.00017496562
0002b0 c7 b0 37 39 1d 4e 38 39 53 b3 39 39 73 22 3c 39
       0.00017518095 0.00017576707 0.00017709778 0.0001794191
0002c0 87 1a 40 39 67 b1 45 39 5d 8c 4c 39 6e 15 54 39
       0.00018320429 0.00018853472 0.00019507245 0.00020225879
0002d0 ea 78 5c 39 1c 3a 64 39 76 ab 69 39 67 cc 6c 39
       0.00021025879 0.00021765422 0.00022284486 0.0002258286
0002e0 45 5a 6d 39 58 c0 6a 39 cf de 64 39 e6 c1 5b 39
       0.0002263571 0.00022387633 0.00021826777 0.000209577
0002f0 0d 3e 52 39 a8 9c 49 39 ec 24 42 39 b7 c4 3c 39
       0.00020050276 0.00019227213 0.00018515036 0.00018002359
000300 fb 44 39 39 c0 ec 37 39 0c 86 37 39 f8 6c 37 39
       0.00017668672 0.00017540436 0.00017502176 0.00017492834
000310 85 6a 37 39 13 6b 37 39 79 74 37 39 08 89 37 39
       0.00017491922 0.00017492128 0.0001749563 0.00017503288
000320 be ee 37 39 05 f6 38 39 dc 10 3b 39 f4 f0 3e 39
       0.00017541178 0.00017639257 0.0001783999 0.00018209574
000330 66 d5 44 39 bd 55 4c 39 93 53 54 39 91 ba 5c 39
       0.00018771514 0.00019486896 0.0002024903 0.00021050336
000340 38 30 64 39 7d ae 69 39 89 5b 6c 39 13 ef 6c 39
       0.00021761737 0.00022285614 0.00022540813 0.00022595776
000350 bd d8 6c 39 b1 37 6c 39 80 80 69 39 ca f4 61 39
       0.00022587455 0.0002252746 0.00022268482 0.00021548863
000360 bf ab 58 39 18 2c 4f 39 89 38 46 39 c5 11 3f 39
       0.00020663346 0.00019757485 0.00018903812 0.00018221799
000370 d1 13 3a 39 a9 20 38 39 92 8a 37 39 51 6e 37 39
       0.00017745724 0.00017559774 0.00017503861 0.00017493336
000380 4e 6e 37 39 2a 6c 37 39 8a 79 37 39 ee af 37 39
       0.00017493332 0.00017492534 0.00017497517 0.00017517779
000390 86 49 38 39 b6 b9 39 39 e6 ca 3c 39 9a 78 42 39
       0.00017574997 0.00017712158 0.00018004663 0.0001854621
0003a0 e9 df 49 39 f9 e3 51 39 60 48 5a 39 4c 8f 61 39
       0.00019252267 0.0002001672 0.00020817062 0.00021511054
0003b0 21 3e 67 39 f9 00 69 39 b3 a2 67 39 a4 72 65 39
       0.00022053022 0.00022220974 0.00022090487 0.00021881849
0003c0 03 cf 64 39 36 11 66 39 24 57 66 39 7e fe 62 39
       0.00021820892 0.00021940921 0.00021966972 0.00021647845
0003d0 ad e6 5b 39 96 ea 52 39 84 1c 49 39 00 b8 40 39
       0.00020971401 0.0002011455 0.00019179477 0.00018379092
0003e0 2b 89 3a 39 0c 27 38 39 7c 8b 37 39 e4 6b 37 39
       0.00017789441 0.00017562154 0.00017504202 0.00017492432
0003f0 92 6a 37 39 00 6c 37 39 20 7e 37 39 18 d1 37 39
       0.0001749194 0.00017492473 0.00017499225 0.00017530133
