context/0920_tskone_context_lr0.1/model.pt (torch, 3031 bytes, 6 tensors)

l1_w f4 [2, 30]
0	0x407f9d69	3.9939826
1	0x4063dde8	3.560419
2	0x4042d06e	3.0439715
3	0x409bc258	4.8674736
4	0x40987f58	4.765545
5	0x3d314006	0.043273948
6	0xc081ac98	-4.0523186
7	0xc0e2df2e	-7.0897436
8	0x40132e7d	2.2997124
9	0x40c1afe2	6.05272
10	0x3fd122a5	1.6338698
11	0x40a21f3e	5.0663137
12	0x4023a388	2.5568562
13	0x409c39bd	4.882048
14	0x404394ad	3.0559494
15	0xbff2f00d	-1.8979508
16	0x408979d6	4.2961226
17	0xbfe28e4b	-1.7699674
18	0x4081e74f	4.059486
19	0x406fff8f	3.749973
20	0xc0e18a72	-7.04815
21	0xc0b8ddc2	-5.77707
22	0xc060cdef	-3.5125692
23	0xbfef33d1	-1.8687688
24	0x3f176a90	0.59146976
25	0xbed881a8	-0.4228642
26	0xc052d395	-3.294164
27	0xc10bc7b0	-8.736252
28	0x409dcbf7	4.931148
29	0x4085fd64	4.1871815
30	0x40500870	3.250515
31	0x40325b98	2.7868404
32	0x400fcc9f	2.246864
33	0x4086b325	4.209368
34	0x40872e80	4.2244263
35	0xbf45107b	-0.7697827
36	0xc0a58d4a	-5.173497
37	0xc10022c3	-8.008487
38	0x3fbfc74e	1.4982698
39	0x40a081f5	5.015864
40	0x3f59e030	0.8510771
41	0x408c9037	4.3926044
42	0x3fd40dd3	1.6566719
43	0x4077ab8d	3.8698456
44	0x4002cd8d	2.0437958
45	0xc02fa0ad	-2.7441819
46	0x40599499	3.3996947
47	0xc0292f1f	-2.643501
48	0x404a5d30	3.1619377
49	0x404c5c8e	3.193149
50	0xc100cac9	-8.049508
51	0xc0cf75c7	-6.483127
52	0xc08953c6	-4.2914762
53	0xc039a65f	-2.9007795
54	0xbf1d08a6	-0.6134132
55	0xbf9ddc21	-1.2332803
56	0xc0849ebf	-4.144378
57	0xc1178683	-9.47034
58	0x407afd3b	3.921706
59	0x40610826	3.5161223

l1_b f4 [2]
0	0xc0de49e6	-6.946521
1	0xc0f293e2	-7.580552

exp_avg f4 [2, 30]
0	0xba2377ba	-0.0006235797
1	0xb98346e4	-0.00025039085
2	0xba1302a5	-0.0005607999
3	0xba204a7f	-0.00061146164
4	0xb9f231ef	-0.0004619504
5	0xb93c4413	-0.00017954437
6	0x38c729da	9.496855e-05
7	0x39b31d13	0.00034163203
8	0xb986a6cb	-0.00025682742
9	0xb9d06f56	-0.00039755803
10	0xb7e003c6	-2.6704638e-05
11	0xb980d0e8	-0.0002456971
12	0xb8e91934	-0.00011115
13	0xb9b748fc	-0.00034958858
14	0xb9ae6081	-0.00033259767
15	0x36b554b5	5.4040815e-06
16	0xb9f0ce4c	-0.0004593007
17	0x37aaff4c	2.0384461e-05
18	0xb9acb2e5	-0.00032939683
19	0xb9bc34c5	-0.0003589747
20	0x396e2bd1	0.00022713772
21	0x39bac98b	0.00035626846
22	0xb93b659d	-0.00017871564
23	0xb97e88a5	-0.00024274232
24	0xb9be3562	-0.00036279397
25	0xb9aa18ce	-0.00032443408
26	0xb920cb41	-0.00015334507
27	0x391d1a5d	0.00014982508
28	0xba19ff4a	-0.0005874528
29	0xb9ff785f	-0.00048727074
30	0xba2376df	-0.000623567
31	0xb9834548	-0.00025037886
32	0xba1301d3	-0.0005607877
33	0xba2049ae	-0.0006114495
34	0xb9f23038	-0.00046193763
35	0xb93c40b7	-0.00017953185
36	0x38c73031	9.498036e-05
37	0x39b31eec	0.0003416458
38	0xb986a4cb	-0.00025681252
39	0xb9d06d6b	-0.00039754374
40	0xb7dfe723	-2.6691303e-05
41	0xb980cf09	-0.00024568316
42	0xb8e911be	-0.000111136105
43	0xb9b7472d	-0.0003495751
44	0xb9ae5ec0	-0.0003325846
45	0x36b5c368	5.4169686e-06
46	0xb9f0cc88	-0.00045928755
47	0x37ab1aa0	2.0397187e-05
48	0xb9acb122	-0.0003293837
49	0xb9bc32e9	-0.00035896085
50	0x396e2fb8	0.00022715225
51	0x39bacb7c	0.00035628292
52	0xb93b6244	-0.00017870317
53	0xb97e8569	-0.00024273027
54	0xb9be33a0	-0.00036278088
55	0xb9aa1719	-0.00032442136
56	0xb920c80e	-0.00015333315
57	0x391d1ddf	0.00014983815
58	0xba19fe70	-0.0005874401
59	0xb9ff76c6	-0.00048725883

exp_avg_sq f4 [2, 30]
0	0x39e13e44	0.00042961736
1	0x39de0b2d	0.00042351466
2	0x39e0b1fb	0.00042857215
3	0x39cf9e80	0.00039600208
4	0x39e46ed9	0.00043570137
5	0x39d45c7a	0.0004050469
6	0x39cce6ce	0.00039081875
7	0x3a069d88	0.00051351683
8	0x3a1096ad	0.00055156165
9	0x3a072e72	0.0005156762
10	0x39f97e15	0.0004758692
11	0x3a00129e	0.00048855867
12	0x39f9e021	0.0004765997
13	0x39f2e79f	0.00046330408
14	0x3a02a0f7	0.0004983092
15	0x3a01b7f3	0.000494837
16	0x39ec6f1d	0.00045096214
17	0x3a01c540	0.0004950352
18	0x39f470f3	0.0004662346
19	0x39ed4783	0.00045257443
20	0x3a0b49e6	0.0005313441
21	0x3a0b8161	0.0005321708
22	0x39ddc2be	0.000422975
23	0x39ccdbef	0.00039073775
24	0x39e2abeb	0.00043234168
25	0x39cdbea5	0.00039242688
26	0x39cf81cd	0.00039578826
27	0x39e6b165	0.00044001188
28	0x39cdfdb3	0.00039289668
29	0x39c59408	0.0003768506
30	0x39e13e41	0.00042961727
31	0x39de0b2c	0.00042351463
32	0x39e0b1fc	0.00042857218
33	0x39cf9e82	0.00039600214
34	0x39e46ed8	0.00043570134
35	0x39d45c78	0.00040504686
36	0x39cce6ce	0.00039081875
37	0x3a069d87	0.0005135168
38	0x3a1096b0	0.0005515618
39	0x3a072e70	0.0005156761
40	0x39f97e13	0.00047586914
41	0x3a00129d	0.0004885586
42	0x39f9e027	0.00047659987
43	0x39f2e79e	0.00046330405
44	0x3a02a0f9	0.0004983093
45	0x3a01b7f4	0.00049483706
46	0x39ec6f25	0.00045096237
47	0x3a01c542	0.0004950353
48	0x39f470f3	0.0004662346
49	0x39ed4785	0.0004525745
50	0x3a0b49e5	0.00053134403
51	0x3a0b8166	0.0005321711
52	0x39ddc2c2	0.0004229751
53	0x39ccdbf4	0.0003907379
54	0x39e2abeb	0.00043234168
55	0x39cdbea4	0.00039242685
56	0x39cf81d5	0.0003957885
57	0x39e6b167	0.00044001194
58	0x39cdfdb3	0.00039289668
59	0x39c59405	0.0003768505

exp_avg f4 [2]
0	0xb980d61c	-0.00024573586
1	0xb980d431	-0.00024572157

exp_avg_sq f4 [2]
0	0x3a0ef7ed	0.0005453814
1	0x3a0ef7f3	0.00054538174
