context/0920_tskone_baseline_lr2.0/model.pt (torch, 3031 bytes, 6 tensors)

l1_w f4 [2, 30]
000000 da 25 27 41 a4 e5 6d c0 9a 18 ff 40 b1 ef 20 41
       10.446741 -3.7171412 7.971753 10.058518
000010 d9 1d 5a 41 7b 56 59 bf 5d 2c 90 c1 9e 18 b4 c1
       13.632287 -0.84897584 -18.021662 -22.51202
000020 3b 35 b9 40 31 b1 a3 41 dd 4d 39 bf f8 89 39 41
       5.787748 20.46152 -0.72384435 11.596184
000030 8b 58 67 40 36 72 5e 41 b7 47 78 41 df a4 17 41
       3.6147792 13.902884 15.5175085 9.477752
000040 a4 99 f7 41 8b 97 2b 41 01 5b 8a 41 98 12 c3 41
       30.95002 10.724498 17.294436 24.384079
000050 84 4d c4 c0 43 c9 0b c1 74 62 c1 c0 62 92 65 c0
       -6.1344624 -8.736636 -6.043268 -3.5870595
000060 2f 1d 19 3f 63 9a 8c 40 4b 13 01 c0 b8 a6 7e c1
       0.59810156 4.393846 -2.0168025 -15.915703
000070 62 8e b8 40 6c e1 1a 41 67 98 46 bf b1 1a 71 c1
       5.7673807 9.680035 -0.775763 -15.069016
000080 b6 08 53 c0 77 85 8b bf ca cb 1d 40 80 90 42 c1
       -3.2974067 -1.0900105 2.4655633 -12.160278
000090 69 90 ec c1 3c 36 07 c2 8d 12 b3 c0 69 fd 0b 41
       -29.570513 -33.802963 -5.5960145 8.749368
0000a0 8c ef 40 c1 90 fc 71 3e 9b bf fa c0 73 c1 14 40
       -12.058483 0.23631501 -7.8358893 2.3243072
0000b0 38 07 74 40 d9 ea f5 bf c3 7c 9b 41 3f 57 35 bf
       3.8129406 -1.9212295 19.435919 -0.7083625
0000c0 01 39 b6 40 57 b8 52 41 ca 76 8c c1 59 df 9f c1
       5.6944585 13.170005 -17.558002 -19.984056
0000d0 a1 2b 8a c1 7e 76 71 c1 18 43 33 c1 87 96 dd c0
       -17.271303 -15.091429 -11.20388 -6.924625
0000e0 a0 58 55 c1 65 4f d8 c1 fe 30 bb c0 79 33 ce bf
       -13.334137 -27.038767 -5.8497305 -1.6109458

l1_b f4 [2]
000000 ca 2a 32 42 03 d2 04 42
       44.541786 33.20509

exp_avg f4 [2, 30]
000000 64 05 a3 ba c4 b2 19 ba 7d 28 9f ba d0 89 97 ba
       -0.001243752 -0.0005863125 -0.0012142804 -0.0011561457
000010 eb a5 85 ba 8d 9c 84 ba 0d db 66 ba 27 30 86 ba
       -0.0010196542 -0.0010117457 -0.0008806445 -0.0010237739
000020 ec 94 4f ba fd 88 48 ba e5 01 1a ba bc 96 3c ba
       -0.00079186144 -0.00076498074 -0.0005874916 -0.0007194092
000030 ac 65 29 ba bc db 62 ba 7d cf 40 ba d8 67 73 ba
       -0.00064619887 -0.0008653959 -0.0007355137 -0.0009285188
000040 52 51 95 ba 35 3b 83 ba 3e 14 33 ba f4 50 6a ba
       -0.0011392033 -0.0010012152 -0.00068313244 -0.00089384546
000050 a1 0a 87 ba 49 17 4c ba 33 21 88 ba 99 2f 81 ba
       -0.001030285 -0.0007785452 -0.0010385871 -0.0009856104
000060 55 e8 45 ba 9b 18 99 ba ab ac 94 ba bc 0a ac ba
       -0.0007549574 -0.0011680307 -0.0011342963 -0.0013125758
000070 bd ce 50 ba c2 dd 5d ba 13 05 a3 ba 10 b2 19 ba
       -0.0007965377 -0.00084635254 -0.0012437425 -0.000586302
000080 27 28 9f ba 77 89 97 ba 88 a5 85 ba 30 9c 84 ba
       -0.0012142704 -0.0011561353 -0.0010196427 -0.0010117348
000090 63 da 66 ba cd 2f 86 ba 2b 94 4f ba 68 88 48 ba
       -0.0008806346 -0.0010237634 -0.0007918502 -0.00076497206
0000a0 48 01 1a ba 1c 96 3c ba 05 65 29 ba 08 db 62 ba
       -0.0005874825 -0.0007193999 -0.00064618915 -0.0008653854
0000b0 c9 ce 40 ba 0e 67 73 ba ef 50 95 ba e3 3a 83 ba
       -0.0007355032 -0.00092850707 -0.0011391918 -0.0010012056
0000c0 9d 13 33 ba 43 50 6a ba 49 0a 87 ba 8c 16 4c ba
       -0.0006831231 -0.00089383515 -0.0010302748 -0.0007785342
0000d0 cc 20 88 ba 3b 2f 81 ba b7 e7 45 ba 3a 18 99 ba
       -0.0010385751 -0.0009855995 -0.0007549482 -0.0011680194
0000e0 50 ac 94 ba 4b 0a ac ba 10 ce 50 ba 0f dd 5d ba
       -0.0011342857 -0.0013125626 -0.0007965276 -0.0008463421

exp_avg_sq f4 [2, 30]
000000 3e 07 b0 3c ac e4 ad 3c 60 7f af 3c 68 b8 a4 3c
       0.021487828 0.021227203 0.021423042 0.020107463
000010 89 ae b3 3c 01 7d a8 3c b4 ea a2 3c ea 3b a7 3c
       0.02193381 0.020567419 0.019887306 0.020414311
000020 07 0a b2 3c 63 2c a8 3c b8 af 99 3c 55 28 a1 3c
       0.021733297 0.020528978 0.018760547 0.019672552
000030 1e 58 99 3c c7 59 96 3c 04 4d a5 3c 43 a8 a4 3c
       0.018718775 0.018353356 0.020178325 0.020099765
000040 59 a7 98 3c 4c 4d a5 3c 7d fb 9f 3c fc f3 99 3c
       0.018634485 0.02017846 0.019529099 0.018793099
000050 7c e7 ae 3c b6 33 b2 3c cc ce ad 3c c1 c3 a3 3c
       0.021350615 0.021753173 0.021216772 0.019990804
000060 60 34 b4 3c 71 2b a6 3c df b0 a5 3c 68 01 b5 3c
       0.02199763 0.020284386 0.02022594 0.022095397
000070 5d db a9 3c 34 dc a2 3c 3e 07 b0 3c ac e4 ad 3c
       0.020734483 0.019880392 0.021487828 0.021227203
000080 61 7f af 3c 69 b8 a4 3c 89 ae b3 3c 04 7d a8 3c
       0.021423044 0.020107465 0.02193381 0.020567425
000090 b4 ea a2 3c e9 3b a7 3c 07 0a b2 3c 63 2c a8 3c
       0.019887306 0.02041431 0.021733297 0.020528978
0000a0 b6 af 99 3c 54 28 a1 3c 1e 58 99 3c c7 59 96 3c
       0.018760543 0.01967255 0.018718775 0.018353356
0000b0 04 4d a5 3c 42 a8 a4 3c 59 a7 98 3c 4b 4d a5 3c
       0.020178325 0.020099763 0.018634485 0.020178458
0000c0 7b fb 9f 3c fc f3 99 3c 7c e7 ae 3c b5 33 b2 3c
       0.019529095 0.018793099 0.021350615 0.021753171
0000d0 cc ce ad 3c c0 c3 a3 3c 5f 34 b4 3c 71 2b a6 3c
       0.021216772 0.019990802 0.021997629 0.020284386
0000e0 dd b0 a5 3c 68 01 b5 3c 5d db a9 3c 33 dc a2 3c
       0.020225937 0.022095397 0.020734483 0.01988039

exp_avg f4 [2]
000000 29 46 a6 ba e3 45 a6 ba
       -0.0012685704 -0.0012685623

exp_avg_sq f4 [2]
000000 52 de 96 3c 52 de 96 3c
       0.018416557 0.018416557
