context/220719_mnist_ann_nothing_lr0.01/model.pt (torch, 105287 bytes, 8 tensors)

l1.weight f4 [10, 784]
0.013177177 0.01313816 -0.020264395 -0.011796761 -0.026283123 -0.024014082 0.044124085 0.038425464
0.017387174 0.04280224 -0.004017558 -0.011452107 0.03937991 0.0070754713 0.01572349 0.030031536
0.027737573 -0.0115325 -0.004894757 -0.02404325 0.010490783 -0.0038868294 0.016587142 0.010578848
0.039365087 0.011993244 0.026815288 0.02018695 0.04060408 -0.0059294314 0.03873804 0.034533348
-0.0053340737 0.03081871 0.042008188 -0.011069042 -0.00452173 0.03417833 0.039192393 0.018063964
0.018167822 0.035043374 0.042116284 -0.013573841 -0.0072818426 0.038715154 0.029435394 -0.0069356915
-0.0025235075 0.043974653 -0.013285615 0.031916186 0.029641416 -0.025334463 -0.026734222 0.020773344
0.026440285 0.040574368 0.013329287 0.032953814 -0.016465757 0.030362746 -0.024661278 0.03370152
0.017049778 0.041887853 0.039410174 0.003549791 0.03524299 0.047081467 0.05951622 0.031095415
0.044123463 0.04179708 0.033237167 0.07530986 0.054523546 0.038041398 0.0058591203 -0.017066639
0.017477736 0.04202949 0.024811957 -0.01991665 0.005750965 0.010367867 0.031605683 0.02367471
-0.015919846 -0.020198481 0.02811697 0.041213226 0.052283376 0.07815678 0.10066528 0.06461747
0.066357 0.13290252 0.16666573 0.117858835 0.13272771 0.19665715 0.20180744 0.15324411
0.100988984 0.09456607 0.023854716 0.01645126 0.0117990505 0.0019396315 0.023945697 0.009673005
-0.019221459 0.0054174387 0.012308188 0.03118099 0.013912192 0.012174378 0.051954478 0.07306822
0.092996396 0.09126476 0.14183535 0.118147664 0.08507559 -0.024335308 -0.06967336 -0.10018699
-0.072340205 -0.00085426564 0.022666426 0.09274669 0.079496875 0.07786831 0.091050655 0.065047555
0.072416514 0.013923298 0.034522995 -0.0002807679 0.012054693 0.020499676 -0.024292797 0.01623195
0.038517512 0.06142764 0.07384088 0.11711841 0.17716523 0.19726138 0.1360636 0.092933685
-0.077712685 -0.2343892 -0.36361226 -0.44498536 -0.4713003 -0.37815595 -0.275046 -0.13688742
-0.017760988 0.023620354 0.06457619 0.13266975 0.06768523 0.02405477 0.033737935 0.039355688
-0.0024975585 -0.026262049 0.044344105 0.031797778 0.056218255 0.05516019 0.103309795 0.16946428
0.22467878 0.21660906 0.1186721 0.053994916 -0.09103358 -0.24958341 -0.3578495 -0.45056927
-0.54670864 -0.57592547 -0.46701655 -0.31569913 -0.16289651 -0.13256858 -0.028501416 0.12444468
0.18369639 0.048662398 0.031207984 0.029372625 0.0050657685 0.01750628 0.03303133 -0.019454822
0.067044966 0.04888663 0.14023907 0.20536643 0.1975912 0.13708957 0.02960297 -0.04075365
-0.1105036 -0.19380327 -0.29357272 -0.42039815 -0.5642026 -0.63663775 -0.611324 -0.43330893
-0.26002902 -0.18789135 -0.12657881 0.052049812 0.18624328 0.07662687 0.004591235 -0.0010950572
0.016860928 -0.009327748 0.03011585 -0.0075380676 0.059595216 0.1269647 0.12943959 0.14979163
0.1457852 0.10535187 0.0016646328 -0.072271615 -0.1850711 -0.29109424 -0.36801884 -0.39182338
-0.5701361 -0.5982909 -0.64382076 -0.5085973 -0.36906672 -0.24939544 -0.2680337 -0.13096346
0.08089687 0.13075177 0.017898565 0.013923467 -0.020434232 0.0015539487 -0.01615251 -0.00028151588
00000000: 16e5 573c 7041 573c 8401 a6bc 3447 41bc
00000010: b44f d7bc 2eb9 c4bc 75bb 343d 0564 1d3d
00000020: 8c6f 8e3c 6751 2f3d b8a5 83bb 9ea1 3bbc
00000030: d44c 213d 5bd9 e73b 8cce 803c b204 f63c
00000040: e839 e33c d0f2 3cbc 3364 a0bb 5af6 c4bc
00000050: 88e1 2b3c 2dba 7ebb c2e1 873c e852 2d3c
00000060: 493d 213d 507f 443c bcab db3c 1a5f a53c
00000070: 7750 263d ad4b c2bb c7ab 1e3d d772 0d3d
00000080: 74c9 aebb 8577 fc3c c710 2c3d ed5a 35bc
00000090: 052b 94bb 94fe 0b3d 3488 203d e1fa 933c
000000a0: afd4 943c a489 0f3d 2082 2c3d d164 5ebc
000000b0: 869c eebb c893 1e3d 7f22 f13c cc44 e3bb
000000c0: 6e61 25bb c41e 343d e8ab 59bc 8cba 023d
000000d0: 8ed2 f23c 388a cfbc ba01 dbbc dc2c aa3c
000000e0: 4c99 d83c 4f31 263d 1563 5a3c 94fa 063d
000000f0: 32e3 86bc 4bbb f83c 7306 cabc 9b0a 0a3d
00000100: faab 8b3c 9992 2b3d 906c 213d 9ca3 683b
00000110: f45a 103d 7fd8 403d 48c7 733d d0bb fe3c
00000120: ceba 343d 6a33 2b3d b223 083d 0e3c 9a3d
00000130: 1554 5f3d 4cd1 1b3d ddfd bf3b 56cf 8bbc
00000140: 782d 8f3c 1d27 2c3d 7242 cb3c 3e28 a3bc
00000150: 9772 bc3b fcdd 293c f674 013d 77f1 c13c
00000160: 566a 82bc 4977 a5bc 8f55 e63c 33cf 283d
00000170: 1827 563d a910 a03d 9929 ce3d 2a56 843d
00000180: 2ee6 873d 9917 083e 6caa 2a3e f95f f13d
00000190: c6e9 073e 7e60 493e 9ca6 4e3e 06ec 1c3e
000001a0: 50d3 ce3d dbab c13d f76a c33c cbc4 863c
000001b0: ce50 413c 3c3b fe3a c429 c43c 867b 1e3c
000001c0: 5276 9dbc c584 b13b 48a8 493c 476f ff3c
000001d0: f6ef 633c 0b77 473c 38ce 543d caa4 953d
000001e0: e574 be3d 05e9 ba3d 493d 113e 67f7 f13d
000001f0: 1c3c ae3d d75a c7bc e8b0 8ebd d62e cdbd
00000200: 1a27 94bd ccf0 5fba f1ae b93c faf1 bd3d
00000210: 42cf a23d 6c79 9f3d c478 ba3d a737 853d
00000220: 1c4f 943d 8b1e 643c fc67 0d3d 0834 93b9
00000230: 0c81 453c f0ee a73c b001 c7bc def8 843c
00000240: 8ac4 1d3d 8d9b 7b3d e339 973d c7db ef3d
00000250: cd6a 353e e3fe 493e 4254 0b3e 0454 be3d
00000260: d427 9fbd b903 70be 632b babe 1fd5 e3be
00000270: 464e f1be a89d c1be d4d2 8cbe 372c 0cbe
00000280: 7e7f 91bc 797f c13c 8640 843d 94da 073e
00000290: 8e9e 8a3d 820e c53c ca30 0a3d 6e33 213d
000002a0: 14ae 23bb 8223 d7bc 2aa2 353d 633e 023d
000002b0: 1d45 663d a7ef 613d 1694 d33d 0b88 2d3e
000002c0: 3212 663e c4ce 5d3e 5c0a f33d c629 5d3d
000002d0: d06f babd cb92 7fbe 0d38 b7be 04b1 e6be
000002e0: 19f5 0bbf da6f 13bf cb1c efbe 51a3 a1be
000002f0: 58ce 26be 0fc0 07be cd7b e9bc dadc fe3d
00000300: e81a 3c3e 3952 473d e3a7 ff3c dc9e f03c
00000310: bffe a53b 5569 8f3c dc4b 073d b85f 9fbc
00000320: df4e 893d 593d 483d d59a 0f3e 944b 523e
00000330: 5955 4a3e 3561 0c3e ee81 f23c 4ded 26bd
00000340: b64f e2bd 5d74 46be 2a4f 96be 6d3e d7be
00000350: 956f 10bf b1fa 22bf bb7f 1cbf abda ddbe
00000360: 8622 85be 9766 40be e09d 01be 2f32 553d
00000370: 8fb6 3e3e 8cee 9c3d 1272 963b 0688 8fba
00000380: ee1f 8a3c 69d3 18bc 84b5 f63c e501 f7bb
00000390: 1d1a 743d 0903 023e d08b 043e fa62 193e
000003a0: b748 153e b9c2 d73d cf2f da3a 2403 94bd
000003b0: 4783 3dbe 4e0a 95be f76c bcbe 139d c8be
000003c0: 70f4 11bf 9829 19bf 70d1 24bf 6f33 02bf
000003d0: 50f6 bcbe 8561 7fbe b73b 89be 491b 06be
000003e0: 42ad a53d cbe3 053e 03a0 923c 411f 643c
000003f0: b165 a7bc dead cb3a 4552 84bc 6c98 93b9

l1.bias f4 [10]
0.00714543 0.17825426 -0.004600099 -0.03499109 0.0676655 -0.033228736 -0.057395473 -0.05503522
0.021793254 0.06822242
00000000: 3624 ea3b 4988 363e 6dbc 96bb d152 0fbd
00000010: 3694 8a3d db1a 08bd 8417 6bbd 9c6c 61bd
00000020: c487 b23c 32b8 8b3d

l2.weight f4 [10, 200]
0.008855525 -0.06766571 0.020178033 -0.0273849 0.070201576 0.032211877 0.033839326 -0.008606193
0.0625512 0.047489233 0.055603277 0.007643559 0.05319484 0.06166847 0.069152825 0.059917994
-0.048970897 0.031016314 0.026046198 -0.0185133 0.02883126 0.037439816 0.04310807 -0.06782551
0.029094579 -0.05948855 -0.03194298 -0.028772188 -0.0074926056 -0.02027153 -0.07060461 -0.006965155
-0.062200096 -0.058762293 -0.028876256 0.045998152 0.069437966 -0.022106688 -0.006423871 -0.033717927
0.00027534537 0.049444612 -0.0042729992 -0.06153371 0.022119232 0.03737628 0.0198563 0.06199649
0.013316719 -0.0039371564 0.00748904 0.03106641 0.041594397 -0.036700644 -0.022306861 -0.027858486
-0.023767216 0.015730148 0.024580954 -0.061808366 0.064413555 -0.037425164 0.0327261 -0.05285028
-0.020782763 -0.040092412 0.021727452 -0.06223709 -0.06773262 -0.02679701 0.06721161 0.06828532
0.0285574 0.004768891 -0.04286983 -0.023946028 -0.030066585 -0.023084091 -0.019747013 -0.059284613
0.031792607 -0.013033787 -0.04569859 -0.060556326 0.017828286 -0.0007629929 0.017997228 -0.06630861
0.014709133 0.017964404 -0.048640795 0.039595686 0.03287774 0.0061636902 0.02227714 -0.0057562566
0.057224557 0.008183316 -0.009837488 -0.05691559 0.04774133 -0.06312772 -0.013053815 -0.04775115
0.049409993 -0.06966349 0.04927483 -0.02229522 -0.06151798 0.04492253 -0.033078898 -0.050918505
0.022088313 0.03787808 -0.008962545 -0.03880114 -0.005274678 -0.0027576515 0.0063072005 -0.025089987
0.037062827 0.042874742 0.0644337 -0.06348587 -0.034740772 -0.0025261894 0.009739337 -0.052449495
0.03857288 0.002550289 -0.004351873 -0.04844906 0.05351566 -0.03087105 -0.0037030813 -0.029617207
-0.04698406 -0.003944507 -0.035643347 -0.018096872 -0.0020234282 -0.052364014 -0.047891803 0.039637815
-0.034981724 0.041770548 0.017230753 -0.068618 0.009538187 0.06477103 0.049967695 -0.026129605
0.037757013 -0.06776654 0.070215516 -0.026500018 -0.02245274 -0.011902785 -0.041349616 -0.049544632
-0.06359621 -0.013560707 0.018671779 -0.034310117 0.041046835 -0.0019040935 0.027297799 -0.0023336457
0.024254274 -0.020382587 0.05792453 0.05177228 0.0103140175 0.038246725 0.04882581 -0.036340825
-0.013133835 0.053525396 0.058393728 0.044352286 0.036541883 -0.0073280474 -0.027836131 0.06264158
0.011981709 0.050178044 0.030869044 0.024027893 -0.018768026 -0.04603107 0.033866193 0.05177353
-0.009346966 -0.0227915 -0.0635891 -0.036735684 0.051556524 0.0043337834 -0.00913758 -0.029687019
-0.05599122 -0.043550957 -0.029504085 0.0165203 -0.04509895 -0.062548205 -0.017443122 0.052874994
-0.064804725 0.04556512 0.046042155 -0.05826582 -0.04962507 -0.05097546 -0.061951958 0.00066996634
0.016657785 0.0072585894 0.016531572 -0.03301667 0.048805665 -0.054518864 -0.014989519 0.06525382
0.014640871 -0.06643479 0.050441932 0.013412679 0.055939633 0.011690576 -0.050156448 0.0046542007
0.0039746333 -0.053132918 -0.05572515 -0.049642332 0.035062596 -0.04262677 -0.038609236 0.034376245
0.065100126 -0.035789277 0.02634399 0.011240632 -0.030397834 -0.05142821 -0.056233414 -0.017794788
-0.06500572 -0.0046957154 0.054719746 -0.063323 -0.05939506 -0.045665286 -0.06506453 0.0043352083
00000000: c416 113c 5294 8abd 674c a53c 4c56 e0bc
00000010: d8c5 8f3d 9af0 033d 1b9b 0a3d fd00 0dbc
00000020: d81a 803d 1284 423d 43c0 633d d276 fa3b
00000030: d5e2 593d 1498 7c3d ff9f 8d3d 926c 753d
00000040: b595 48bd ed15 fe3c d65e d53c 34a9 97bc
00000050: 892f ec3c 7e5a 193d 1692 303d 1ae8 8abd
00000060: c157 ee3c 44aa 73bd a4d6 02bd a7b3 ebbc
00000070: 8884 f5bb 7b10 a6bc 2699 90bd f43b e4bb
00000080: 87c5 7ebd bbb0 70bd e68d ecbc 8f68 3c3d
00000090: 7e35 8e3d 1619 b5bc 567f d2bb cf1b 0abd
000000a0: 3b5c 9039 6f86 4a3d 8404 8cbb c60a 7cbd
000000b0: 6433 b53c df17 193d aea9 a23c 08f0 7d3d
000000c0: 5e2e 5a3c 4303 81bb 9f66 f53b fc7e fe3c
000000d0: e35e 2a3d 6a53 16bd e1bc b6bc 7b37 e4bc
000000e0: 77b3 c2bc 83dc 803c ff5d c93c c52a 7dbd
000000f0: 41eb 833d 214b 19bd ce0b 063d 8979 58bd
00000100: 9d40 aabc f137 24bd c5fd b13c 52ec 7ebd
00000110: 66b7 8abd 6785 dbbc 3ea6 893d 2dd9 8b3d
00000120: 35f1 e93c 5b44 9c3b 4698 2fbd 762a c4bc
00000130: 334e f6bc d91a bdbc 7dc4 a1bc 6cd4 72bd
00000140: f738 023d aa8b 55bc 722e 3bbd e909 78bd
00000150: a00c 923c 9603 48ba ec6e 933c cfcc 87bd
00000160: 93fe 703c 162a 933c 923b 47bd 162f 223d
00000170: cfaa 063d c8f8 c93b 8c7e b63c fb9e bcbb
00000180: 4c64 6a3d 5113 063c 6a2d 21bc 5220 69bd
00000190: 6a8c 433d 1b49 81bd abdf 55bc b696 43bd
000001a0: 2262 4a3d bbab 8ebd 67d4 493d 77a4 b6bc
000001b0: 47fa 7bbd b000 383d bd7d 07bd ec8f 50bd
000001c0: 8df2 b43c 0c26 1b3d a3d7 12bc f2ed 1ebd
000001d0: 35d7 acbb b7b9 34bb a2ac ce3b 8489 cdbc
000001e0: 31cf 173d 6d9d 2f3d d1f5 833d e104 82bd
000001f0: 574c 0ebd 6d8e 25bb bd91 1f3c 48d5 56bd
00000200: 99fe 1d3d c022 273b 289a 8ebb 8672 46bd
00000210: 3d33 5b3d 49e5 fcbc 65af 72bb c99f f2bc
00000220: 5c72 40bd ec40 81bb c2fe 11bd e43f 94bc
00000230: 7e9b 04bb a67b 56bd 322a 44bd 435b 223d
00000240: ff48 0fbd 9817 2b3d 8227 8d3c 9887 8cbd
00000250: 0e46 1c3c aca6 843d edaa 4c3d c10d d6bc
00000260: 19a7 1a3d 2fc9 8abd 27cd 8f3d 9116 d9bc
00000270: cfee b7bc e603 43bc 375e 29bd 50ef 4abd
00000280: bb3e 82bd ba2d 5ebc 8ff5 983c c488 0cbd
00000290: ba20 283d c792 f9ba a29f df3c 14f0 18bb
000002a0: e6b0 c63c 62f9 a6bc 4642 6d3d 2c0f 543d
000002b0: 20fc 283c 99a8 1c3d 93fd 473d 1eda 14bd
000002c0: 4c2f 57bc 723d 5b3d 432e 6f3d beaa 353d
000002d0: f1ac 153d 1e20 f0bb 9908 e4bc 3b4a 803d
000002e0: ee4e 443c 7e87 4d3d 14e1 fc3c 25d6 c43c
000002f0: 67bf 99bc 138b 3cbd 47b7 0a3d 7b10 543d
00000300: 0424 19bc 3db5 babc 013b 82bd 2878 16bd
00000310: ef2c 533d 6902 8e3b cab5 15bc 3132 f3bc
00000320: 0d57 65bd 7d62 32bd 8db2 f1bc 9555 873c
00000330: adb9 38bd 4619 80bd e1e4 8ebc 7393 583d
00000340: 57b8 84bd 7ea2 3a3d b396 3c3d 24a8 6ebd
00000350: a843 4bbd a5cb 50bd 56c1 7dbd aea0 2f3a
00000360: e875 883c 76d9 ed3b 386d 873c 7d3c 07bd
00000370: 73e8 473d 2c4f 5fbd 9996 75bc cba3 853d
00000380: 44e0 6f3c f70e 88bd 339c 4e3d dac0 5b3c
00000390: f520 653d d489 3f3c d970 4dbd 4482 983b
000003a0: a43d 823b e7a1 59bd 0e40 64bd c255 4bbd
000003b0: cc9d 0f3d 6899 2ebd b824 1ebd 1bce 0c3d
000003c0: 3753 853d c797 12bd 5acf d73c a12a 383c
000003d0: e104 f9bc 63a6 52bd 0255 66bd 60c6 91bc
000003e0: b821 85bd 84de 99bb d021 603d 7daf 81bd
000003f0: 3c48 73bd 860b 3bbd 8d40 85bd 5d0e 8e3b

l2.bias f4 [10]
0.049186807 -0.032922834 -0.06852752 0.029306198 -0.00787352 -0.02464462 0.05122091 0.031887997
-0.014554833 -0.046871226
00000000: 1b78 493d 18da 06bd 2858 8cbd 8d13 f03c
00000010: f0ff 00bc 84e3 c9bc 04cd 513d fd9c 023d
00000020: 6577 6ebc 0bfc 3fbd

exp_avg f4 [10, 784]
0.00036167982 0.00036167982 0.00036167982 0.00036167982 0.00036167982 0.00036167982 0.00036167982 0.00036167982
0.00036167982 0.00036167982 0.00036167982 0.00036167982 0.00036167982 0.00036167982 0.00036167982 0.00036167982
0.00036167982 0.00036167982 0.00036167982 0.00036167982 0.00036167982 0.00036167982 0.00036167982 0.00036167982
0.00036167982 0.00036167982 0.00036167982 0.00036167982 0.00036167982 0.00036167982 0.00036167982 0.00036167982
0.00036167982 0.00036167982 0.00036167982 0.00036167982 0.0003616686 0.00036166955 0.0003616589 0.00036943064
0.00037465498 0.0003679953 0.00036094055 0.0003612938 0.0003616168 0.00036159655 0.00036159728 0.0003616516
0.0003616792 0.00036167962 0.00036167982 0.00036167982 0.00036167982 0.00036167982 0.00036167982 0.00036167982
0.00036167982 0.00036167982 0.00036167982 0.00036168014 0.00036167877 0.00036162263 0.00036028147 0.0003602481
0.00036092807 0.0003589681 0.0003581573 0.00036042242 0.00036652357 0.0003449992 0.00031510924 0.00032800977
0.0003426327 0.00034054118 0.00035328435 0.00035480323 0.00035815022 0.0003591077 0.00035960277 0.00036077894
0.0003616637 0.0003616795 0.00036167982 0.00036167982 0.00036167982 0.00036167982 0.00036167982 0.00036168087
0.00036172193 0.0003615193 0.00035950614 0.00035779225 0.00035644232 0.00034953776 0.00034302808 0.0003346633
0.000310833 0.0002703804 0.00027590903 0.00029705232 0.0002766388 0.00021728549 0.0002212184 0.0002600626
0.00032046763 0.00031936547 0.00032341934 0.00034095877 0.00035670443 0.00036006956 0.00036148296 0.00036167982
0.00036167982 0.00036167982 0.00036166632 0.0003616863 0.00036141902 0.00035694547 0.0003351015 0.00032993843
0.00030880628 0.00027982699 0.00027048387 0.00032455064 0.00027044056 0.00029053088 0.0003238605 0.00037204172
0.00029000847 0.00031860356 0.00036930674 0.00036564074 0.000370346 0.00034188788 0.00031743236 0.0003134202
0.00033689322 0.0003559824 0.00035887724 0.00036167982 0.00036167982 0.00036167982 0.0003616313 0.0003618502
0.00036033813 0.00032481443 0.00031273614 0.00027684303 0.00022302748 0.00021353494 0.00026584108 0.00026475947
0.0003064014 0.0004183923 0.0004443889 0.0006132796 0.0006328482 0.00072488975 0.00068682653 0.00059256464
0.0005229993 0.00047044235 0.00037812276 0.00030545937 0.00030614395 0.00034633576 0.00035869147 0.0003616594
0.00036167982 0.00036167982 0.0003616616 0.0003609238 0.00035891685 0.00031251274 0.00028886143 0.00023730377
0.00021620546 0.00019346955 0.00027111697 0.0001966026 0.00028594534 0.00042702942 0.0005555403 0.0006313657
0.00074851076 0.0008049715 0.00078735716 0.0007619098 0.0005816177 0.0005189505 0.00045812083 0.0003297117
0.0002820279 0.00033685451 0.000353468 0.00036062274 0.00036167982 0.0003616138 0.00036155095 0.00036091058
0.0003558671 0.00031664615 0.00026697674 0.00023389581 0.00021963731 0.00024458658 0.00022860477 0.00017877766
0.0002864006 0.00045074127 0.0005544957 0.0005677651 0.000554847 0.0007353605 0.0007487577 0.00069049664
0.0005895681 0.00052807026 0.00050320686 0.000399199 0.00027189695 0.0003066919 0.00034517585 0.0003584705
0.00036167982 0.0003616706 0.00036131855 0.00036200366 0.00035351777 0.00032424257 0.00025740967 0.00025278685
0.00023868168 0.00034269728 0.00028310047 0.00030928478 0.00045071458 0.0005953334 0.0005719301 0.0004690856
0.0005557951 0.0005745341 0.00057945045 0.0005858035 0.00059418933 0.0005357617 0.0005433448 0.00047509148
0.00026157784 0.00029957344 0.00035011824 0.00036142723 0.00036167982 0.0003616168 0.0003614535 0.00036419954
00000000: d89f bd39 d89f bd39 d89f bd39 d89f bd39
00000010: d89f bd39 d89f bd39 d89f bd39 d89f bd39
00000020: d89f bd39 d89f bd39 d89f bd39 d89f bd39
00000030: d89f bd39 d89f bd39 d89f bd39 d89f bd39
00000040: d89f bd39 d89f bd39 d89f bd39 d89f bd39
00000050: d89f bd39 d89f bd39 d89f bd39 d89f bd39
00000060: d89f bd39 d89f bd39 d89f bd39 d89f bd39
00000070: d89f bd39 d89f bd39 d89f bd39 d89f bd39
00000080: d89f bd39 d89f bd39 d89f bd39 d89f bd39
00000090: 569e bd39 779e bd39 099d bd39 24b0 c139
000000a0: 576d c439 7eef c039 9f3c bd39 086c bd39
000000b0: 6397 bd39 ab94 bd39 c494 bd39 0e9c bd39
000000c0: c39f bd39 d19f bd39 d89f bd39 d89f bd39
000000d0: d89f bd39 d89f bd39 d89f bd39 d89f bd39
000000e0: d89f bd39 d89f bd39 d89f bd39 e39f bd39
000000f0: b49f bd39 2b98 bd39 29e4 bc39 aedf bc39
00000100: f23a bd39 e233 bc39 0fc7 bb39 14f7 bc39
00000110: f629 c039 02e1 b439 3f35 a539 baf8 ab39
00000120: 62a3 b339 aa8a b239 0639 b939 e204 ba39
00000130: 1cc6 bb39 9f46 bc39 1189 bc39 ee26 bd39
00000140: ae9d bd39 cd9f bd39 d89f bd39 d89f bd39
00000150: d89f bd39 d89f bd39 d89f bd39 fc9f bd39
00000160: 7fa5 bd39 4d8a bd39 197c bc39 1096 bb39
00000170: e1e0 ba39 2a42 b739 73d8 b339 bf75 af39
00000180: 4df7 a239 d8c1 8d39 e2a7 9039 b0bd 9b39
00000190: d509 9139 21d7 6339 ddf6 6739 0359 8839
000001a0: 7004 a839 8270 a739 9c90 a939 b6c2 b239
000001b0: 0f04 bb39 b8c7 bc39 6c85 bd39 d89f bd39
000001c0: d89f bd39 d89f bd39 089e bd39 b7a0 bd39
000001d0: d77c bd39 6924 bb39 90b0 af39 96fb ac39
000001e0: 47e7 a139 beb5 9239 bbcf 8d39 7328 aa39
000001f0: ebc9 8d39 6552 9839 d2cb a939 980e c339
00000200: 470c 9839 3f0a a739 839f c139 78b3 bf39
00000210: 002b c239 6a3f b339 0d6d a639 8c52 a439
00000220: 0ba1 b039 26a3 ba39 b027 bc39 d89f bd39
00000230: d89f bd39 d89f bd39 5599 bd39 b6b6 bd39
00000240: c4eb bc39 db4b aa39 bcf6 a339 3e25 9139
00000250: 7cdc 6939 59e8 5f39 9660 8b39 6acf 8a39
00000260: 80a4 a039 aa5b db39 defc e839 7fc4 203a
00000270: b9e5 253a 8706 3e3a 260c 343a 5756 1b3a
00000280: e419 093a b4a5 f639 c73e c639 1026 a039
00000290: f281 a039 6694 b539 c10e bc39 1a9d bd39
000002a0: d89f bd39 d89f bd39 669d bd39 5f3a bd39
000002b0: 012d bc39 c0d8 a339 5372 9739 bfd4 7839
000002c0: 36b5 6239 16de 4a39 b424 8e39 1c27 4e39
000002d0: efea 9539 ebe2 df39 aea1 113a 3c82 253a
000002e0: b537 443a b904 533a a566 4e3a e7ba 473a
000002f0: b477 183a 2e0a 083a f02f f039 28dd ac39
00000300: 25dd 9339 d99b b039 ac51 b939 f711 bd39
00000310: d89f bd39 fc96 bd39 8c8e bd39 9938 bd39
00000320: ac93 ba39 8703 a639 03f9 8b39 ee41 7539
00000330: 714e 6639 db3b 8039 a0b5 6f39 4376 3b39
00000340: 0a28 9639 7851 ec39 945b 113a 12d6 143a
00000350: 2773 113a 35c5 403a 4748 443a 7202 353a
00000360: 3f8d 1a3a 326e 0a3a a4e9 033a 954b d139
00000370: 648d 8e39 7dcb a039 b8f8 b439 19f1 bb39
00000380: d89f bd39 9b9e bd39 5b6f bd39 4fcb bd39
00000390: 5a58 b939 1aff a939 f1f4 8639 7a88 8439
000003a0: a046 7a39 0dac b339 1a6d 9439 8027 a239
000003b0: e34d ec39 2610 1c3a 94ed 153a 9aef f539
000003c0: c7b2 113a 559c 163a 43e6 173a 9b90 193a
000003d0: 5fc3 1b3a 5c72 0c3a 416f 0e3a b315 f939
000003e0: 6224 8939 1110 9d39 1390 b739 f17d bd39
000003f0: d89f bd39 6397 bd39 7881 bd39 09f2 be39

exp_avg_sq f4 [10, 784]
0.00027693788 0.00027693788 0.00027693788 0.00027693788 0.00027693788 0.00027693788 0.00027693788 0.00027693788
0.00027693788 0.00027693788 0.00027693788 0.00027693788 0.00027693817 0.00027693846 0.00027693794 0.00027693788
0.00027693788 0.00027693788 0.00027693788 0.00027693788 0.00027693788 0.00027693788 0.00027693788 0.00027693788
0.00027693788 0.00027693788 0.00027693788 0.00027693788 0.00027693788 0.00027693788 0.00027693788 0.00027693788
0.00027693805 0.0002769384 0.00027694358 0.00027694885 0.00027694766 0.0002769524 0.00027696058 0.00027697507
0.00027700057 0.00027701506 0.00027699486 0.00027702076 0.00027708357 0.00027702728 0.00027696235 0.0002769524
0.00027694687 0.00027694175 0.00027694085 0.00027693942 0.00027693788 0.00027693788 0.00027693788 0.00027693788
0.00027693788 0.00027693788 0.00027693808 0.0002769375 0.00027694102 0.00027694006 0.00027695467 0.00027703436
0.00027704635 0.00027710732 0.00027718555 0.00027731012 0.0002775198 0.00027783992 0.00027793934 0.000277916
0.0002779415 0.00027781984 0.00027773358 0.00027756928 0.0002772964 0.0002771647 0.00027706227 0.00027697952
0.00027695147 0.000276939 0.00027693788 0.00027693788 0.00027693788 0.00027693788 0.00027693843 0.00027693715
0.00027693817 0.00027698404 0.00027706614 0.00027730703 0.00027752286 0.00027799117 0.0002784853 0.00027929555
0.00028041442 0.0002814417 0.00028233434 0.0002827428 0.00028286804 0.0002823624 0.0002815586 0.00028063642
0.00027946592 0.00027864255 0.00027789807 0.0002774163 0.00027708945 0.00027696675 0.0002769416 0.00027693788
0.00027693788 0.00027693794 0.00027693927 0.00027694477 0.00027699163 0.00027720752 0.0002776029 0.00027834534
0.0002794632 0.0002814367 0.00028435496 0.00028792393 0.0002928357 0.00029794488 0.0003021785 0.00030497415
0.0003050206 0.00030250615 0.00029870265 0.00029450364 0.0002894004 0.00028481171 0.00028154947 0.00027902512
0.00027777956 0.00027716687 0.0002769579 0.0002769389 0.00027693788 0.00027693788 0.00027694457 0.00027696296
0.00027714853 0.000277678 0.0002785891 0.0002803443 0.00028321324 0.00028766965 0.0002939842 0.0003022843
0.0003121362 0.00032250927 0.00033119306 0.00033655844 0.0003370771 0.0003335318 0.00032584878 0.00031582886
0.00030522968 0.00029539852 0.00028785967 0.00028241493 0.00027906607 0.000277462 0.00027704594 0.00027695135
0.00027693788 0.00027693796 0.00027694448 0.00027700764 0.0002774122 0.00027834988 0.0002800425 0.00028317954
0.00028836413 0.00029631215 0.00030623042 0.00031777663 0.00033035188 0.00034210994 0.00035040843 0.0003560504
0.00035717708 0.00035427208 0.0003458621 0.00033369 0.00032013815 0.00030680027 0.00029588395 0.00028666542
0.00028083727 0.00027822677 0.00027731044 0.00027699597 0.00027693788 0.00027694265 0.00027695164 0.00027710415
0.00027769437 0.00027903164 0.0002817863 0.00028704942 0.00029502567 0.00030570047 0.00031855403 0.0003322144
0.00034380573 0.00035205108 0.00035677775 0.00035844534 0.00035910303 0.00035839062 0.0003531286 0.00034305942
0.00032978164 0.00031650424 0.00030322597 0.00029125015 0.00028269336 0.0002789119 0.0002773739 0.00027697807
0.0002769372 0.00027694384 0.0002769936 0.0002773062 0.0002780386 0.00027989695 0.0002841497 0.0002921637
0.00030241167 0.00031527277 0.0003296191 0.00034160627 0.00034939608 0.0003525202 0.00035102663 0.00034876217
0.0003476617 0.00034837992 0.00034792075 0.00034285057 0.00033368662 0.00032179235 0.00030774446 0.000294184
0.0002838739 0.0002791336 0.00027733165 0.00027696064 0.00027693843 0.0002769472 0.0002770131 0.00027745843
00000000: f931 9139 f931 9139 f931 9139 f931 9139
00000010: f931 9139 f931 9139 f931 9139 f931 9139
00000020: f931 9139 f931 9139 f931 9139 f931 9139
00000030: 0332 9139 0d32 9139 fb31 9139 f931 9139
00000040: f931 9139 f931 9139 f931 9139 f931 9139
00000050: f931 9139 f931 9139 f931 9139 f931 9139
00000060: f931 9139 f931 9139 f931 9139 f931 9139
00000070: f931 9139 f931 9139 f931 9139 f931 9139
00000080: ff31 9139 0b32 9139 bd32 9139 7233 9139
00000090: 4933 9139 ec33 9139 0535 9139 f736 9139
000000a0: 633a 9139 553c 9139 9f39 9139 193d 9139
000000b0: 8745 9139 f93d 9139 4235 9139 ec33 9139
000000c0: 2e33 9139 7e32 9139 5f32 9139 2e32 9139
000000d0: f931 9139 f931 9139 f931 9139 f931 9139
000000e0: f931 9139 f931 9139 0032 9139 ec31 9139
000000f0: 6532 9139 4432 9139 3a34 9139 ec3e 9139
00000100: 8840 9139 b748 9139 3753 9139 ef63 9139
00000110: 1480 9139 0bab 9139 63b8 9139 41b5 9139
00000120: adb8 9139 59a8 9139 c59c 9139 b886 9139
00000130: 1862 9139 6b50 9139 ab42 9139 9037 9139
00000140: cc33 9139 2032 9139 f931 9139 f931 9139
00000150: f931 9139 f931 9139 0c32 9139 e031 9139
00000160: 0332 9139 2b38 9139 3043 9139 8563 9139
00000170: 7d80 9139 58bf 9139 aa01 9239 6a6e 9239
00000180: 9604 9339 778e 9339 4606 9439 193d 9439
00000190: e84d 9439 0a0a 9439 289e 9339 6222 9339
000001a0: 4885 9239 c516 9239 d9b2 9139 2f72 9139
000001b0: 5146 9139 d935 9139 7932 9139 f931 9139
000001c0: f931 9139 fb31 9139 2932 9139 e632 9139
000001d0: 3039 9139 2a56 9139 3b8b 9139 e1ee 9139
000001e0: ea84 9239 cb8d 9339 7a15 9539 7ff4 9639
000001f0: be87 9939 7c35 9c39 b66d 9e39 f0e4 9f39
00000200: 2ceb 9f39 b099 9e39 319b 9c39 9c67 9a39
00000210: aaba 9739 c852 9539 ee9c 9339 1e4a 9239
00000220: f1a2 9139 b550 9139 a934 9139 1c32 9139
00000230: f931 9139 f931 9139 df32 9139 5735 9139
00000240: 3f4e 9139 4f95 9139 990f 9239 2dfb 9239
00000250: 3d7c 9439 5ed2 9639 e421 9a39 e97b 9e39
00000260: 36a6 a339 7616 a939 fba3 ad39 1c74 b039
00000270: b9b9 b039 e1dd ae39 afd6 aa39 d595 a539
00000280: 3c07 a039 b8df 9a39 dfeb 9639 1711 9439
00000290: 9d4f 9239 5278 9139 7a40 9139 c833 9139
000002a0: f931 9139 fc31 9139 dc32 9139 563b 9139
000002b0: a371 9139 7def 9139 abd2 9239 b777 9439
000002c0: 942f 9739 585a 9b39 8d8d a039 429b a639
000002d0: 1433 ad39 385d b339 06b7 b739 47ac ba39
000002e0: 7f43 bb39 98bd b939 d354 b539 1df3 ae39
000002f0: 37d8 a739 09da a039 df20 9b39 954b 9639
00000300: 573d 9339 f7de 9139 fa63 9139 c539 9139
00000310: f931 9139 9d32 9139 d233 9139 4a48 9139
00000320: 8297 9139 fe4a 9239 b8bc 9339 1f7f 9639
00000330: adad 9a39 6c46 a039 9903 a739 102d ae39
00000340: d340 b439 7f93 b839 e60d bb39 b8ed bb39
00000350: fe45 bc39 60e6 bb39 1e24 b939 a8dc b339
00000360: 8be6 ac39 7bf0 a539 4dfa 9e39 efb2 9839
00000370: 7636 9439 ec3a 9239 7f6c 9139 5e37 9139
00000380: e231 9139 c632 9139 7439 9139 6863 9139
00000390: b6c5 9139 22bf 9239 edf9 9439 8c2d 9939
000003a0: 028d 9e39 324b a539 bad0 ac39 9e19 b339
000003b0: 262f b739 76d2 b839 ff09 b839 11da b639
000003c0: 5d46 b639 c3a6 b639 2269 b639 a0c0 b339
000003d0: a9f2 ae39 3db6 a839 c358 a139 b53c 9a39
000003e0: e9d4 9439 ad58 9239 d366 9139 0735 9139
000003f0: 0c32 9139 3933 9139 123c 9139 d777 9139

exp_avg f4 [10]
0.0003682023 0.0012448792 0.0004304301 -0.0015453382 0.0016873227 -0.001818576 -0.0013328482 0.0010645438
0.00053708884 -0.0021380247
00000000: 470b c139 372b a33a 5aab e139 f28c caba
00000010: 2829 dd3a 495d eeba f7b2 aeba 2a88 8b3a
00000020: 6ccb 0c3a 1a1e 0cbb

exp_avg_sq f4 [10]
0.00028701685 0.00040457473 0.00066911883 0.0007538998 0.0007032605 0.0010690452 0.000388545 0.00049981446
0.0008861039 0.0010179854
00000000: c07a 9639 1a1d d439 ce67 2f3a 5ca1 453a
00000010: 035b 383a 341f 8c3a a1b5 cb39 fb05 033a
00000020: 6d49 683a ec6d 853a
