context/220318_tskone_direct_lr0.3/model.pt (torch, 3223 bytes, 6 tensors)

l1_w f4 [2, 34]
0.17634162 1.0057508 -0.10271253 0.14454192 1.334415 -0.12649198 -0.81689477 -1.1989619
1.5151904 2.5695822 1.038388 2.3022215 1.3321362 1.3898959 2.6662192 1.1934447
2.1634524 1.1732419 2.6178224 2.166996 -0.51808244 0.5891784 -0.53289413 -0.34396195
1.1533225 0.17172723 -0.34159836 -1.3868948 1.5439799 1.341854 -0.82206535 -3.8124642
-0.06063938 2.620227 -1.0708563 -0.5179196 -1.4134265 -1.0258065 0.22765982 -1.315276
-2.3093996 -2.5815523 0.21070045 0.8668068 -0.37492463 1.1144984 -0.12790653 -0.08958642
1.1413633 -0.15191512 0.54445654 -0.028598448 1.3512986 0.73375714 -2.0715716 -0.69418937
-1.8604267 -1.5775814 -0.3787137 -1.1196593 -1.9334936 -2.704665 -0.18393163 0.11094886
-2.3116746 -5.1306725 -1.2817823 0.9829297
00000000: e692 343e 71bc 803f f25a d2bd cc02 143e
00000010: 1cce aa3f 1d87 01be 0420 51bf 9577 99bf
00000020: c2f1 c13f 0974 2440 e6e9 843f 9957 1340
00000030: 7083 aa3f 1ce8 b13f 56a3 2a40 ccc2 983f
00000040: 0176 0a40 ca2c 963f 678a 2740 10b0 0a40
00000050: 0da1 04bf 65d4 163f c06b 08bf c81b b0be
00000060: 12a0 933f 43d9 2f3e fbe5 aebe c585 b1bf
00000070: 22a1 c53f dfc1 ab3f e072 52bf 6aff 73c0
00000080: 0061 78bd cdb1 2740 d211 89bf 6196 04bf
00000090: 29eb b4bf a14d 83bf a81f 693e f75a a8bf
000000a0: 34cd 13c0 2738 25c0 dcc1 573e 0de7 5d3f
000000b0: 1ff6 bfbe e2a7 8e3f eef9 02be 1679 b7bd
000000c0: 3118 923f a38f 1bbe 8161 0b3f 4b47 eabc
000000d0: 5af7 ac3f 82d7 3b3f a194 04c0 65b6 31bf
000000e0: 7622 eebf 30ee c9bf c3e6 c1be ff50 8fbf
000000f0: b87c f7bf 3b19 2dc0 9358 3cbe 2839 e33d
00000100: 7af2 13c0 782e a4c0 7111 a4bf 48a1 7b3f

l1_b f4 [2]
2.8295174 1.4198847
00000000: d016 3540 c8be b53f

exp_avg f4 [2, 34]
0.00028052484 -9.0269015e-05 0.0005217535 0.0001834728 -0.0010452154 0.0013306243 0.0029329157 0.0032738622
-0.0009265787 -0.0020679983 -0.00060642516 -0.0020752943 -0.0007231256 -0.001206782 -0.0024485043 -0.00013600603
-0.0019966746 -0.0006497491 -0.0027203828 -0.002178869 0.0014356425 0.0005430185 0.0015736887 0.0011377649
-0.00012351465 0.0010385966 0.0019886931 0.0035353422 -0.0009686498 -0.0007183307 0.0028955766 0.0053125224
-0.0012806766 -0.0037421891 0.00028054442 -9.025006e-05 0.000521773 0.00018349176 -0.0010451961 0.001330643
0.002932934 0.0032738808 -0.00092655927 -0.0020679794 -0.00060640706 -0.0020752756 -0.0007231074 -0.001206764
-0.0024484857 -0.00013598758 -0.0019966564 -0.0006497304 -0.0027203641 -0.0021788508 0.0014356619 0.0005430379
0.0015737081 0.0011377838 -0.00012349502 0.0010386154 0.001988712 0.0035353615 -0.0009686307 -0.000718312
0.0028955967 0.005312542 -0.0012806568 -0.0037421675
00000000: 6813 9339 cf4e bdb8 49c6 083a 9b62 4039
00000010: 9cff 88ba 5868 ae3a 2936 403b 4b8e 563b
00000020: a5e5 72ba 4187 07bb 81f8 1eba a901 08bb
00000030: 2390 3dba e22c 9eba 1677 20bb d79c 0eb9
00000040: a4da 02bb ed53 2aba 7348 32bb 5bcb 0ebb
00000050: 2b2c bc3a 5b59 0e3a 3b44 ce3a 0e21 953a
00000060: b683 01b9 8521 883a bc54 023b 33b1 673b
00000070: fdec 7dba 5b4e 3cba b7c3 3d3b ab14 ae3b
00000080: 60dc a7ba 843f 75bb 0916 9339 a244 bdb8
00000090: 98c7 083a b267 4039 f6fe 88ba f868 ae3a
000000a0: 7836 403b 9b8e 563b 57e4 72ba f086 07bb
000000b0: 4af7 1eba 5901 08bb eb8e 3dba 482c 9eba
000000c0: c676 20bb e397 0eb9 56da 02bb ab52 2aba
000000d0: 2348 32bb 0dcb 0ebb d22c bc3a a85a 0e3a
000000e0: e244 ce3a b021 953a 717e 01b9 2622 883a
000000f0: 0d55 023b 86b1 673b b5eb 7dba 1a4d 3cba
00000100: 0dc4 3d3b d514 ae3b b6db a7ba 273f 75bb

exp_avg_sq f4 [2, 34]
0.0069593643 0.0069205915 0.0069418414 0.0065493826 0.007168619 0.006701996 0.0065101497 0.0066706496
0.0071054613 0.006758171 0.006166348 0.006460583 0.0061434265 0.0060157557 0.0067107724 0.00655497
0.0060775755 0.006573793 0.0064188703 0.0061553414 0.006931014 0.0070505356 0.006888477 0.0065345997
0.0071924287 0.006567271 0.006551216 0.0071305134 0.006721508 0.0064764577 0.007994695 0.0067162835
0.0070953756 0.008174996 0.0069593634 0.0069205915 0.0069418405 0.006549382 0.007168619 0.006701996
0.0065101497 0.0066706496 0.0071054623 0.006758171 0.0061663482 0.006460584 0.006143427 0.0060157557
0.0067107724 0.006554971 0.006077576 0.006573793 0.0064188703 0.0061553414 0.0069310158 0.0070505366
0.006888477 0.0065345997 0.0071924287 0.006567272 0.0065512154 0.0071305134 0.006721508 0.0064764586
0.0079946965 0.0067162854 0.0070953756 0.008174996
00000000: 610b e43b 21c6 e23b 6378 e33b 349c d63b
00000010: bce6 ea3b 6b9c db3b 1853 d53b 7795 da3b
00000020: eed4 e83b a673 dd3b 130f ca3b 4cb3 d33b
00000030: cc4e c93b d11f c53b 0ae6 db3b 13cb d63b
00000040: 6626 c73b f968 d73b 6355 d23b bfb2 c93b
00000050: 8f1d e33b 2e08 e73b bcb8 e13b 3220 d63b
00000060: 77ae eb3b 4332 d73b 95ab d63b 15a7 e93b
00000070: 1940 dc3b 7738 d43b 2efc 023c 4514 dc3b
00000080: 5380 e83b 6bf0 053c 5f0b e43b 21c6 e23b
00000090: 6178 e33b 339c d63b bce6 ea3b 6b9c db3b
000000a0: 1853 d53b 7795 da3b f0d4 e83b a673 dd3b
000000b0: 140f ca3b 4eb3 d33b cd4e c93b d11f c53b
000000c0: 0ae6 db3b 15cb d63b 6726 c73b f968 d73b
000000d0: 6355 d23b bfb2 c93b 931d e33b 3008 e73b
000000e0: bcb8 e13b 3220 d63b 77ae eb3b 4532 d73b
000000f0: 94ab d63b 15a7 e93b 1940 dc3b 7938 d43b
00000100: 30fc 023c 4914 dc3b 5380 e83b 6bf0 053c

exp_avg f4 [2]
-0.0033993963 -0.003399404
00000000: 68c8 5ebb 89c8 5ebb

exp_avg_sq f4 [2]
0.006006435 0.0060064355
00000000: a1d1 c43b a2d1 c43b
