context/220318_tskone_direct_lr0.3/model.pt (torch, 3663 bytes, 6 tensors)

l1_w f4 [2, 34]
0	0x3f9721b9	1.1807166
1	0x3f18b6f1	0.59654146
2	0x3f70ef47	0.9411511
3	0x3f8b893e	1.0901258
4	0x3f780ef0	0.9689779
5	0x3ee0858c	0.43851888
6	0x3e64dd1e	0.22349975
7	0xbd748b4a	-0.05970315
8	0x3f9e89b8	1.2385778
9	0x3fc34f3b	1.5258554
10	0x3f2263cf	0.63433546
11	0x3f8ad9c5	1.0847708
12	0x3f81afed	1.0131813
13	0x3faaa7e0	1.3332481
14	0x3fdb8457	1.7149762
15	0x3f8fcbd6	1.1234081
16	0x4000de76	2.013578
17	0x3f397d4c	0.7245681
18	0x3fc358bc	1.5261455
19	0x3fd59ecb	1.6689085
20	0x3f2c81f2	0.6738578
21	0x3f14dcbd	0.5814932
22	0x3f34b302	0.70585644
23	0x3f4dd004	0.8039553
24	0x3f8bf154	1.0933022
25	0x3f422bca	0.75848067
26	0x3f39b19e	0.7253665
27	0xbe34afab	-0.17645137
28	0x3fad15bd	1.3522259
29	0x3f8d15ad	1.102224
30	0x3e8a575d	0.27019778
31	0xbea0ab99	-0.3138092
32	0x3fc0c565	1.506024
33	0x3fdf9b13	1.74692
34	0xbf002fc4	-0.50072885
35	0xbfb2cfe5	-1.3969694
36	0xbf4d50f8	-0.80201674
37	0xbf04fe2a	-0.51950324
38	0xbf1e5a13	-0.6185619
39	0xbf99104f	-1.1958102
40	0xbfd7cc0e	-1.6859148
41	0xbfecfed3	-1.8515266
42	0xbf09c417	-0.53814834
43	0xbf2a941f	-0.66632265
44	0xbf9f4f73	-1.2446121
45	0xbf1b25a7	-0.6060433
46	0xbf69e112	-0.91359055
47	0xbf1d6c13	-0.61493033
48	0xbea12063	-0.31470022
49	0xbf31446b	-0.6924502
50	0xbdae062d	-0.08497272
51	0xbf734b08	-0.95036364
52	0xbe6d3fef	-0.2316892
53	0xbe82eae0	-0.2556982
54	0xbfa5d186	-1.2954566
55	0xbf95179d	-1.1647831
56	0xbf84e3ce	-1.038202
57	0xbf5a4fb0	-0.85277843
58	0xbf67868d	-0.90439683
59	0xbf7917e8	-0.97302103
60	0xbfa5591c	-1.2917819
61	0xbff219a2	-1.8914073
62	0xbf55c19e	-0.8349856
63	0xbf18a8b6	-0.5963243
64	0xbfcbc757	-1.5920209
65	0xbff12014	-1.8837914
66	0xbe14df3c	-0.14538282
67	0xbeaddd36	-0.33957833

l1_b f4 [2]
0	0xc01c6b84	-2.4440622
1	0xbf00fae2	-0.50382817

exp_avg f4 [2, 34]
0	0xbc877c02	-0.016538624
1	0x3c828da5	0.015936682
2	0xbc8962b9	-0.016770707
3	0xbc49d8d9	-0.012319767
4	0x3cb9753e	0.022638913
5	0xbc17168d	-0.009221685
6	0xbbcdcd21	-0.006280557
7	0x3b932829	0.0044908714
8	0x3c289c85	0.010291223
9	0x3c4e738f	0.0126007935
10	0x3d06e232	0.03293056
11	0x3c861f41	0.016372325
12	0x3cc3a513	0.023882424
13	0x3c0194bf	0.007908999
14	0x3b5b0cf0	0.003342446
15	0xbbebd75d	-0.007197304
16	0xbc10cb19	-0.008837485
17	0x3c89dba0	0.016828358
18	0x3c749a0b	0.014929305
19	0xbb739bea	-0.003717179
20	0xbbf79b3b	-0.0075563467
21	0xbc5a4038	-0.013320975
22	0xbc2d2aa8	-0.010569252
23	0xbbf1d660	-0.007380292
24	0x3c0405a5	0.008057986
25	0xbc57f978	-0.013182037
26	0xbc4e0b63	-0.012575957
27	0xbc05e535	-0.008172323
28	0x3b7ba943	0.0038400448
29	0xbb01640b	-0.0019743468
30	0xbbe38c69	-0.0069442284
31	0xbc4dfa89	-0.012571939
32	0xbc4dfa89	-0.012571939
33	0xbbe38c6a	-0.006944229
34	0xbc877c03	-0.016538626
35	0x3c828d9c	0.015936665
36	0xbc8962b9	-0.016770707
37	0xbc49d8e2	-0.012319775
38	0x3cb97536	0.022638898
39	0xbc1716a2	-0.009221705
40	0xbbcdcd32	-0.0062805647
41	0x3b932812	0.0044908607
42	0x3c289c7f	0.010291218
43	0x3c4e737f	0.012600779
44	0x3d06e231	0.032930557
45	0x3c861f3d	0.016372317
46	0x3cc3a516	0.02388243
47	0x3c0194b0	0.007908985
48	0x3b5b0cae	0.0033424306
49	0xbbebd77c	-0.0071973186
50	0xbc10cb26	-0.008837497
51	0x3c89db96	0.01682834
52	0x3c7499fc	0.014929291
53	0xbb739c00	-0.003717184
54	0xbbf79b5b	-0.0075563616
55	0xbc5a4054	-0.013321001
56	0xbc2d2ab5	-0.010569264
57	0xbbf1d679	-0.0073803035
58	0x3c040595	0.0080579715
59	0xbc57f985	-0.013182049
60	0xbc4e0b70	-0.012575969
61	0xbc05e54e	-0.008172346
62	0x3b7ba8fa	0.0038400278
63	0xbb016444	-0.00197436
64	0xbbe38c95	-0.006944249
65	0xbc4dfaa6	-0.012571966
66	0xbc4dfaa6	-0.012571966
67	0xbbe38c95	-0.006944249

exp_avg_sq f4 [2, 34]
0	0x40caec68	6.341358
1	0x40c36151	6.1056294
2	0x40c8b5fd	6.2722154
3	0x409b8e68	4.8611336
4	0x40e2cba7	7.08736
5	0x40abb3d9	5.365704
6	0x40994257	4.789348
7	0x40ab1ddf	5.3473964
8	0x40d9c0fb	6.804807
9	0x40b08e38	5.5173607
10	0x406e7087	3.7256181
11	0x40914b14	4.540415
12	0x406aff2d	3.6718247
13	0x4057ca32	3.371716
14	0x40a9fdb5	5.31222
15	0x409bed07	4.872684
16	0x4060ed43	3.5144813
17	0x409c099c	4.876173
18	0x408d0755	4.407145
19	0x406cc02a	3.6992288
20	0x40c8b879	6.2725186
21	0x40d51a7a	6.659482
22	0x40c318d3	6.0967803
23	0x409af4a6	4.8423643
24	0x40e7ec79	7.2476163
25	0x409da1d6	4.9260054
26	0x409cd389	4.900822
27	0x40e71fa3	7.222612
28	0x40ab6607	5.3562045
29	0x4092d4b7	4.588466
30	0x4164e15d	14.30502
31	0x40d59946	6.67496
32	0x410d58f3	8.834216
33	0x4173dbcd	15.241162
34	0x40caec68	6.341358
35	0x40c36151	6.1056294
36	0x40c8b5fd	6.2722154
37	0x409b8e68	4.8611336
38	0x40e2cba7	7.08736
39	0x40abb3d8	5.3657036
40	0x40994257	4.789348
41	0x40ab1ddf	5.3473964
42	0x40d9c0fb	6.804807
43	0x40b08e38	5.5173607
44	0x406e7087	3.7256181
45	0x40914b14	4.540415
46	0x406aff2d	3.6718247
47	0x4057ca32	3.371716
48	0x40a9fdb5	5.31222
49	0x409bed05	4.872683
50	0x4060ed43	3.5144813
51	0x409c099b	4.8761725
52	0x408d0756	4.4071455
53	0x406cc02a	3.6992288
54	0x40c8b879	6.2725186
55	0x40d51a7a	6.659482
56	0x40c318d3	6.0967803
57	0x409af4a6	4.8423643
58	0x40e7ec79	7.2476163
59	0x409da1d9	4.926007
60	0x409cd389	4.900822
61	0x40e71fa3	7.222612
62	0x40ab6607	5.3562045
63	0x4092d4b7	4.588466
64	0x4164e15d	14.30502
65	0x40d59946	6.67496
66	0x410d58f3	8.834216
67	0x4173dbcd	15.241162

exp_avg f4 [2]
0	0x39d46494	0.00040510728
1	0x39d4649c	0.0004051075

exp_avg_sq f4 [2]
0	0x3b70f4cc	0.0036767004
1	0x3b70f4cc	0.0036767004
