context/220318_tskone_context1_d2_lr0.3/model.pt (torch, 3031 bytes, 6 tensors)

l1_w f4 [2, 32]
000000 f9 3d 73 3f e7 d9 10 40 2b 2e 2a 3f 8f 75 a5 3f
       0.9501644 2.2632997 0.66476697 1.2926501
000010 55 7b 0f 40 3e db 81 3f da 99 12 3e 65 1a 87 bf
       2.2419026 1.0145032 0.14316502 -1.055493
000020 bb 62 c5 3f 05 09 43 40 f5 99 c9 3f 95 cc 30 40
       1.5420755 3.0474255 1.5750109 2.7624867
000030 b0 3a f7 3f bd 2b 0a 40 5b 87 c8 3f 11 71 f6 3d
       1.9314785 2.1589196 1.5666307 0.120332845
000040 3c b9 b3 3f 24 10 6f bd 89 13 d4 3f d0 bd ad 3f
       1.4040904 -0.058365002 1.6568462 1.3573551
000050 c7 2a 0c c0 45 fa 52 bf 14 c0 c6 bf d8 1a 8c bf
       -2.190111 -0.8241313 -1.5527368 -1.0945692
000060 5b fe f4 3e f4 68 4a be 16 b7 6a bf 90 78 26 c0
       0.47850308 -0.19766599 -0.91685617 -2.6011086
000070 da 5d a9 3f 7e 6c a8 3f 90 92 b8 40 fb 55 86 40
       1.3231766 1.3158109 5.767891 4.1979957
000080 c9 87 33 bf d2 c0 43 3f 38 ef 15 bf 53 96 8a be
       -0.70129067 0.76466095 -0.58568144 -0.27067813
000090 74 d5 40 3f 47 7e 8b be 37 75 b8 bf 27 4f 30 c0
       0.75325704 -0.2724478 -1.4410771 -2.754831
0000a0 bc 89 af bd 27 95 ac 3f 4b e6 18 3e ee 1e 8b 3f
       -0.085711926 1.3483018 0.149316 1.0868814
0000b0 b8 b9 7b 3d eb a8 2a 3f ce 43 da 3b c5 ff d4 bf
       0.061456412 0.66664 0.006660915 -1.6640555
0000c0 e3 fd b9 be 6b ec b0 bf d8 81 0a bc 2e de 6b 3c
       -0.36326513 -1.3822149 -0.008453809 0.0143962335
0000d0 03 7c 69 c0 5b c9 20 c0 77 db 4f c0 3a d4 21 c0
       -3.648194 -2.5122898 -3.24777 -2.5285783
0000e0 71 0c 8e bf 73 f0 c7 bf 02 89 1e c0 f7 2d 80 c0
       -1.1097547 -1.5620254 -2.4771123 -4.005611
0000f0 49 96 fa be 5e 3c 25 bd b4 8a 74 40 74 ae 20 40
       -0.48942783 -0.040340774 3.8209658 2.5106478

l1_b f4 [2]
000000 2e 35 41 c0 d2 e8 8e c0
       -3.0188708 -4.4659204

exp_avg f4 [2, 32]
000000 cd 32 a7 b9 7a 2a 35 ba a0 bc 5a b9 c6 fc 13 ba
       -0.00031890572 -0.00069109316 -0.00020860368 -0.0005645271
000010 28 d4 62 ba 55 2d 40 37 c9 e5 57 3a 7f 35 fa 3a
       -0.00086528296 1.14546465e-05 0.000823584 0.0019089429
000020 f5 86 19 b9 24 fb 7b ba 5a cb 42 b9 7d e5 66 ba
       -0.00014641492 -0.0009612313 -0.00018577036 -0.0008808
000030 7c a8 9b b9 3b 58 2b ba c3 1e f9 b9 51 11 03 3a
       -0.00029689434 -0.00065362797 -0.000475159 0.0004999834
000040 f2 15 07 ba cd 3f f9 39 c9 47 58 ba 2e 97 16 ba
       -0.00051531114 0.00047540516 -0.0008250443 -0.00057445734
000050 99 a9 f0 3a ea 0c ac 3a ee 15 47 3a e7 2c c3 39
       0.0018361091 0.0013126407 0.00075945153 0.00037226753
000060 ee e3 7b b8 e4 71 fc 38 d2 e8 2b 3a ff f1 f1 3a
       -6.005534e-05 0.0001203751 0.0006557825 0.0018458961
000070 f7 ac 72 ba f5 c2 5c ba 1b e7 41 bb ac cf 03 bb
       -0.0009257341 -0.0008421385 -0.0029587212 -0.0020112796
000080 2f 33 a7 b9 ab 2a 35 ba 67 bd 5a b9 f5 fc 13 ba
       -0.00031890857 -0.000691096 -0.00020860658 -0.00056452985
000090 5b d4 62 ba e3 21 40 37 a0 e5 57 3a 64 35 fa 3a
       -0.0008652859 1.1451982e-05 0.0008235816 0.0019089398
0000a0 07 88 19 b9 66 fb 7b ba 5c cc 42 b9 c3 e5 66 ba
       -0.00014641891 -0.00096123514 -0.00018577412 -0.0008808041
0000b0 fe a8 9b b9 7c 58 2b ba 14 1f f9 b9 2b 11 03 3a
       -0.00029689813 -0.00065363175 -0.00047516136 0.00049998116
0000c0 16 16 07 ba 7e 3f f9 39 f0 47 58 ba 53 97 16 ba
       -0.00051531324 0.00047540286 -0.00082504656 -0.0005744595
0000d0 84 a9 f0 3a d5 0c ac 3a bc 15 47 3a 88 2c c3 39
       0.0018361066 0.0013126383 0.0007594486 0.00037226477
0000e0 41 e7 7b b8 65 70 fc 38 a5 e8 2b 3a e5 f1 f1 3a
       -6.0058435e-05 0.000120372315 0.0006557799 0.0018458931
0000f0 2a ad 72 ba 27 c3 5c ba 25 e7 41 bb bd cf 03 bb
       -0.0009257371 -0.0008421414 -0.0029587236 -0.0020112835

exp_avg_sq f4 [2, 32]
000000 0a 67 d1 3a bf 31 d0 3a 3d b8 d0 3a 54 a1 c1 3a
       0.0015976143 0.0015883966 0.0015924048 0.0014772811
000010 99 bd d9 3a 3c 92 c7 3a 1f fe bf 3a 94 8b f4 3a
       0.0016612291 0.0015226076 0.0014647878 0.001865732
000020 c6 36 03 3b 2f e2 f8 3a 6c 61 e0 3a db c6 ec 3a
       0.0020021661 0.0018988306 0.0017118878 0.0018064635
000030 07 84 df 3a cf 68 da 3a 1d 3b e6 3a 59 32 e0 3a
       0.0017052897 0.0016663315 0.0017565225 0.0017104849
000040 f3 fb cc 3a 7a f4 e0 3a 4c 69 da 3a 36 15 d0 3a
       0.0015639052 0.0017162703 0.0016663461 0.0015875462
000050 45 e9 ef 3a 1e 47 f4 3a 46 12 ca 3a 53 45 bc 3a
       0.0018303773 0.0018636917 0.0015416823 0.0014363922
000060 fd f2 d4 3a 63 44 bd 3a fd d4 bc 3a 28 d0 d3 3a
       0.0016246733 0.0014439936 0.0014406737 0.0016160058
000070 d3 c5 c2 3a 2e 64 b9 3a 5d fb a5 3a b0 42 d2 3a
       0.0014859982 0.0014144236 0.0012663413 0.0016041603
000080 09 67 d1 3a bb 31 d0 3a 3b b8 d0 3a 54 a1 c1 3a
       0.0015976141 0.0015883961 0.0015924046 0.0014772811
000090 99 bd d9 3a 38 92 c7 3a 1e fe bf 3a 94 8b f4 3a
       0.0016612291 0.0015226072 0.0014647876 0.001865732
0000a0 c5 36 03 3b 2f e2 f8 3a 6a 61 e0 3a d9 c6 ec 3a
       0.002002166 0.0018988306 0.0017118875 0.0018064632
0000b0 07 84 df 3a cf 68 da 3a 1f 3b e6 3a 59 32 e0 3a
       0.0017052897 0.0016663315 0.0017565227 0.0017104849
0000c0 f1 fb cc 3a 79 f4 e0 3a 4a 69 da 3a 35 15 d0 3a
       0.0015639049 0.0017162702 0.0016663459 0.0015875461
0000d0 44 e9 ef 3a 1a 47 f4 3a 46 12 ca 3a 51 45 bc 3a
       0.0018303772 0.0018636913 0.0015416823 0.001436392
0000e0 fb f2 d4 3a 61 44 bd 3a fd d4 bc 3a 29 d0 d3 3a
       0.001624673 0.0014439934 0.0014406737 0.0016160059
0000f0 d3 c5 c2 3a 2e 64 b9 3a 5c fb a5 3a b0 42 d2 3a
       0.0014859982 0.0014144236 0.0012663412 0.0016041603

exp_avg f4 [2]
000000 41 4b 12 3b 2b 4b 12 3b
       0.0022322687 0.0022322636

exp_avg_sq f4 [2]
000000 72 e3 fc 3a 72 e3 fc 3a
       0.0019293858 0.0019293858
