context/220318_tskone_context1_d4_lr0.3/model.pt (torch, 3223 bytes, 6 tensors)

l1_w f4 [2, 34]
0	0x3f4b1a4e	0.7933701
1	0x40019ccf	2.0251958
2	0x3f078fcb	0.52953786
3	0x3f8d3667	1.1032227
4	0x4004b684	2.0736399
5	0x3f7954ad	0.9739483
6	0x3e26bed7	0.16283737
7	0xbf62b96d	-0.8856419
8	0x3fc2d78f	1.5222033
9	0x403df48b	2.9680507
10	0x3fc0e8e6	1.5071075
11	0x4025ea76	2.5924354
12	0x3fed0a50	1.8518772
13	0x4002afdb	2.0419834
14	0x3fafe81a	1.3742707
15	0x3da91c5f	0.082573645
16	0x3f99a3b4	1.2003083
17	0xbe16ee83	-0.14739423
18	0x3fb84dcc	1.4398742
19	0x3f95a70b	1.1691602
20	0xc00a5ff8	-2.1621075
21	0xbf6452a9	-0.8918863
22	0xbfda01be	-1.7031782
23	0xbfa6ddde	-1.3036458
24	0x3e8c4333	0.2739502
25	0xbeb85b47	-0.3600714
26	0xbf8445c3	-1.033379
27	0xc025d11c	-2.590888
28	0x3f82340a	1.0172131
29	0x3f846171	1.0342237
30	0x40a8bc8d	5.2730165
31	0x407b518e	3.9268527
32	0x3ff7d17b	1.9360803
33	0x404de9fa	3.2174058
34	0xbf145599	-0.5794311
35	0x3ebdaefe	0.3704757
36	0xbf681672	-0.9065925
37	0xbe49d09a	-0.19708481
38	0x3f55f86b	0.8358218
39	0xbeb05fcc	-0.34448087
40	0xbfba7722	-1.4567606
41	0xc01cd47d	-2.4504693
42	0x3d280da1	0.041028623
43	0x3f8abf4e	1.0839632
44	0xbdc5fd15	-0.09667412
45	0x3f9c090b	1.219026
46	0x3e4dca16	0.20096621
47	0x3ebd1b87	0.36935064
48	0xbe941dfc	-0.28929126
49	0xbfb331fe	-1.3999631
50	0xbf100807	-0.5626225
51	0xbfbe3d0a	-1.4862378
52	0x3d018c11	0.03162772
53	0xbed0c94e	-0.40778583
54	0xc076063e	-3.844131
55	0xc01399d1	-2.3062632
56	0xc0457186	-3.085054
57	0xc025ef06	-2.5927138
58	0xbfa98658	-1.3244123
59	0xbfdb4472	-1.7130263
60	0xc02bb7ce	-2.6830935
61	0xc07d66e5	-3.9594052
62	0xbf479296	-0.7795805
63	0xbe88b737	-0.26702282
64	0x406451f4	3.567502
65	0x40121f6e	2.2831683
66	0x3efcf613	0.4940649
67	0x3fbe0d72	1.4847853

l1_b f4 [2]
0	0xc0310d9c	-2.7664557
1	0xc0877804	-4.2334003

exp_avg f4 [2, 34]
0	0xb9527f2e	-0.00020074539
1	0xba13887e	-0.0005627944
2	0xb8e18a8f	-0.000107546446
3	0xb9e6f358	-0.00044050324
4	0xba58e9b4	-0.00082745706
5	0xb895a47e	-7.135513e-05
6	0x3a404553	0.0007334549
7	0x3ae6c2f7	0.0017605711
8	0xb95afb1f	-0.0002088365
9	0xba892c38	-0.0010465449
10	0xb92d2b9d	-0.00016514813
11	0xba52b328	-0.00080375606
12	0xb99525ff	-0.00028447804
13	0xba1f752b	-0.0006082828
14	0xb9ac8601	-0.00032906237
15	0x3a01cbde	0.0004951338
16	0xb9c046b8	-0.00036673783
17	0x3a17794d	0.0005778268
18	0xba32aa55	-0.00068155426
19	0xb9ec7812	-0.00045102887
20	0x3afd8d0f	0.0019344407
21	0x3abca7d8	0.0014393283
22	0x3a863c0c	0.0010241284
23	0x3a301cbf	0.00067181507
24	0x3917bf51	0.00014471753
25	0x398bcf2b	0.00026666498
26	0x3a5116a4	0.0007976091
27	0x3b001521	0.0019543844
28	0xba309aca	-0.00067369326
29	0xba265c4c	-0.0006346151
30	0xbb33b9b8	-0.002742393
31	0xbaf7fc7b	-0.001891985
32	0xba83e709	-0.0010063361
33	0xbb0a20a2	-0.002107658
34	0xb95275fe	-0.00020071116
35	0xba13861d	-0.00056275894
36	0xb8e17818	-0.00010751205
37	0xb9e6eef7	-0.0004404706
38	0xba58e764	-0.0008274226
39	0xb89591b9	-7.1320166e-05
40	0x3a404791	0.0007334883
41	0x3ae6c41b	0.0017606051
42	0xb95af1ab	-0.00020880128
43	0xba892b0f	-0.0010465103
44	0xb92d2320	-0.00016511651
45	0xba52b0d6	-0.0008037215
46	0xb99521a9	-0.00028444573
47	0xba1f731c	-0.0006082521
48	0xb9ac8194	-0.0003290294
49	0x3a01ce46	0.00049516966
50	0xb9c04276	-0.0003667061
51	0x3a177bad	0.0005778622
52	0xba32a811	-0.0006815205
53	0xb9ec7396	-0.00045099546
54	0x3afd8e3d	0.0019344758
55	0x3abca914	0.0014393651
56	0x3a863d2f	0.0010241623
57	0x3a301eea	0.0006718474
58	0x3917c87c	0.00014475168
59	0x398bd3a3	0.00026669828
60	0x3a5118d7	0.0007976419
61	0x3b0015b7	0.0019544193
62	0xba309899	-0.0006736606
63	0xba265a13	-0.00063458196
64	0xbb33b93a	-0.0027423636
65	0xbaf7fb82	-0.001891956
66	0xba83e607	-0.001006306
67	0xbb0a2026	-0.002107629

exp_avg_sq f4 [2, 34]
0	0x3af36b1d	0.0018571351
1	0x3af1d68f	0.0018450784
2	0x3af2a1fa	0.0018511408
3	0x3ae10ae8	0.0017169388
4	0x3afcec6c	0.0019296533
5	0x3ae7f3a1	0.0017696508
6	0x3adf3629	0.0017029691
7	0x3b0e0455	0.0021670063
8	0x3b1849e4	0.0023237402
9	0x3b10525b	0.0022021744
10	0x3b022f78	0.001986472
11	0x3b094213	0.0020943924
12	0x3b01ac75	0.001978663
13	0x3afd6174	0.0019331411
14	0x3b0597fb	0.0020384777
15	0x3b022bcc	0.001986253
16	0x3aedeaa6	0.0018151596
17	0x3b029d68	0.0019930247
18	0x3afd6e77	0.0019335289
19	0x3af17a9b	0.001842338
20	0x3b0b5f6c	0.0021266593
21	0x3b0ddeb3	0.0021647632
22	0x3aeb3b47	0.0017946743
23	0x3adb2ccd	0.0016721726
24	0x3af7d7fe	0.0018908975
25	0x3adc4eca	0.0016808149
26	0x3adbd1b9	0.0016770876
27	0x3af689a3	0.001880933
28	0x3ae2a38a	0.001729117
29	0x3ad7b6a1	0.0016457626
30	0x3ac05a14	0.0014675283
31	0x3af39ea8	0.0018586712
32	0x3ae0c1ed	0.0017147638
33	0x3ab95324	0.0014139158
34	0x3af36b1f	0.0018571353
35	0x3af1d692	0.0018450788
36	0x3af2a1fc	0.001851141
37	0x3ae10ae8	0.0017169388
38	0x3afcec70	0.0019296538
39	0x3ae7f3a3	0.0017696511
40	0x3adf362b	0.0017029693
41	0x3b0e0455	0.0021670063
42	0x3b1849e4	0.0023237402
43	0x3b10525b	0.0022021744
44	0x3b022f78	0.001986472
45	0x3b094213	0.0020943924
46	0x3b01ac75	0.001978663
47	0x3afd6174	0.0019331411
48	0x3b0597fc	0.002038478
49	0x3b022bcb	0.0019862528
50	0x3aedeaa6	0.0018151596
51	0x3b029d69	0.001993025
52	0x3afd6e79	0.0019335292
53	0x3af17a99	0.0018423378
54	0x3b0b5f6c	0.0021266593
55	0x3b0ddeb3	0.0021647632
56	0x3aeb3b47	0.0017946743
57	0x3adb2ccd	0.0016721726
58	0x3af7d7fc	0.0018908973
59	0x3adc4eca	0.0016808149
60	0x3adbd1b9	0.0016770876
61	0x3af689a3	0.001880933
62	0x3ae2a38c	0.0017291172
63	0x3ad7b69e	0.0016457622
64	0x3ac05a14	0.0014675283
65	0x3af39eac	0.0018586717
66	0x3ae0c1f0	0.0017147642
67	0x3ab95325	0.0014139159

exp_avg f4 [2]
0	0x3b0d5f52	0.0021571708
1	0x3b0d5f3a	0.0021571652

exp_avg_sq f4 [2]
0	0x3b12fdf3	0.0022429198
1	0x3b12fdf4	0.00224292
