context/220310_tskone_direct_lr0.8/model.pt (torch, 3223 bytes, 6 tensors)

l1_w f4 [2, 34]
1.2163106 2.08371 0.84125316 1.21554 2.8130376 0.4463675 -0.9006274 -1.3899912
2.9473712 4.444506 2.3661592 4.1716857 2.7114112 2.9906445 4.6803513 2.3255959
4.093131 2.5013182 4.784695 4.150032 0.057106208 1.4068953 -0.014294441 0.3313298
2.255511 0.8524524 -0.03916517 -1.6455393 3.0050855 2.698942 -0.88111776 -4.667405
1.5805024 4.9219275 -2.2108274 -1.6519326 -2.6473687 -2.1375518 -0.5172391 -2.932737
-4.5591574 -4.926216 -0.58071584 0.4916184 -1.2567692 0.7363637 -0.960645 -0.7033275
0.9015748 -1.2377387 0.23977213 -0.918431 1.2668811 0.4735791 -3.6603487 -2.0813987
-3.5059588 -3.070676 -1.4892817 -2.630475 -3.809139 -5.1140704 -0.9410087 -0.7552678
-4.519988 -8.0383835 -1.7783362 1.0618472
00000000: 11b0 9b3f 815b 0540 5e5c 573f d196 9b3f
00000010: cf08 3440 488a e43e 848f 66bf 3beb b1bf
00000020: bba1 3c40 6539 8e40 276f 1740 737e 8540
00000030: c387 2d40 b866 3f40 70c5 9540 90d6 1440
00000040: eefa 8240 9915 2040 391c 9940 10cd 8440
00000050: 33e8 693d 2515 b43f 3b33 6abc 0fa4 a93e
00000060: 4b5a 1040 523a 5a3f a86b 20bd 08a1 d2bf
00000070: 5253 4040 77bb 2c40 ef90 61bf 625b 95c0
00000080: e74d ca3f 6e80 9d40 327e 0dc0 8772 d3bf
00000090: 7d6e 29c0 a6cd 08c0 c869 04bf f7b1 3bc0
000000a0: 9ee4 91c0 90a3 9dc0 cba9 14bf 68b5 fb3e
000000b0: d0dd a0bf 5582 3c3f d5ec 75bf 450d 34bf
000000c0: 9bcd 663f 396e 9ebf d386 753e 4b1e 6bbf
000000d0: 2929 a23f f678 f23e 2743 6ac0 a335 05c0
000000e0: a161 60c0 f585 44c0 c8a0 bebf b459 28c0
000000f0: efc8 73c0 77a6 a3c0 f2e5 70bf 3b59 41bf
00000100: bea3 90c0 389d 00c1 85a0 e3bf 9cea 873f

l1_b f4 [2]
5.364952 1.7083591
00000000: b0ad ab40 83ab da3f

exp_avg f4 [2, 34]
0.00013338593 0.0005537408 0.00028911355 0.00011157499 -0.00012247378 0.0011078344 0.002040314 0.0021416678
-8.872163e-06 -0.00056353636 6.8711306e-05 -0.0004458907 -1.4180655e-05 -0.00040376405 -0.00068311905 0.00041223032
-0.00082934933 0.0001193228 -0.0009991982 -0.00080133637 0.0008651891 0.0009969497 0.0009589181 0.0007085454
0.00049996533 0.0009061848 0.0014440661 0.002305896 -0.00013401793 7.716265e-05 0.0025035422 0.0026225706
-0.00079435523 -0.001210306 0.00013335871 0.000553714 0.0002890863 0.00011154865 -0.00012250323 0.001107806
0.0020402863 0.00214164 -8.9007135e-06 -0.000563565 6.868555e-05 -0.00044591678 -1.4206295e-05 -0.00040378948
-0.0006831465 0.00041220288 -0.00082937506 0.000119296084 -0.0009992248 -0.00080136245 0.0008651617 0.0009969221
0.00095889065 0.0007085188 0.00049993553 0.000906156 0.0014440381 0.002305867 -0.00013404634 7.7134246e-05
0.002503511 0.00262254 -0.00079438597 -0.0012103368
00000000: 83dd 0b39 eb28 113a 2a94 9739 5efd e938
00000010: 4e6c 00b9 c134 913a cab6 053b 395b 0c3b
00000020: a6d9 14b7 49ba 13ba 1a19 9038 70c6 e9b9
00000030: 73e9 6db7 4bb0 d3b9 5813 33ba 9e20 d839
00000040: b168 59ba f13c fa38 87f7 82ba c610 52ba
00000050: dccd 623a 15ac 823a e85f 7b3a adbd 393a
00000060: 1b10 033a 088d 6d3a d146 bd3a 841e 173b
00000070: 2a87 0cb9 62d2 a138 7812 243b 6fdf 2b3b
00000080: 473c 50ba 21a3 9eba 35d6 0b39 1e27 113a
00000090: 8290 9739 3aef e938 3674 00b9 cd33 913a
000000a0: 53b6 053b c25a 0c3b 4654 15b7 35bc 13ba
000000b0: 460b 9038 f0c9 e9b9 9357 6eb7 b5b3 d3b9
000000c0: 3015 33ba ef1c d839 6b6a 59ba 992e fa38
000000d0: 6cf8 82ba 8612 52ba 05cc 623a 28ab 823a
000000e0: 105e 7b3a e4bb 393a 1b0e 033a 1a8b 6d3a
000000f0: e145 bd3a 071e 173b ca8e 0cb9 22c3 a138
00000100: f211 243b ecde 2b3b 573e 50ba 2aa4 9eba

exp_avg_sq f4 [2, 34]
0.009594007 0.009532201 0.0095695695 0.009026214 0.009875047 0.009234649 0.008967873 0.009187968
0.0097859325 0.009299087 0.008493412 0.008889747 0.008462414 0.00828667 0.009229185 0.009028531
0.008369658 0.009057475 0.00883219 0.008471611 0.009551051 0.009712424 0.009492557 0.009002061
0.009909048 0.009051255 0.0090288315 0.009823629 0.0092606945 0.008920652 0.011036113 0.009193894
0.009771524 0.0112480065 0.009594007 0.009532202 0.00956957 0.009026214 0.00987505 0.009234649
0.008967874 0.009187969 0.0097859325 0.009299086 0.008493412 0.008889747 0.008462414 0.00828667
0.009229185 0.00902853 0.008369657 0.009057475 0.00883219 0.008471611 0.009551051 0.009712425
0.009492557 0.009002062 0.00990905 0.009051257 0.0090288315 0.009823629 0.0092606945 0.00892065
0.011036112 0.0091938935 0.009771525 0.011248004
00000000: 2f30 1d3c f32c 1c3c afc9 1c3c afe2 133c
00000010: f3ca 213c ed4c 173c fced 123c 2289 163c
00000020: 2d55 203c 335b 183c f427 0b3c 4da6 113c
00000030: f0a5 0a3c d0c4 073c 0236 173c 67ec 133c
00000040: e420 093c ce65 143c e4b4 103c 83cc 0a3c
00000050: 037c 1c3c dc20 1f3c ab86 1b3c 617d 133c
00000060: 8f59 223c b74b 143c aaed 133c 49f3 203c
00000070: 2bba 173c ed27 123c d0d0 343c fda1 163c
00000080: be18 203c 8f49 383c 2f30 1d3c f42c 1c3c
00000090: b0c9 1c3c afe2 133c f6ca 213c ed4c 173c
000000a0: fded 123c 2389 163c 2d55 203c 325b 183c
000000b0: f427 0b3c 4da6 113c f0a5 0a3c d0c4 073c
000000c0: 0236 173c 66ec 133c e320 093c ce65 143c
000000d0: e4b4 103c 83cc 0a3c 037c 1c3c dd20 1f3c
000000e0: ab86 1b3c 627d 133c 9159 223c b94b 143c
000000f0: aaed 133c 49f3 203c 2bba 173c eb27 123c
00000100: cfd0 343c fca1 163c bf18 203c 8c49 383c

exp_avg f4 [2]
-0.0017405616 -0.0017405674
00000000: 8e23 e4ba c023 e4ba

exp_avg_sq f4 [2]
0.008270058 0.008270058
00000000: 237f 073c 237f 073c
