context/220318_tskone_context1_d0_lr0.3/model.pt (torch, 3031 bytes, 6 tensors)

l1_w f4 [2, 30]
00000000: 5582 cd3f cff4 4240 bb25 a53f 058e fe3f
00000010: d9e7 3d40 0467 c53f 380a 1a3f 0f5c 47bf
00000020: 8b8d 0240 25ad 6940 76c2 0940 c133 5b40
00000030: f48b 2040 d6e4 3240 382c fb3f d99c 7e3e
00000040: 21ab e23f a2dc 393e 0223 f93f 7227 d93f
00000050: b747 04c0 7f76 0cbf b13c aabf a04c 52bf
00000060: 5b21 693f 95d8 a83d 6e81 2cbf 665b 1ec0
00000070: ebc6 df3f a16f e03f e221 46be 465e 9a3f
00000080: 02df 0fbf f153 8b3e f629 ae3f a431 a9be
00000090: 3160 c9bf cad3 30c0 f15d 1e3e 349b c23f
000000a0: ae91 903e 2f12 d43f f4e1 043f 004b 313f
000000b0: 04e2 fbbd 60c0 d4bf da5a 49be 08c2 e0bf
000000c0: 6f8c afbc a6a5 8b3d de99 83c0 f2e4 13c0
000000d0: 0f9b 48c0 9047 38c0 446a aabf ddad e1bf
000000e0: 88a4 23c0 016d 87c0 54ba 99be 2447 263d
1.6055399 3.046192 1.290214 1.9887091 2.9672759 1.5422063 0.6017184 -0.77874845
2.039889 3.651193 2.152494 3.4250338 2.508542 2.795217 1.962287 0.2486452
1.7708474 0.18150571 1.9463809 1.6965163 -2.0668771 -0.5486831 -1.3299772 -0.8214817
0.9106652 0.08244435 -0.67384994 -2.4743285 1.748258 1.7534066 -0.19348863 1.206002
-0.5619966 0.2721248 1.3606555 -0.33045685 -1.573248 -2.7629266 0.15465523 1.5203614
0.28236145 1.6568049 0.5190728 0.69255066 -0.122989684 -1.6621208 -0.19663563 -1.7559214
-0.021429269 0.06818704 -4.1125326 -2.3108487 -3.134464 -2.8793678 -1.331368 -1.7631184
-2.5569172 -4.232056 -0.3002497 0.04059519

l1_b f4 [2]
00000000: 68ae 43c0 0d60 97c0
-3.05752 -4.730475

exp_avg f4 [2, 30]
00000000: e09d 56ba e185 bcba 8574 28ba 871f 97ba
00000010: d089 c6ba 90f1 0fb9 b974 6f3a f80b 213b
00000020: f92c adb9 bce6 bbba 8055 0cba 0965 c4ba
00000030: ced1 28ba 42bf 9aba 1366 3aba 709c 633a
00000040: 5ae2 48ba 8546 203a 5a8c 79ba 5066 49ba
00000050: a71e 1c3b 7a6e c73a 7e57 763a 8acd cd39
00000060: e054 92b9 8c6e 0e39 7111 523a 1d0a 1d3b
00000070: 59b2 aaba 826c 9fba d09d 56ba cd85 bcba
00000080: 7674 28ba 7e1f 97ba c889 c6ba 57f1 0fb9
00000090: c574 6f3a f50b 213b f02c adb9 b9e6 bbba
000000a0: 7855 0cba fa64 c4ba c4d1 28ba 40bf 9aba
000000b0: f165 3aba 819c 633a 45e2 48ba 9a46 203a
000000c0: 3e8c 79ba 3666 49ba aa1e 1c3b 8f6e c73a
000000d0: 8e57 763a adcd cd39 ac54 92b9 e66e 0e39
000000e0: 7d11 523a 1f0a 1d3b 4bb2 aaba 736c 9fba
-0.00081869774 -0.0014383161 -0.0006426054 -0.0011529782 -0.0015147272 -0.00013727532 0.00091345195 0.0024573784
-0.0003303064 -0.0014335732 -0.00053533167 -0.0014983724 -0.0006439955 -0.0011806267 -0.0007110547 0.0008682674
-0.00076631235 0.0006114024 -0.000951951 -0.0007682787 0.002382198 0.001521542 0.00093971926 0.00039253786
-0.00027910527 0.00013583357 0.0008013463 0.0023962327 -0.0013023122 -0.0012163075 -0.0008186968 -0.0014383137
-0.00064260454 -0.0011529771 -0.0015147263 -0.00013727449 0.00091345265 0.0024573777 -0.00033030612 -0.0014335728
-0.0005353312 -0.0014983707 -0.0006439949 -0.0011806265 -0.00071105274 0.00086826837 -0.00076631113 0.0006114036
-0.0009519494 -0.0007682772 0.0023821988 0.0015215444 0.0009397202 0.00039253887 -0.00027910376 0.00013583488
0.000801347 0.0023962331 -0.0013023106 -0.0012163058

exp_avg_sq f4 [2, 30]
00000000: cf2a 003b 630b ff3a a87a ff3a 1a17 ed3a
00000010: d76e 053b fe5c f43a c9ed ea3a c1cc 153b
00000020: 38f0 203b 9fbb 183b 949e 093b dc49 113b
00000030: 9c18 093b 4efd 053b 9eff 0c3b 0937 093b
00000040: 96fd fa3a 87ab 093b 3dbe 053b a8d0 fe3a
00000050: 12ad 123b 8c6b 153b 9cce f63a 63fc e53a
00000060: ae3d 023b ab5d e73a 72bd e63a 6f4f 013b
00000070: ea4a ee3a a5d8 e23a 6d4d 003b e057 ff3a
00000080: 83bf ff3a c257 ed3a 8d93 053b b49e f43a
00000090: 882b eb3a 28f2 153b 2218 213b b5e3 183b
000000a0: c2c2 093b 5f72 113b a83c 093b ad20 063b
000000b0: dd24 0d3b 045a 093b ca3f fb3a 49cf 093b
000000c0: 8de1 053b b514 ff3a cad1 123b 7b95 153b
000000d0: ccff f63a 322a e63a 4858 023b 7e8b e73a
000000e0: 9ce9 e63a 6668 013b 927a ee3a b207 e33a
0.0019556766 0.001945835 0.001949151 0.001808855 0.0020360255 0.0018643436 0.0017923649 0.0022857639
0.0024557244 0.002330519 0.002099906 0.0022169268 0.002091921 0.002044517 0.0021514664 0.0020937345
0.0019149061 0.002100678 0.002040758 0.0019440847 0.002238099 0.0022799699 0.0018829885 0.001754653
0.001987319 0.0017651817 0.0017604067 0.0019731184 0.0018180285 0.0017306997 0.00195774 0.0019481145
0.0019512031 0.0018107819 0.0020382137 0.001866302 0.001794205 0.0022879932 0.0024581035 0.0023329083
0.0021020626 0.0022193415 0.0020940695 0.0020466254 0.0021536865 0.0020958195 0.0019168791 0.0021028093
0.0020428628 0.0019461127 0.0022402876 0.0022824693 0.0018844544 0.0017560183 0.0019889046 0.0017665473
0.0017617228 0.0019746064 0.0018194488 0.0017321019

exp_avg f4 [2]
00000000: 76ff 4c3b 63ff 4c3b
0.0031280196 0.0031280152

exp_avg_sq f4 [2]
00000000: 48ac 1a3b 43cf 1a3b
0.0023601223 0.0023622073
