context/220314_tskone_context1_lr0.4/model.pt (torch, 3031 bytes, 6 tensors)

l1_w f4 [2, 30]
00000000: 9bdf fb3f 458e 5e40 582a d13f e90a 1940
00000010: 01db 5940 fd06 eb3f 61a7 473f 1178 3cbf
00000020: 41c2 1640 5b74 8240 6d54 1f40 6ffa 7640
00000030: 84d6 3640 d6cb 4c40 8c36 1440 64ff e13e
00000040: 9b84 0840 c902 cc3e 38df 1440 08d5 0340
00000050: b49a 01c0 2ce5 d5be 7425 95bf 9288 19bf
00000060: 7fe0 9a3f b60c ac3e fe3b fdbe 3276 1dc0
00000070: af45 0a40 a041 0a40 4f37 c6be 4dc6 893f
00000080: 5611 46bf 6ae7 f03d c413 9e3f 8e36 18bf
00000090: c48e f9bf 032b 52c0 21c6 cebd 2961 af3f
000000a0: d73d 413d 0adf c13f b7ea 963e 9a1d 063f
000000b0: 82e2 acbe ac19 02c0 2f6c cdbe 3f8c 06c0
000000c0: a432 57be af9e 0bbe e004 94c0 3762 2fc0
000000d0: afad 60c0 34c1 4cc0 5f65 cabf 178a 03c0
000000e0: 95f3 3ac0 f336 98c0 0e71 e0be 9bc4 d4bd
1.9677614 3.4774334 1.6341047 2.391291 3.403992 1.8361508 0.77989775 -0.73620707
2.3556063 4.0767035 2.489528 3.8590353 2.856843 3.1999412 2.3158293 0.4414016
2.1330936 0.39845875 2.3261242 2.0598774 -2.0250673 -0.41776407 -1.1652055 -0.59974015
1.2099761 0.33603448 -0.49459833 -2.460339 2.1605031 2.1602554 -0.38714072 1.0763642
-0.773702 0.11762889 1.2349782 -0.59458244 -1.9496694 -3.2838752 -0.10096384 1.3701526
0.047178116 1.5146191 0.29475948 0.5238892 -0.33766562 -2.032817 -0.401216 -2.10231
-0.21015412 -0.13634752 -4.625595 -2.7403696 -3.5106008 -3.1992922 -1.5812186 -2.0553033
-2.921117 -4.7567077 -0.43836254 -0.10389062

l1_b f4 [2]
00000000: 84d2 44c0 bd92 a9c0
-3.0753489 -5.2991624

exp_avg f4 [2, 30]
00000000: b13a 65ba edb4 aeba a4f4 38ba 4f48 98ba
00000010: ef61 baba c2ec 11b9 f834 593a f6be 0e3b
00000020: a410 d1b9 2c33 b3ba fd09 15ba b1cb b9ba
00000030: d13c 2fba bae9 9aba 930a 46ba 9580 343a
00000040: 7490 5cba 8ef8 e839 8cf8 82ba a91f 58ba
00000050: 0e5f 033b 9e26 ac3a 4a4f 3a3a 07b8 5f39
00000060: 4d41 afb9 fa42 1838 1fbb 293a 2f9b 093b
00000070: 2a19 acba 723f 9cba ff3a 65ba 15b5 aeba
00000080: f2f4 38ba 7648 98ba 1862 baba 04ee 11b9
00000090: a834 593a dcbe 0e3b 9111 d1b9 6533 b3ba
000000a0: 640a 15ba e7cb b9ba 3a3d 2fba eee9 9aba
000000b0: f80a 46ba 3880 343a d390 5cba cef7 e839
000000c0: bcf8 82ba 0720 58ba f85e 033b 6f26 ac3a
000000d0: fc4e 3a3a e1b6 5f39 0642 afb9 db3d 1838
000000e0: c9ba 293a 1c9b 093b 5519 acba 9d3f 9cba
-0.00087444024 -0.0013329067 -0.0007055497 -0.0011618229 -0.001421986 -0.00013916477 0.0008285786 0.0021781302
-0.00039875985 -0.0013671867 -0.00056853873 -0.0014175085 -0.00066847826 -0.0011818924 -0.0007554676 0.00068856153
-0.0008413859 0.00044435676 -0.0009992286 -0.0008244464 0.002004567 0.0013134067 0.0007107152 0.00021335493
-0.00033427254 3.6302e-05 0.00064747216 0.0020997038 -0.0013130058 -0.0011920764 -0.0008744448 -0.0013329113
-0.00070555427 -0.0011618275 -0.0014219908 -0.00013916945 0.00082857395 0.0021781242 -0.00039876674 -0.0013671933
-0.0005685447 -0.0014175148 -0.00066848437 -0.0011818984 -0.0007554735 0.0006885561 -0.00084139145 0.00044435117
-0.0009992342 -0.00082445185 0.002004562 0.0013134013 0.00071071065 0.00021335065 -0.00033427792 3.629723e-05
0.00064746715 0.0020996993 -0.0013130108 -0.0011920814

exp_avg_sq f4 [2, 30]
00000000: e5a8 2a3b d3a6 293b 6118 2a3b 71ce 1d3b
00000010: 137f 313b e8a5 223b 636a 1c3b 8373 473b
00000020: 9a11 563b 3fd1 4a3b 3aff 363b 2dea 403b
00000030: fe46 363b 6c16 323b 3581 3b3b 3c94 363b
00000040: 28e8 263b 9232 373b 9ed8 313b c06b 293b
00000050: 641b 433b 99dc 463b 4e3d 243b 7113 193b
00000060: d585 2d3b 6213 1a3b ac9c 193b ecfb 2b3b
00000070: 4ab9 1e3b 3e14 173b 79cb 2a3b 24cd 293b
00000080: cc3a 2a3b c9ee 1d3b cca3 313b d8c6 223b
00000090: 4289 1c3b eb98 473b 8039 563b 55f9 4a3b
000000a0: 7123 373b b612 413b 056b 363b cf39 323b
000000b0: 72a6 3b3b 2eb7 363b 3709 273b 5656 373b
000000c0: f1fb 313b ca8d 293b 1b40 433b 9806 473b
000000d0: e455 243b 5a2a 193b 6da0 2d3b 4a2a 1a3b
000000e0: bfb2 193b f214 2c3b 23d1 1e3b bf2b 173b
0.002604061 0.0025886788 0.0025954472 0.0024079347 0.0027083799 0.0024818126 0.0023867122 0.003043384
0.00326643 0.0030947474 0.0027923123 0.0029436455 0.002781331 0.002717401 0.002861095 0.002785935
0.0025467966 0.0027953726 0.002713717 0.0025851578 0.0029770965 0.0030343889 0.0025060955 0.0023357535
0.0026477475 0.0023510088 0.002343933 0.0026242686 0.0024219328 0.0023052837 0.002606122 0.0025909627
0.0025974987 0.0024098626 0.0027105687 0.0024837758 0.0023885523 0.0030456136 0.0032688081 0.0030971367
0.0027944709 0.0029460615 0.0027834785 0.00271951 0.0028633145 0.002788018 0.002548767 0.0027975044
0.0027158225 0.0025871866 0.0029792849 0.003036892 0.002507561 0.002337119 0.0026493326 0.0023523741
0.0023452488 0.0026257602 0.0024233542 0.0023066846

exp_avg f4 [2]
00000000: 5030 293b 3930 293b
0.002581615 0.0025816096

exp_avg_sq f4 [2]
00000000: 5afb 4d3b 581e 4e3b
0.0031430335 0.0031451192
